src/collect_models/vanilla/vanilla_humanoid_best.model (torch, 715982 bytes, 36 tensors)

affine_layers.0.weight f4 [64, 376]
00000000: 9cfc d6bd 6952 42bd 5a53 493d 6821 da3c
00000010: d5ec 823b 2eec eebd 1a59 54bd 3915 453c
00000020: f5b4 4bbd ae56 a1bd e01e 7cbc f77d bfbd
00000030: 8a0b 023d 3e59 24bd d67e c73c b185 83bd
00000040: f3d9 8b3d 30d9 ccbd fda0 8dbd 5afa 8cbd
00000050: 4cae bbbc 0ea7 f23c 0d2e 6e3e 609a fb3d
00000060: 8cce 92bc ae1e f9bd 86c3 073d 4160 4cbd
00000070: aa4f 9a3b 7c65 d1bb c536 27bd 5a1e bd3d
00000080: e78d 223e 7e31 cdbc 00bd 3e3d 4975 0b3c
00000090: d12e c03d 0d94 d43d 8330 a2bd 927e 2b3b
000000a0: 8f0c 32bd fe73 80bd 77ca 76bc d64b 623c
000000b0: a124 7cbb 5c63 dcbc 80b8 a9bd efb1 ad3d
000000c0: 9814 e0bd c360 38bd 6868 27bd 8b51 453d
000000d0: 00ff 593d 6160 143d 91cc 40bd c710 43bc
000000e0: d369 1abc 057b 07be f2f0 9fbd a3ac 7a3d
000000f0: 704f 32be 784e 143c b731 0ebd c363 a1bd
00000100: 9661 bc3d af71 a73d cff1 613d fb98 edbd
00000110: a2d2 04bd 3b15 53bd c1e6 a0bc a0f5 9cbc
00000120: 402b 9b3c 5472 e33b 60d5 3ebd f9bf 2a3d
00000130: 24d5 b9bc d64e da3d 91d7 9cbc 0b02 763d
00000140: 3649 ba3d 1c51 f43d c2c6 333e 1c03 7fbd
00000150: 9a9d 4fbd 11ee 223d 415e 013d efae 83bd
00000160: ad5e babc 598d 04be 268b 43bd 924d eebd
00000170: 4936 70bd a0f0 713c 0d27 2fbd 8577 623d
00000180: cc6c a1bd c595 023e 8b21 d63d afc3 e4bd
00000190: da5f 2e3c 30cb 34bc 7147 c33c 4a67 2bbc
000001a0: 0e4f 263e 1070 3bbe 1a34 073e d755 edbc
000001b0: ef35 223d 37af 45bd 8827 5dbc 7f14 a03d
000001c0: 9420 8dbd a518 ad3d 036a 013d ff50 243d
000001d0: 7397 9bbd 53f9 0ebd c750 f3bb 590f 0fbe
000001e0: c228 dc3d fded c63c f802 93bd dab4 de3d
000001f0: 250a 99bd a3bf dfbc 7201 9ebc ed1b 84bd
00000200: 9e38 71bd feb2 86bd 91d3 813d 43a5 bcbd
00000210: 54ad 63bd b543 c439 2e71 2dbd 8bc0 8e3c
00000220: 9721 8e3d 4e92 923d 07da e13b 8923 81bb
00000230: 0bfe f23d d9fd d5bd 5217 ac3d 58ec b6bc
00000240: 637e c2bc 8b2d 1a3b 3671 32bd 7a50 72bd
00000250: 3406 cdbc 0eb9 043d 17be 35be 4f30 043d
00000260: 6869 593c f073 9b3c edf8 6a3d 866a 0bbe
00000270: 7a1f 8ebd b548 393e 3eb5 13bd 078e 2dbd
00000280: affa c13a 1a97 d9bc 045b 513d 8f0d fdbc
00000290: 43e2 aebd 3292 77bc 1e1a 48bd e9c5 6cbd
000002a0: 5316 21bd 163d fbbc 2dd2 1dbe a60b 5bbc
000002b0: 6307 573c bc68 94bb 7ae2 e6bd 8ec9 a73c
000002c0: e48c 9e3d 2b35 be3b cc5f 123d 22aa e83c
000002d0: 9095 cb3d 9bde e43d 9ae3 463c 6458 04be
000002e0: 9932 353c d2b1 c83d e249 423d af40 453d
000002f0: 5fcb 3bbb 19dc c33d 81f5 bdbc cef1 63bd
00000300: f784 c43d 9582 8eba 0076 0a3c dc0b 293c
00000310: 16c5 dcbc 19d3 a8bd c4ef 163e 8947 68bd
00000320: bbc8 0c3e ba4d 033e 418b 91bd e974 973c
00000330: 1893 183d 903c 2c3b e39d 4c3d f83e 1a3d
00000340: ad8b aa3b 1adf 3abd 45ef 2d3e ad39 b6bd
00000350: 52e0 503d ffb6 9a3d f912 31bc 75fb b63d
00000360: f01b 64bd 2314 a93d 39ec 3c3d 653a efbd
00000370: 1fac 57bc fb7f 08be fcbb 9bbb 2c84 0ebe
00000380: 97d6 043e 0566 d4bc a17c c8bd 2b2f ef3d
00000390: 8759 ea3b 519a b03d 74b7 163d e3d2 f1bc
000003a0: 37e6 b03d fc0f 113d eb40 443d e407 8b3d
000003b0: e851 4f3d 1a9c 79bd 05d4 5fbb 1f29 b2bd
000003c0: 60b2 9039 8e59 88bd c80b eabb f3fe d93b
000003d0: 6450 6abd 716d 093e e630 a23d 48b3 04bd
000003e0: 6e3f 893d cfac 90bd b5ee 813d 3311 80bc
000003f0: 38df c03d 48c7 7fbc 2245 8e3d 3353 053c
-0.104974 -0.047441874 0.049151756 0.026627257 0.0039955177 -0.116661415 -0.051842786 0.012028986
-0.04973312 -0.07877861 -0.015388221 -0.09350198 0.031749286 -0.04012417 0.024352472 -0.06421984
0.0682868 -0.10002363 -0.06915472 -0.06883688 -0.02291026 0.029620674 0.23259754 0.12285304
-0.017920755 -0.12164055 0.03314545 -0.049896482 0.0047092037 -0.0063902717 -0.040823717 0.09234305
0.15874444 -0.025048014 0.046566963 0.00851185 0.093839295 0.10379801 -0.07919409 0.002616797
-0.043469008 -0.06272124 -0.01506292 0.013812026 -0.003847398 -0.026902847 -0.08287144 0.08481204
-0.10941428 -0.045014154 -0.040871054 0.04817347 0.053221703 0.036224727 -0.04707009 -0.0119058555
-0.0094246445 -0.13230522 -0.078096285 0.061199795 -0.17413116 0.0090519115 -0.03471538 -0.07880356
0.091983005 0.0817598 0.055162247 -0.11601444 -0.032427438 -0.05153392 -0.019641282 -0.019160092
0.018941522 0.006941119 -0.04659021 0.041686986 -0.022684641 0.10659568 -0.019145759 0.060060542
0.09095995 0.11929533 0.17556289 -0.062258825 -0.05068741 0.03977782 0.03158403 -0.0642985
-0.022750223 -0.12944545 -0.047740124 -0.11635889 -0.05864552 0.014766842 -0.04276185 0.055289764
-0.078820795 0.12752445 0.104556166 -0.11170136 0.01064297 -0.011034772 0.023837777 -0.010461638
0.16241094 -0.18304467 0.13203469 -0.028971596 0.039602216 -0.0482628 -0.0134981945 0.07816409
-0.068909794 0.08451966 0.03159524 0.040116306 -0.07597246 -0.034905743 -0.007425401 -0.13970698
0.107499614 0.024283404 -0.071783006 0.108743384 -0.07472638 -0.02731306 -0.019287799 -0.06450639
-0.058891885 -0.06577109 0.06339181 -0.09211209 -0.05558522 0.0003743448 -0.042344265 0.017425796
0.069400005 0.07156812 0.006892446 -0.0039410037 0.11864861 -0.10448808 0.084028855 -0.022329494
-0.023741907 0.002352568 -0.043564998 -0.05915878 -0.025027372 0.032403044 -0.17748295 0.032272633
0.01326976 0.018976182 0.0573663 -0.13614854 -0.069395974 0.18094142 -0.036061518 -0.042371776
0.0014799441 -0.026561309 0.05111219 -0.030890254 -0.0853925 -0.015110539 -0.048853032 -0.05780593
-0.03932793 -0.030668776 -0.15412207 -0.013369476 0.01312432 -0.004529087 -0.11273666 0.020481851
0.077417165 0.005804678 0.03573589 0.028401438 0.09940636 0.11175271 0.012139225 -0.12924343
0.011059427 0.097995415 0.04743374 0.04815739 -0.0028655154 0.09563465 -0.023188354 -0.055650525
0.095956735 -0.0010872657 0.008450985 0.010317769 -0.026949447 -0.08243389 0.14739901 -0.056708846
0.13748448 0.12822619 -0.07106639 0.018488364 0.037249655 0.0026281215 0.04995526 0.037657708
0.005204639 -0.045622922 0.16985805 -0.088977195 0.05099518 0.07554435 -0.010807746 0.0893468
-0.055690706 0.08255794 0.046123717 -0.1168106 -0.013163595 -0.1333007 -0.004752634 -0.13917607
0.12972485 -0.025927553 -0.09789396 0.116789185 0.007151786 0.086231835 0.03679605 -0.029519504
0.0863766 0.035415635 0.047913473 0.067886144 0.05061522 -0.060939886 -0.0034153473 -0.086992495
0.0002759872 -0.06657706 -0.0071425177 0.006652707 -0.057205573 0.13420655 0.07919483 -0.03239754
0.067015514 -0.070642106 0.06344358 -0.015633201 0.094175756 -0.015611477 0.0694678 0.008137512

affine_layers.0.bias f4 [64]
00000000: 6df4 dd3e 03eb 8f3e 5264 5f3e b96a 083e
00000010: 07ca 33be 0a90 7c3e c494 42be 2eb0 b4be
00000020: 97b6 80be 8c93 bf3e 1a9a 203e e75f 12be
00000030: 2673 30be 2d65 25be baed 2c3e 1333 aa3e
00000040: 79bd 8c3e 8101 b43e d076 a33e 8883 6fbe
00000050: a7be 3abd 7495 ed3e c22e 67be d2c4 a03e
00000060: ae7e 4bbe 24a2 96be 2fbe ab3e 1a6b 8b3e
00000070: 3314 c5be ae14 703e bc2f 6f3e 57f4 0d3e
00000080: d538 6abe 7008 983e 5104 dc3e c48a 1fbe
00000090: 4daf bc3e 22d1 3bbe 42dd f63e 9171 443d
000000a0: 0431 6abe f725 d4bd 3f61 28be f376 863e
000000b0: b6a0 d9be e44f 153e a296 553d c120 6c3e
000000c0: a354 753e 6bd2 973e fe27 bbbe 2a05 c23d
000000d0: da9e 80be 91ef 863e 786c 95be be3d 793e
000000e0: 8d06 9d3e 90e6 b538 92df 4bbe 4293 aabe
000000f0: ca32 a2be fa06 c23e 6628 88bd 0831 013e
0.43350545 0.28108987 0.21815613 0.13321961 -0.17557536 0.24664322 -0.19002062 -0.35290664
-0.25139305 0.37417257 0.15683785 -0.14294396 -0.17231426 -0.16151877 0.1688756 0.33242092
0.27488306 0.35157397 0.31926584 -0.23390019 -0.045591976 0.46403086 -0.2257643 0.31400162
-0.19872543 -0.29420578 0.33543536 0.2723015 -0.38491973 0.23445389 0.23358053 0.1386274
-0.22873242 0.29693937 0.42972043 -0.15580279 0.36852494 -0.18341497 0.4821568 0.047959868
-0.2287026 -0.10358804 -0.16443346 0.26262626 -0.42505425 0.14581257 0.052145608 0.2305937
0.23958068 0.29652724 -0.3655395 0.09473641 -0.25121194 0.2635465 -0.29184318 0.24339959
0.3066906 8.673698e-05 -0.19909504 -0.33315474 -0.31679374 0.37895948 -0.066483304 0.1261636

affine_layers.1.weight f4 [64, 64]
00000000: d6e8 78bd dd82 e83e afca fb3d bb75 e2bd
00000010: fb2e 5fbe b80c 083e 6062 983b 17fb 09be
00000020: 6dde a53e 4fb9 ae3e 87bf 003d 8537 9b3d
00000030: 86ae 7c3d d2eb 273e e993 b63d f2a2 64be
00000040: 7d12 923d 5f6a 0cbe 876a d73d 20b0 3c3e
00000050: 1932 5fbd 2509 1b3d 92a7 373d e90c 693d
00000060: da1d de3d bbe6 99bd 8a12 00bc 681e 75bc
00000070: 9673 e83d 2c0a 4abe 85cf 8dbd 33df bd3c
00000080: 0414 c9bd 57e0 d4be 2f76 783e 56d5 92ba
00000090: 1623 3b3e c9f9 8b3c 91ea f9bd 6349 aa3d
000000a0: 69db 8abd b0c8 99be 440d d73d 8dc0 e8be
000000b0: 9dee b83c 9e05 bebd 2b07 42be 1098 35be
000000c0: 0c86 10be ecd2 2e3e 7ebc dc3d 48bd d03e
000000d0: e948 00be 2a51 6b3e b1eb afbd 5c61 19bc
000000e0: 3d6d 103e d963 363e a949 313e e5bd 253e
000000f0: 6341 5dbd 778c d4bd 112d 2a3d 0e0a 533e
00000100: 0324 2cbc 8014 f8bd b445 443e 0979 a8bd
00000110: b37c ee3c dbcf d73c c58f a8be f2f6 89bc
00000120: 0cfd 9bbd 4354 a2bd d99d 943e 7d38 313e
00000130: 764e d1bd 68a2 153e 59ea 183e fd7e 03be
00000140: 0f71 883e 036d 5dbd 84a9 aabb 3a80 27be
00000150: 4265 443d 3aca 843e 05eb 8a3e b2ba eb3d
00000160: 5cfa 2ebe 7b1a 28be 21a7 0c3e 4fc3 71bd
00000170: 1193 1bbe 57cd a2bd 2f02 4b3b 8fcc 523e
00000180: 9fd9 4a3c ee8b 693c 87ec 46be bdd9 7f3d
00000190: e304 653e 448b 90bb 1011 2d3d 939e 173e
000001a0: 5478 8a3d aa19 853e c52d 993e 2e12 d1bd
000001b0: d2c1 a6be ed94 c4bd 5ae2 273e f2cd 8a3e
000001c0: 57d1 62be 9c7b 9c3d 4b0e d1be 338f 403e
000001d0: 7418 53be f298 02bd 01bf 70bd 202b 663e
000001e0: 81c3 21be 63b6 12be 04a7 1bbe 7052 23be
000001f0: b7dc 89bd f717 2abd 05f1 ac3e 53dd e4bd
00000200: 75f9 d0bb 3063 393d 9e3e 1d3e 5739 91bc
00000210: 8adf a4b9 6529 5dbd eebf 99bd f05b fa3c
00000220: 2da4 633e 39e9 c5bc 8417 a8bb 32b8 b9be
00000230: 85f8 1fbe 1c0d e03d b50b d13c 931f 723e
00000240: b736 e8bd ca6b 50be 9833 f23e 949b 5cbd
00000250: ed95 26bd 5896 b2be 895f d73e b3f4 9fbe
00000260: fd20 073e 5584 173d 0916 ae3e 3e69 4a3e
00000270: 5c99 203e 13b7 adbb e679 c93d 4094 3a3d
00000280: d061 a9bd 168d f63b 56d4 283e e366 e43d
00000290: 993b 9d3d a015 8bbe d4da 7d3d b907 933d
000002a0: 36dd 11be cb89 7e3d c8ba aa3d cb27 123e
000002b0: 0488 7b3e 56d3 873d 76bf 1cbe 0769 5a3d
000002c0: ba82 413d acdf e9bd d2ff 77be f541 59be
000002d0: 53fd 973c 47ed 04bc 669d 9e3d 88bd 673d
000002e0: dc04 1abe f40b 1fbe ac4b c3bc 1c49 6cbd
000002f0: 01e7 9ebe bf72 84be 6238 7c3e 8372 68be
00000300: 9dbf d33d df9e f7bd 63c5 56be f444 543e
00000310: 9916 46bd 5c92 e73d 67c7 53bb 82c5 f03d
00000320: 2659 d9bc 2c3c 863d cca2 d8bd a0af a5be
00000330: e5ee 70bc 2de5 83be a51e ab3e a598 0fbe
00000340: 875a 27bd 125a 42be f504 d7bd 993d e53d
00000350: 90e5 823e 4d2b f63c 4820 5abe 425c a23e
00000360: ba7a 283e 01c4 403d 8a36 8bbd a0f6 13bd
00000370: 5943 1d3e 4da3 203e 6e37 74bd 0665 383e
00000380: 4c43 403e 0444 18bd aa68 7d3d 7d37 143e
00000390: 0759 063e dee6 0abe 7c8a 6dbe 0fcf 033d
000003a0: 5909 85bc 253e 7fbe f9a1 5c3e 9f8a f0bc
000003b0: b650 db3e 9a2b 7d3d 8195 533e d3c9 9a3e
000003c0: 95fc 263d 9973 d43b d402 bebe 1fd6 303e
000003d0: 479f 603e 68ac 2b3e 6fc6 24be 0ff0 8ebd
000003e0: c803 dbbd b6be 78bc 76d8 6cbe a86b 8abb
000003f0: 9ea5 c73d ee6e 033e fd8a 403e dfb1 593d
-0.060768925 0.4541234 0.12294518 -0.110576116 -0.21795265 0.13286102 0.004650399 -0.1347469
0.3239626 0.34125754 0.031432655 0.07578949 0.061689876 0.16398552 0.089149304 -0.22327784
0.071324326 -0.13712452 0.10518365 0.18426561 -0.054491136 0.037850518 0.044837542 0.056897078
0.108455375 -0.075147115 -0.00781692 -0.014960863 0.11350171 -0.19730443 -0.06924347 0.023177719
-0.09818271 -0.41577408 0.24263833 -0.0011202495 0.18275103 0.01708688 -0.12202943 0.08314779
-0.067801304 -0.30035925 0.10500577 -0.45459405 0.022574717 -0.09278415 -0.18948047 -0.17733788
-0.14113635 0.17072648 0.107781395 0.4076941 -0.12527813 0.2298018 -0.085898764 -0.009361591
0.14104171 0.17811526 0.17313255 0.1618572 -0.054017436 -0.10378354 0.041546885 0.20609304
-0.010506633 -0.12113285 0.19167215 -0.082262106 0.029112196 0.02634423 -0.32922187 -0.016841386
-0.07616624 -0.07926228 0.29026678 0.17306705 -0.10220043 0.14612734 0.14933147 -0.12841411
0.26648757 -0.05405904 -0.005208196 -0.16357508 0.04794813 0.25935537 0.2713243 0.11510219
-0.17087692 -0.16416351 0.1373563 -0.05902415 -0.1519282 -0.07949322 0.0030976643 0.20585845
0.0123809865 0.014254553 -0.19426166 0.06246351 0.22365145 -0.004411133 0.0422526 0.14806585
0.06761232 0.25996143 0.29917732 -0.102085456 -0.32569748 -0.09598718 0.1639494 0.2711025
-0.2215017 0.07640764 -0.40831217 0.18804626 -0.20614797 -0.03188414 -0.058775906 0.22477388
-0.15797235 -0.14327388 -0.1520043 -0.15949416 -0.06731551 -0.04152676 0.33777633 -0.11175027
-0.006377394 0.04526061 0.15355918 -0.017727537 -0.00031447067 -0.053994555 -0.07507311 0.030561417
0.22230597 -0.02415906 -0.0051297564 -0.36273342 -0.15622146 0.109400004 0.025518278 0.23644857
-0.11338561 -0.20353618 0.47304988 -0.05385931 -0.040670324 -0.34880328 0.42065075 -0.31241378
0.13196178 0.036991436 0.34001186 0.19766709 0.15683502 -0.005301365 0.098377034 0.04555154
-0.082706094 0.007524143 0.1648725 0.111524366 0.07677383 -0.27164936 0.06197627 0.07179207
-0.14244542 0.06214313 0.08336407 0.14272992 0.24563605 0.06632106 -0.15307412 0.053322818
0.04724381 -0.11419615 -0.24218681 -0.21216567 0.018553412 -0.008113212 0.07744865 0.056577235
-0.15040916 -0.15531904 -0.023839794 -0.05768691 -0.31035617 -0.25868794 0.24630883 -0.22699933
0.10339282 -0.12090849 -0.20973735 0.20729429 -0.048361395 0.11307213 -0.0032314898 0.117564216
-0.026531767 0.065544456 -0.10577926 -0.32360554 -0.014705394 -0.25760785 0.33421817 -0.14023073
-0.040857818 -0.18979672 -0.10498992 0.111933894 0.25565767 0.030049944 -0.21301377 0.31711012
0.16453066 0.047061924 -0.06797512 -0.03612387 0.15357722 0.15687294 -0.059623174 0.18007287
0.18775672 -0.03717424 0.061867394 0.14474292 0.13119899 -0.13564631 -0.23197359 0.03217989
-0.016239809 -0.2492605 0.21546163 -0.029362975 0.42835015 0.06180916 0.206625 0.30232105
0.040768225 0.006483507 -0.37111533 0.1726918 0.2193576 0.16764987 -0.16091321 -0.06979381
-0.106940806 -0.015182188 -0.23129448 -0.0042242594 0.09748386 0.12835285 0.1880302 0.053148147

affine_layers.1.bias f4 [64]
00000000: 1d49 6dbe 2560 833e de05 65be 0755 51be
00000010: 15a5 27be da27 5a3e 4478 61be 44e0 b0be
00000020: 3f80 543e ad2d 61be e564 5c3e 7b9b bb3e
00000030: 2d36 6fbe 87f2 893e 1c2f 4b3e 6738 82be
00000040: 346e 85be 045f 4c3e 197d 73be de7b 433e
00000050: 5464 b03e 9a40 92be 0d62 8ebe 0f18 843e
00000060: 9ea0 65be cdd6 53be acb3 8f3e 8d43 7b3e
00000070: 483c 13be 91aa 90be c111 833e 169b d03e
00000080: 81ed 903e 3ab0 3cbe 552c 25be 7b32 503e
00000090: c860 8cbe 589d c53e 27f2 403e a3ba bcbe
000000a0: b41c 4cbe f2eb 5b3e c52b 2abe 71dc aa3e
000000b0: 531b 55be 5b66 b1be 2710 8abe 8ce9 3cbe
000000c0: bb51 81be f99d 763e c5cb 74be 1830 1d3e
000000d0: ca13 8b3e de07 5fbe 14a9 593e 6056 833e
000000e0: f054 853e e8cc 65be ccd1 643e fc7a 45be
000000f0: d00f 913e b50b 793e 6108 61be d1f6 61be
-0.23172422 0.2565929 -0.2236552 -0.20442592 -0.16371568 0.21304265 -0.22018534 -0.345461
0.20752047 -0.2199008 0.21522863 0.3664206 -0.2336051 0.26942846 0.1984219 -0.25433657
-0.2606064 0.1995812 -0.2377819 0.1909022 0.34451544 -0.28564912 -0.27809182 0.25799605
-0.22424552 -0.20687409 0.28066766 0.24537487 -0.14378464 -0.28255132 0.25599483 0.4074332
0.283062 -0.184266 -0.16130193 0.20331757 -0.27417588 0.38596606 0.18842374 -0.36861143
-0.19932824 0.21476725 -0.16618259 0.33371308 -0.20811205 -0.34648404 -0.26965448 -0.18448466
-0.25257668 0.240837 -0.23905857 0.15350378 0.27163535 -0.21780345 0.21255904 0.25651836
0.26041365 -0.22441447 0.22345656 -0.19285196 0.28332376 0.24320872 -0.21975853 -0.22066809

final.weight f4 [1, 64]
00000000: 4669 2cbd b9a2 da3d b75a b8bd 1432 35bd
00000010: 32cb fdbd daa3 ae3d dad0 56bd f086 63be
00000020: fafe 5a3d 1b6a 32bd 9ff6 183d 0d54 593e
00000030: 39e3 3fbd 2f21 a83d 5b13 dc3d f852 0ebe
00000040: 6de9 bfbd 3709 043e 4ac7 91bc 35d8 113e
00000050: 7a93 5e3e ff33 4fbe ec76 73be dc06 b93d
00000060: c46f 1abe a772 52bd 74af 943e b916 923d
00000070: f4d8 dcbe 1284 f5bd c3aa 7d3d ea6d dc3d
00000080: eccd 073d 197e c0bd 3c09 c1bd 80af ee3c
00000090: 798e 54be 4ce2 2e3e 0676 083e 59a3 34be
000000a0: 2538 2cbd fc92 a63d b087 45bc 679f 103e
000000b0: 3afb 57bd 1088 25be 3fb6 25be 16d1 58bd
000000c0: 10ac cfbc d43b d53d 51d3 2abd eb4f 123e
000000d0: 7c06 573e cb14 42bd 664e b43d 240f ab3d
000000e0: 0f95 fd3d f19c 66bd f67f 4c3d 2c15 ebbd
000000f0: 95cf 9c3c 5c9d 753d 07d8 3cbd 1335 5ebd
-0.042092584 0.10675568 -0.090016775 -0.04423721 -0.12392272 0.08527346 -0.05244527 -0.22219443
0.05346582 -0.04355822 0.03734457 0.21223469 -0.046847556 0.08209454 0.10745879 -0.13898838
-0.09370694 0.1289414 -0.017795224 0.14242633 0.21735945 -0.20234679 -0.23775834 0.090345114
-0.15081698 -0.051378872 0.2904011 0.0713324 -0.43134272 -0.11988081 0.06193043 0.10763152
0.033155367 -0.09399051 -0.094255894 0.02913642 -0.20757474 0.17078513 0.13326272 -0.17640437
-0.04204573 0.08133504 -0.012056276 0.14123307 -0.052729823 -0.16165185 -0.16182803 -0.052933775
-0.0253506 0.10411802 -0.041705433 0.14288299 0.20998567 -0.04738311 0.08804016 0.08352497
0.12381946 -0.056302015 0.04992672 -0.114786476 0.019141952 0.059964523 -0.046104457 -0.054249834

log_stdev f4 [17]
00000000: 710d d0bf aa49 94bf fb8e 09c0 cfb1 9dbf
00000010: c575 e1bf 3731 13c0 52cb c6bf 30c7 1dbf
00000020: d774 afbf 13ae e5bf d0f1 c8bf 9b7c 04bf
00000030: ae78 2abf d22b 36bf f7d1 34bf 26ea dcbe
00000040: fc4c 99be
-1.6254102 -1.158498 -2.1493518 -1.2319888 -1.7614065 -2.2998788 -1.5530798 -0.6163206
-1.3707532 -1.7943748 -1.5698795 -0.5175263 -0.6659039 -0.71160614 -0.7063288 -0.4314739
-0.29941547

affine_layers.0.weight f4 [64, 376]
00000000: b489 26bd 608a 95bc 7b09 0abe 30a8 77bc
00000010: ddaa e0bc cfb8 df3c 9e93 ea3d 0b1b c93c
00000020: 098f 8a3d 70a6 643e d424 bc3d 2d99 1a3d
00000030: 20aa 18be ab9c d43d bf05 043d 7aea 1b3d
00000040: 13ab 0bbd cd18 49bd 00c3 343b e886 a03b
00000050: d4a0 c4bb fd43 75bb b9c9 063c 4ef2 2ebd
00000060: fd6a 6dbc 8828 8cbd 31a1 f4bd b6dc abbc
00000070: 8e73 11bc d121 863c c721 f7bd 8260 d23d
00000080: 3592 ce3d b607 063d f8c4 bb3c 2138 c8bc
00000090: 3383 183e 117c 01bd 3322 903d f9d2 9fbd
000000a0: 3765 5d3d d72f 823c b937 d43d 149e 83bd
000000b0: f51d 92bd 3846 873c 6f09 963d 2c75 3fbc
000000c0: 8b67 e63c 9174 edbd 7366 a03b 7d98 553d
000000d0: 1f41 213a 42c8 34bd 0508 c43b 099b 9f3d
000000e0: e042 c6bd dabc 32be 24c5 34bd a13c 523e
000000f0: b388 a5bd 51ac 44bc 93a8 283e abce 923d
00000100: 3a26 82bd 53df 3c3d 6975 61bd 8c66 96bd
00000110: f45c 313e bc4e 77bd aa33 edbc 4419 0cbc
00000120: 122a 623c 1f79 a6bd 06f5 0a3e ce1d a23d
00000130: 7971 debd 25bf 21bd 2e61 3e3e ed1b 8e3a
00000140: d348 063e 67a0 70bc d860 56bd a99d d73d
00000150: 9877 d63d 06d3 7fbd 12f9 cebc 69f8 f7bd
00000160: fe0e 993d 4cf6 51bc 967e 14be 31a9 3a3e
00000170: 11f6 4e3c 4648 c63d 5bf0 9f3a 0c06 e1bb
00000180: c42f 27be d05b 053d 3d94 7ebb 2b5a fb3d
00000190: bc30 eabc 49e6 a13d 08d9 1f3d 20c3 8ebd
000001a0: 1b0c 053e 9a10 87bd fb46 73be ddde 543d
000001b0: e00e 13be 6c72 00be 8e69 d83d 73c3 b2bd
000001c0: 73ee 99bc 09a0 e53b 0768 b7bd 802e b0bc
000001d0: 905e e4bc 231d 5bbe ccd9 5c3c 6fb9 9b3d
000001e0: 9f6e f7bd be96 ecbc 8c82 52bd 8eec 23be
000001f0: b758 303e 1175 933d 695c dc37 4f24 1ebc
00000200: 4027 203c d765 1fbd 6c2d c73c 3639 603d
00000210: ab69 f9ba 2631 dfbb 50af 10bd 57c7 093d
00000220: c27f bb3d 4736 b43d 7d74 88bd 1821 993c
00000230: 438b 31be 421d 7e3b 03a9 023d e953 4ebd
00000240: 5bb3 6e3c abe8 0bbe 9fb6 5d3d 0e16 e8bb
00000250: 144f 8bbd a49e 883d f1fe 6d3c f7df 0f3d
00000260: 0ded ba3d 2ae4 ecbd cec7 163c 0d0f 153d
00000270: e062 d2bc 69ba 46be 6563 91bc d5f3 9ebd
00000280: 08b9 24bc c453 323d 44df 74bd 9a09 b83d
00000290: 932a 803d cc3b 7dbc 7862 8b3c a71b b7bb
000002a0: 1353 df3c 12f1 993c cd1b b0bd f455 febd
000002b0: 4e57 103d 5007 9ebd 38f3 663d 4e1d ed3c
000002c0: cd83 8fbd c66a 633d 1a95 f1bc bb87 08bc
000002d0: 539d 203c a4d6 073d 78d6 ad3d a1b6 0bbd
000002e0: b0d5 9c3d ea6f 29be f1be c9bc 0c43 903c
000002f0: 7cbe e7bc 6d19 2f3d ab93 ac3b df9b a83c
00000300: 6069 893d 418b 0abd c836 503d 5ac2 da3d
00000310: b32e bcbd 312d d1bc 368f 86be faec 233e
00000320: 3c7d 7b3d 52ef 21be 3875 b2bd 80f2 d3bd
00000330: 2017 3a3c c680 943b aa5d 863d 9c44 29be
00000340: f702 aebd df80 2a3e 86be 8d3c 8cae 293d
00000350: 47cf e8bd f52e 1ebe b8eb 283e 1ed3 573e
00000360: 9a89 253c 658e c43d c42b bdbc 21bd cc3c
00000370: 659b 7f3d 01f7 cd3d b16c 9fbb 55aa 133e
00000380: 21c2 003e 28e2 dbbd 5fd1 633d 6443 133e
00000390: 8196 9e3d ecac 883c 6212 993d 70e1 37bc
000003a0: 6320 c63d fd55 c2bd e1c2 83bd fe1d 3a3d
000003b0: fb34 353d 8b9f ac3d 4eeb a13d 0ad0 19bc
000003c0: b740 63bc dde0 d0bd e841 c43a a49c 62bd
000003d0: 5e37 c63d ce3f f8bc 2741 76bd 5ccc 94ba
000003e0: b282 54bd 8311 5abd 5395 103e a1aa e63c
000003f0: 450f 9f3d 3737 fcbd d393 8b3c 31b3 c93d
-0.040658668 -0.018254459 -0.13480179 -0.015115783 -0.027425224 0.027309803 0.11453937 0.024549028
0.06765563 0.22329116 0.09186712 0.037743736 -0.14908648 0.103814445 0.032232042 0.03806541
-0.034098696 -0.049095917 0.002758205 0.0048988946 -0.0060006175 -0.0037424557 0.008226805 -0.04271155
-0.01449084 -0.06843668 -0.11944807 -0.020979267 -0.008877648 0.016373547 -0.120669894 0.10272314
0.100864805 0.032722197 0.02292107 -0.024440827 0.14893799 -0.03161246 0.07037773 -0.07803912
0.054051604 0.015891952 0.10362191 -0.064266354 -0.0713462 0.016512975 0.07326018 -0.011685651
0.028125545 -0.11594499 0.0048950254 0.052147377 0.00061513664 -0.044136293 0.0059824013 0.077932425
-0.09680724 -0.17454854 -0.04413332 0.2053094 -0.08082714 -0.012003974 0.16470556 0.07168325
-0.063549474 0.046111416 -0.05504361 -0.07343778 0.17320615 -0.06037782 -0.0289553 -0.008550946
0.013803976 -0.08128571 0.13570032 0.07915841 -0.10861487 -0.03948893 0.18591759 0.0010842063
0.13113718 -0.01468668 -0.05233845 0.10528118 0.104720294 -0.062457107 -0.02526525 -0.12107927
0.07473563 -0.012815069 -0.14501414 0.18228604 0.012631909 0.09681754 0.0012202369 -0.006867176
-0.16326815 0.032558262 -0.003884568 0.122730576 -0.028587691 0.079052515 0.039025337 -0.06970811
0.12992899 -0.06594963 -0.23757546 0.05197035 -0.14361143 -0.12543648 0.10567008 -0.08728685
-0.01879046 0.007007603 -0.089553885 -0.021506548 -0.027877122 -0.21397834 0.013479661 0.07603728
-0.12081646 -0.028880473 -0.05139403 -0.16008207 0.17221342 0.07200063 2.6269076e-05 -0.009652211
0.009774983 -0.03891548 0.024313651 0.05474206 -0.0019028684 -0.006811279 -0.03532344 0.03363737
0.09155227 0.08799415 -0.066628434 0.018692538 -0.1733828 0.0038774763 0.031899463 -0.05037299
0.014569129 -0.13662975 0.05412924 -0.0070827072 -0.06802192 0.06670883 0.014526115 0.0351257
0.09127245 -0.11566956 0.009202911 0.036391307 -0.025681913 -0.19407047 -0.01774759 -0.07761351
-0.0100538805 0.043536916 -0.059783235 0.08986206 0.062581204 -0.015456151 0.017014727 -0.005588013
0.027261293 0.01879171 -0.085990526 -0.12418738 0.03523951 -0.077162385 0.056384295 0.028944638
-0.07007561 0.05552175 -0.029490042 -0.008333142 0.009803134 0.03316368 0.08488172 -0.034109715
0.07657945 -0.16546598 -0.02462718 0.017610095 -0.028289072 0.042748857 0.005266627 0.020582138
0.06709552 -0.03382421 0.050833493 0.10681601 -0.09188595 -0.025534244 -0.26281136 0.16008368
0.06139873 -0.1581395 -0.08713764 -0.103489876 0.0113580525 0.0045319526 0.06560834 -0.16530079
-0.08496659 0.16650723 0.017302763 0.041426226 -0.1136766 -0.154476 0.1649617 0.21076629
0.010103608 0.09597472 -0.023092158 0.024992527 0.062404055 0.10056878 -0.004865252 0.14420445
0.12574054 -0.10736495 0.055619594 0.14381176 0.0774355 0.016684018 0.07474209 -0.011223182
0.09674146 -0.09489057 -0.064336546 0.04543876 0.04423998 0.08428868 0.07906209 -0.009387979
-0.01387041 -0.10199139 0.0014973255 -0.055325165 0.09678529 -0.030303862 -0.060120728 -0.0011352408
-0.051882453 -0.053239357 0.14119463 0.028157534 0.07766584 -0.12315219 0.017038262 0.09848631

affine_layers.0.bias f4 [64]
00000000: 2e40 91bd 1f6e d6bd 1b03 e03d 0631 04be
00000010: 2cc5 95bd a5a5 2b3e 7038 56bd ca55 2fbd
00000020: b5ce 8a3e 450b da3d 53cc dcbc 9de5 24be
00000030: 0b21 463d c0d5 aa3d 77fe 203d b568 3a3e
00000040: 680f cfbc 3d63 15be c6eb 5ebd fb00 f4bd
00000050: 651d 953c a4b6 b83d 70a2 8ebd fb8d 0ebe
00000060: 28a5 3e3d d511 87bd fe95 243e e6fa 19be
00000070: b991 12be f75f 173e 85f6 2dbe 1539 91bd
00000080: b65b 43bd c204 bb3c 1433 eb3d 609e 0ebe
00000090: 9b8e bfbc 2b86 0f3e cd44 b63d 8dab cfbd
000000a0: d4e4 6c3c 0d66 11be 377b 3dbe f0c1 8cbd
000000b0: f82c 05be 27bc a1be 5d22 093e 99cb 60be
000000c0: c683 2ebe fc7e a6bd d03a 633e 029b 53be
000000d0: a2f7 1cbe 125c 7c3d eb57 153e 1e80 623e
000000e0: b7d8 04be fae1 293e 3373 5bbe 16cd 303e
000000f0: bce2 efbd 9c9c 7e3e 1861 3b3d 813c 4a3b
-0.070923194 -0.10470223 0.10938092 -0.12909326 -0.07312998 0.16762407 -0.052299917 -0.042806424
0.2711083 0.10646681 -0.026952898 -0.16103216 0.048371356 0.08341551 0.039305177 0.18204005
-0.025275901 -0.14588638 -0.05442407 -0.119142495 0.018202493 0.09019211 -0.06964576 -0.13921349
0.046544224 -0.06595198 0.16072842 -0.15037116 -0.14313401 0.14782701 -0.16988571 -0.07090966
-0.047694884 0.022829417 0.11484352 -0.13927603 -0.02338343 0.14016025 0.088998415 -0.101401426
0.014458854 -0.14199086 -0.18504034 -0.06872928 -0.13005435 -0.3158886 0.13392015 -0.21952666
-0.17042455 -0.08129689 0.22190404 -0.206646 -0.1532884 0.061611243 0.1458432 0.22119185
-0.12973295 0.1659011 -0.21430664 0.17265734 -0.11713168 0.24864429 0.045746893 0.0030858817

affine_layers.1.weight f4 [64, 64]
00000000: d3a7 363e 32a3 c4bd f9f4 d7be 7d76 3abe
00000010: 18f0 b3be 62a2 18be ad59 8c3e c91c 01be
00000020: 7692 b9bb 8101 fe3d 93c6 82bd f49c 3bbd
00000030: de39 c33e 6136 18be 1fc4 8bbe feb4 8f3d
00000040: 53a2 813e e037 5a3e 56f0 643d fb6c 3ebe
00000050: c23a 42be 44aa 8abc e02c 81bd f871 253e
00000060: ad8c 83be b012 453d ee02 08bc 7960 373d
00000070: 0c8e 803e 71cf 163e c5f6 b4bc 532c 403e
00000080: e42b 0c3e 7e54 cfbb 86a0 37be 630b 9739
00000090: 880c f73e 76b9 9d3d ac8f 8fbc 440e 9c3d
000000a0: 3e12 dbbe f194 023e cc0e a83e ed3f db3d
000000b0: e16b 29be ffc8 dd3d 19ff 903d 3920 173e
000000c0: f688 45be 8d77 49be 18d4 ccbd bbc4 403e
000000d0: 68c8 1f3f 65b8 d83c d36a 803e c5ec 333e
000000e0: 21d4 43be 62e2 65be cbf9 ec3c 54cd abbd
000000f0: b7bf 67be 9cbb d9be bd0d cd3e e053 87bd
00000100: f2e6 dbbe 5aca 9fbe 8dd4 21bd ae1d 46bc
00000110: d114 f8bc be0c 12be c00d 18be fe0d c53e
00000120: a3b6 08bd 20a3 af3d 6461 8d3d 65e8 b33e
00000130: ffd5 e0be b9b2 48be 84da f6bc 93f5 e8be
00000140: d1fe d2bd eecd b4bd f2e6 523c dc4a 99be
00000150: dc51 643e 419e 39bc 8c13 003e 29bb b13d
00000160: 7d63 fdbd 1dbc 1b3e e836 923e 6c43 39be
00000170: cd38 0a3e e9a0 34be d785 1e3c bedf 09bd
00000180: 5df9 c33d 80f2 6a3d 729a e93d 7f9e f93e
00000190: 2631 b83d 1354 31be 58e6 93bb 0cf2 983e
000001a0: b5bf d73d 50a1 7e3e 2f2b 393e 29e5 16bf
000001b0: bae5 133e 09a9 8fbd 448a 613e 1aaa 02bc
000001c0: 5ea9 39be f2e9 7cbd f50f 99be b77c c13d
000001d0: c92f 913e 5c14 f63c b316 85bd 0663 723e
000001e0: 8e31 94bd 7929 6c3c 6317 08bc 7e2e de3e
000001f0: 6303 28be d042 453e 3611 f8bd 6ba2 583e
00000200: a394 4cbe e84f 813d 5dc0 4a3d e9cb 10be
00000210: d5ca 9f3e 4a12 213e 9225 58bd 796b 203e
00000220: afd8 24be 673c 96be f2f4 4b3e 9f1b c3be
00000230: 02f9 90bd 8cc2 a93e d227 5a3d 7db9 0a3f
00000240: b5bf 5a3c 8b93 e1bd 3336 273d 0939 653e
00000250: 2ea4 1b3e 78ab 563e 379d 803d 5e55 9fbe
00000260: 797b 083e adad bf3e 4abe aabb 8a68 2fbd
00000270: a91d 8dbe d716 9fbc 2560 c3bd 6e4b 88bd
00000280: 33d1 e9bc a4f3 8dbd 685f c5be d430 1f3e
00000290: 0105 193e dc82 0f3e dc93 98be 2652 c23e
000002a0: c6d7 e8bc ce8d 513e 206e e6bd ca87 b93e
000002b0: dfbf 603e 471a d9bc 6bc6 38be 6038 263e
000002c0: bef0 dd3d d5ef 84bd efbd 853e 7df3 9bbd
000002d0: ef2f 57be 21cb 42bd eb75 353c 7ed6 c93e
000002e0: dab8 eabc b539 b6be f6eb f33d dda3 d33a
000002f0: b183 2d3e cf70 833e 7ecf 933e 5592 cc3e
00000300: fa1e 88bb 9779 df3c 3085 34bc a69e d53e
00000310: 19dd 993e 8e19 13be 6755 833e 4c8e 623e
00000320: 2514 3a3e 4e8a 623d c7f1 e3be fdec c73c
00000330: 64d4 9c3c 8786 a3be 3c3b 9b3c 7bce d6bd
00000340: ef15 bdbe f22b b1bd 6e0e 073e fe3a 943d
00000350: e9b5 babd bdff e03e 9d3c d93d 67c4 8ebd
00000360: 6b08 46be 5910 743e abfe 4bbe ea3d 48be
00000370: abc5 3c3e 43b4 7e3d 4365 8c3c c5c4 10bf
00000380: 99b0 f53e c4fb bd3d c067 e33d f1ef ee3d
00000390: 3eb2 7c3e 3602 63be 780b 313d 6b0e 94be
000003a0: f9e0 5d3e a781 6cbe 5db9 a3be 7b57 823e
000003b0: 4964 7a3c b85a 3b3e 8bac 44be ca9e 5dbe
000003c0: f2e5 783e a16a f43d 540c e2bd 64a0 53be
000003d0: 2966 153e cd81 4cbe 6f2f 7dbe 785c d73e
000003e0: 75a5 f33b e939 b0bd 31f8 8ebc 6487 59bc
000003f0: f95d 9a3e 3b72 593d 8475 79bc 4a86 0d3c
0.17837457 -0.096014395 -0.42179087 -0.18209262 -0.35144114 -0.14905694 0.27412167 -0.12608637
-0.0056632115 0.124026306 -0.06385531 -0.04580398 0.38130087 -0.14864494 -0.27298066 0.070169434
0.25319156 0.21310377 0.055893265 -0.1859626 -0.18967727 -0.016926892 -0.06307387 0.16156757
-0.25693265 0.048113525 -0.00830148 0.044769738 0.25108373 0.1472757 -0.022090325 0.18766908
0.13688618 -0.006327211 -0.17932329 0.00028809448 0.48251748 0.077013895 -0.017524563 0.076199085
-0.42787355 0.12752129 0.3282379 0.10705552 -0.16545059 0.108293526 0.07079906 0.14758386
-0.19290528 -0.19674511 -0.10001391 0.18825047 0.6241517 0.026455114 0.250815 0.17570789
-0.1912389 -0.2244964 0.028927704 -0.083887726 -0.22631727 -0.42525947 0.40049544 -0.06607795
-0.42949635 -0.3120907 -0.039509345 -0.012092037 -0.030283364 -0.14262673 -0.14848995 0.38487238
-0.0333773 0.085760355 0.069033414 0.3513824 -0.43913266 -0.19599427 -0.030133493 -0.45499858
-0.103025086 -0.088283405 0.0128724445 -0.29939926 0.22296852 -0.011329235 0.12507457 0.08678276
-0.123724915 0.15208478 0.28557515 -0.18092126 0.1349823 -0.17639507 0.009675465 -0.033660643
0.09569047 0.057360172 0.11406411 0.48753735 0.08993749 -0.17317228 -0.004513543 0.29872167
0.10534612 0.24866223 0.1808288 -0.5894342 0.14443102 -0.07014663 0.220254 -0.007975126
-0.18131015 -0.061746545 -0.29894987 0.094476156 0.2835677 0.030039005 -0.0649847 0.23670587
-0.07236014 0.014414185 -0.008306357 0.43394846 -0.16407542 0.19263768 -0.12112658 0.21155708
-0.19978575 0.06314069 0.04949986 -0.14140286 0.31209436 0.15729633 -0.052770205 0.15665998
-0.16098283 -0.29342958 0.19917658 -0.3810701 -0.070787445 0.3315624 0.05326063 0.5418928
0.013351371 -0.1101447 0.040823173 0.22385038 0.15199348 0.20963848 0.06279986 -0.31119817
0.13328351 0.37437192 -0.0052106725 -0.042824306 -0.2756169 -0.01942007 -0.095398225 -0.06655012
-0.028542137 -0.069312364 -0.38549352 0.1554597 0.14943315 0.14014763 -0.29800308 0.379533
-0.028423201 0.2046425 -0.112514734 0.3623641 0.21948193 -0.026501788 -0.1804444 0.16232443
0.108369336 -0.06491057 0.2612147 -0.07614801 -0.21014379 -0.047557 0.011075477 0.39421457
-0.028652597 -0.35590902 0.1191024 0.0016146858 0.16944768 0.25672004 0.2886924 0.39955392
-0.0041540833 0.027279658 -0.0110180825 0.41722602 0.30051497 -0.14365217 0.25651094 0.22124594
0.18171747 0.05530768 -0.445204 0.024404997 0.019144244 -0.31938574 0.018949144 -0.10488602
-0.36930797 -0.0865096 0.13189098 0.07237814 -0.09116728 0.43945113 0.10607264 -0.069710545
-0.19339149 0.23834361 -0.19921367 -0.19554868 0.1843478 0.06218363 0.01713813 -0.56550246
0.47986296 0.09276536 0.11103773 0.11666859 0.24677369 -0.22168812 0.043223828 -0.2891725
0.21667852 -0.23096333 -0.31977358 0.25457367 0.015282699 0.18296325 -0.19206445 -0.21642604
0.24306467 0.119344 -0.11037508 -0.20666653 0.14589752 -0.1997139 -0.24725126 0.42062736
0.0074354955 -0.086047955 -0.017452331 -0.013276909 0.3014982 0.053087454 -0.015225772 0.008637974

affine_layers.1.bias f4 [64]
00000000: a105 3cbe 63c8 35bd 3043 bb3c acd4 9c3c
00000010: 474a 81bc fd04 1d3e 05a8 00bd 7aa0 ea3c
00000020: d548 aa3e 6fbd fbbb 7b8d 513d b01f 313e
00000030: e2ea febc 38da a4be d403 0dbe 0595 77be
00000040: ed4a e53b 0603 e5bb dd87 38bd 597d 723e
00000050: 800b 72be 6a61 11bd 531a f63d 8702 2fbe
00000060: 2e8f 6b3c 89fc a13d cb3f a53e 4498 033e
00000070: 1731 f53d a6ad fcbd e037 9d3c 0113 18be
00000080: 634f 0a3e cf73 40be 6561 a2be 1ebc 5cbe
00000090: fca9 73bd f8da 8bbd fa11 abbd c41e ab3e
000000a0: 8e98 223d ca5d 143c b700 0cbe c05b 9fbe
000000b0: c8e9 7a3d c3ca 0ebe 3188 103e a651 93be
000000c0: 6814 8e3d 227d 1cbe d798 5dbe 3b60 19bd
000000d0: 0f8b 69bc 3dd5 393d 1760 50bc 6895 46be
000000e0: 447b 923e 57f0 913e 37c7 46be dd4e ecbc
000000f0: e7ef 66be 5728 5bbe 8a94 fdbd 3b2f ca3d
-0.18361522 -0.044380557 0.022859186 0.019144379 -0.015782489 0.15333934 -0.031410236 0.028640974
0.3325869 -0.0076824944 0.051160317 0.17297244 -0.03111786 -0.32197738 -0.13770992 -0.2417794
0.0069974572 -0.006988886 -0.045051444 0.23680629 -0.236372 -0.035493292 0.1201674 -0.17090808
0.014377398 0.079094954 0.32275233 0.12851053 0.11972254 -0.12337808 0.019191682 -0.14851
0.13506846 -0.18794177 -0.3171493 -0.21556136 -0.05948828 -0.06828874 -0.08353038 0.3342191
0.03969627 0.009055564 -0.13672148 -0.31124687 0.061258107 -0.13944535 0.14114453 -0.2877323
0.06937486 -0.1528211 -0.21640335 -0.03744529 -0.014254346 0.045369375 -0.012718222 -0.19392931
0.2860967 0.28503677 -0.19411932 -0.028846199 -0.22552453 -0.21402107 -0.12381847 0.0987229

final_mean.weight f4 [17, 64]
00000000: 7356 fabd 4fbf 8fbe efaa 463e 6533 533e
00000010: 8439 a83d 0ace 503e a2a1 793d d7d6 ef3c
00000020: 110f 0cbe b929 d03d 6ef7 033e 87ff e5bd
00000030: f516 dfbc 07f6 643e 934d 82bd f40a c3bc
00000040: 8fa4 2a3e e9cc 9fbd 9b17 45bd 7ccf 8d3d
00000050: c7e0 2ebd b14e a7be 3639 7a3d 6015 d2bd
00000060: bc71 e0bd 4f00 853d 0e9e 863d 25c0 3dbe
00000070: 2eac a3bd ba8e 78bd 5db5 02be b663 913d
00000080: 6a86 833e 0b76 9ebd a55c 813c 68a8 013e
00000090: 0142 933e 746d 2d3e b43b dc3d bb0c 1a3e
000000a0: 3aba 93bd 86f5 c13d 0860 973d 32c2 f0bc
000000b0: be37 48be 7538 4abc 65e5 fcbd bfe5 93bd
000000c0: f715 9c3d c3da c4bd 6763 b73c 5a66 323d
000000d0: 2500 35be 5298 eabc 803d 19be 8c46 bd3d
000000e0: e43c cd3d 7417 bcbc e0ef f7bd f29c 37be
000000f0: c8ab 693c d4af 02bd c9b4 3a3d b16e 85be
00000100: 6ec2 dfbd ff2e 80bd a3f8 ef3d c4c9 efbd
00000110: cfe8 8ebc f55e a53d c183 ce3d 7478 a93d
00000120: a2e0 683d 879f 03bc 887c 6cbe 3efa a63e
00000130: f917 57bd 0a92 9e3c 1f6c 14bd 1be0 2ebd
00000140: e44a a33d 00f5 fa3d 2242 24bd 9752 d83d
00000150: 438c a0bd b0d1 78bd a71c c03d e101 98bd
00000160: 3980 4d3e 6b33 19be 7931 7d3d ff4c 85bd
00000170: b158 903e 4e48 d63d f2a0 c9bd 0917 3ebc
00000180: e925 ae3d c542 bdbd 705e 68bd ba9f 393d
00000190: 7bfb d8bd c962 5ebd c65d 793d 9f3e 38bc
000001a0: 38c3 873e 2fc8 d93c 80ab e5bd 9c7f 9bbd
000001b0: 3bae a2ba dc80 4c3d d2e1 3e3d bc84 4a3d
000001c0: cf5e 223e a9c1 79bd 32f8 843b 85dd 73be
000001d0: ffc2 393d a056 0ebe 1567 df3d 20c1 523c
000001e0: 0d8c e2bc acc1 f03d 3bb1 95bd cfe2 943d
000001f0: a0fd 8cbd 9e2f 53bd f18e a2bd 2a86 033e
00000200: 5499 a8be fa94 f73d 8e6f 4d3e 9cf8 223e
00000210: aab9 e8b9 6c9d 7fbd 2c6b d43e f63a 8dbe
00000220: 3c1c 093e f1ae ca3d 1544 d23d 47dc 76bd
00000230: 14f5 853d 8dea 25be 9ae9 95bd a4c8 c9bc
00000240: 1374 b9bd 7322 893c f069 553e 8938 1abc
00000250: 5049 633e 33f2 ddbc 274b 0e3e 1e17 893d
00000260: 22bc 2c3e 7649 ba3e 4ba5 673c 3564 2b3d
00000270: 130e 443e fef5 dfbc 9a92 693e e923 31be
00000280: fead 323e 0708 743c 5a61 e8bd 8f17 adbc
00000290: 173c 173d 0c06 073e 841a 403d 1eaa fbbb
000002a0: 88a6 7c3d e898 ad3d 21bc bb3d 0ced 833c
000002b0: d55c f6bc ad3f 313d 2985 833c 952a 0a3e
000002c0: b78f 6cbe 7938 a5bc 8c1f 77bd 1fe4 06be
000002d0: d222 a23d 3a07 873e 868b 603d 18d0 233e
000002e0: 0a3c ea3d 5806 163c 91cb 1bbe b4c8 9a3d
000002f0: fc8a 6abe 9ebc 3f3c 9438 1dbd 8afc be3d
00000300: f5ed 9abd 35b1 623e af49 85be 294a 9f3e
00000310: c92b 2a3e 295e c3bc fd50 04bd c54b 2b3e
00000320: ed7a d7bd 48b2 84be 5fa9 873c b60f 40bd
00000330: c137 3a3e d5df 603e b7f6 34be 712b 6a3d
00000340: 75ac 62bb 7b80 48be 33dc 68bd 5405 ebbd
00000350: b4d8 87bc 192d 4fbc 03ba 12bc 04b0 8c3e
00000360: 7fcc 563e 597b 143d 1483 01bd f297 c5bd
00000370: 7beb 3bbd 18b8 853d d255 22be 4782 9d3c
00000380: 6cb3 debc ceee 6c3d b729 e73c ba8b 943e
00000390: a783 30be 97bb 563d a738 d83d dbf6 8f3d
000003a0: 8593 83bc 0763 0ebd f864 253d 00ed 5a3d
000003b0: 5e18 373e 7b11 35bc 9afb 58bc 5485 ee3c
000003c0: 9bd7 753d 3004 863d 6e7d 803d 1214 373c
000003d0: 51f9 7f3e 623e e5bd 71d9 863e 2b3a edbd
000003e0: 71b4 93bc 71bb 2cbd 8bfd 13bd dbd2 13bd
000003f0: 5ad5 df3d a767 273d c687 11bd d876 18be
-0.1222352 -0.28075644 0.19401143 0.20625074 0.08214095 0.20391098 0.06094516 0.029277248
-0.13677622 0.10164208 0.12887356 -0.112303786 -0.027232626 0.22359477 -0.06362452 -0.023808934
0.16664337 -0.078027554 -0.048118215 0.0692434 -0.042694833 -0.32677224 0.061089717 -0.10257983
-0.10959193 0.064941995 0.06573115 -0.18530329 -0.07991825 -0.06068299 -0.12764497 0.070990965
0.25688487 -0.07737359 0.015791247 0.12661898 0.28761294 0.16936284 0.10753575 0.15043919
-0.07213254 0.09470658 0.073913634 -0.029389475 -0.19552514 -0.012342562 -0.12348441 -0.07221555
0.07621377 -0.09612038 0.022386266 0.04355464 -0.17675836 -0.028637085 -0.14964867 0.092419714
0.100213796 -0.022960402 -0.121062994 -0.17930964 0.014262147 -0.031905964 0.045582566 -0.26061013
-0.109257564 -0.06258964 0.117173456 -0.117084056 -0.017444996 0.08074752 0.10083724 0.08274928
0.05685485 -0.00803364 -0.2309438 0.32612795 -0.052513096 0.019356746 -0.036235925 -0.042694192
0.07973269 0.12253761 -0.04010213 0.10562628 -0.07839253 -0.06074685 0.09380465 -0.074222334
0.20068444 -0.1496102 0.06181476 -0.065088265 0.28192666 0.1046301 -0.09845151 -0.011602172
0.085033245 -0.09241251 -0.056730688 0.045318343 -0.10594841 -0.054293428 0.060880445 -0.011245399
0.26516128 0.026584713 -0.11214352 -0.07592699 -0.0012411544 0.049927577 0.046602078 0.04944299
0.15856479 -0.060975704 0.0040579075 -0.23814972 0.04535198 -0.13900232 0.10908333 0.012863427
-0.027654672 0.1175569 -0.07309195 0.07269823 -0.06884313 -0.051559083 -0.0793742 0.12844148
-0.3292948 0.12088962 0.20062086 0.1591515 -0.0004438882 -0.06240599 0.41488016 -0.27584046
0.13389677 0.09896649 0.10266892 -0.060268667 0.065408856 -0.16202755 -0.073199466 -0.024631806
-0.090553425 0.01674006 0.20841193 -0.009412893 0.22195935 -0.027093029 0.13895856 0.066938624
0.16868642 0.3638417 0.01413853 0.04184361 0.19145994 -0.027338978 0.2280983 -0.17298855
0.17449185 0.014894492 -0.11346693 -0.021129398 0.03692254 0.131859 0.046900287 -0.0076801917
0.061682254 0.0847643 0.09166742 0.016104244 -0.030073563 0.043273617 0.016054707 0.13492806
-0.23101698 -0.02016853 -0.06033282 -0.13172959 0.07916798 0.263727 0.05482056 0.1599735
0.11437233 0.009156786 -0.15214373 0.07557812 -0.22904581 0.011702685 -0.038384035 0.09325512
-0.07564918 0.22137912 -0.2603278 0.31111267 0.16618265 -0.02384861 -0.0323038 0.16728123
-0.10521493 -0.25917268 0.016560255 -0.046889983 0.18185331 0.21960385 -0.17672239 0.057170335
-0.0034587656 -0.19580261 -0.056850623 -0.11475626 -0.016582824 -0.012645029 -0.008955481 0.2747804
0.20976447 0.036250446 -0.031619146 -0.09648122 -0.04587887 0.06529254 -0.1585305 0.01922716
-0.027185164 0.05784493 0.028218133 0.29012853 -0.17237721 0.052424993 0.105576806 0.07029506
-0.016061554 -0.03476241 0.040379494 0.053448677 0.17880389 -0.011051531 -0.01324358 0.02911631
0.06002007 0.065437675 0.06273924 0.011174219 0.2499745 -0.11193539 0.2633777 -0.1158336
-0.018030377 -0.042170946 -0.03613047 -0.03608976 0.109293655 0.040870335 -0.035529874 -0.14889085

final_mean.bias f4 [17]
00000000: fa62 6e3d e5f5 503d 044a 55bb 7299 4c3c
00000010: 17ee 45be e77e 0e3e 3aab 873e c117 893c
00000020: 239a 693d 8d1e c63d 7e71 6b3e 0b89 a53d
00000030: 7fdf 86bd 2805 8ebd dc02 b3bd 6ff5 c7bd
00000040: bc10 70be
0.05819986 0.051015753 -0.0032545337 0.012487756 -0.19329105 0.13915597 0.26497823 0.01673496
0.05703176 0.09673796 0.22992513 0.080827795 -0.06585597 -0.06934577 -0.0874078 -0.097636096
-0.23443884

exp_avg f4 [64, 376]
00000000: 44b7 3db5 9f6f 8139 a5f7 adb9 a4d6 18b7
00000010: e091 7039 5733 0e38 9229 f839 4ae9 86b8
00000020: 6429 0a3a 664a 2aba 33f2 bab9 2104 87b8
00000030: 593b 5d39 95e3 243a 2089 53b9 204b 4838
00000040: e0f0 0639 9ec8 e539 b363 8bb9 7dcc be39
00000050: 7cac 1e37 9ba8 2138 c00a 33ba 2b8d 9cb9
00000060: e2ce 6ab9 2c2a 47b9 cd18 3339 1677 36b9
00000070: 8aeb 0f38 ad4d 83b9 d9b8 f2b8 66f2 3fb9
00000080: 778e 58b9 dc94 7b39 58c4 d538 31b8 9839
00000090: 15f8 c039 c150 9b39 58d7 eb38 7e61 a238
000000a0: 787b 8539 325e e938 6b84 7f39 1add ec38
000000b0: 36b8 00b9 0000 0000 0000 0000 0000 0000
000000c0: 0000 0000 0000 0000 0000 0000 0000 0000
000000d0: 0000 0000 0000 0000 0000 0000 52ca 1539
000000e0: 98f4 a539 a14b 8b39 c437 bcb9 71a9 14ba
000000f0: 28c4 4fb9 cd56 0e3a 42a1 2139 aacd c138
00000100: 0000 0000 843f 8939 971c 9037 8658 a3b9
00000110: ebde a637 f418 27ba 7072 c239 357a 183a
00000120: c5a0 abb9 f780 4539 0000 0000 f0ec e339
00000130: 2860 1f39 9466 8539 c95d 0ab9 82ae 1439
00000140: 8d43 193a baf8 30b8 2c57 ebb9 6e6c 3b39
00000150: 0000 0000 88e2 9937 f0b4 0ab9 1dab 8438
00000160: c9e6 13b7 3545 c5b8 8223 b638 4990 aeb7
00000170: 49fa bdb8 892e f638 0000 0000 482e 4ab9
00000180: 788e f7b8 1650 52b9 95a1 0cb9 20cd 8db9
00000190: 78d5 8d39 4ff1 84b9 dba4 8039 06c6 5838
000001a0: 0000 0000 f43c 33b9 6ae3 d5b8 cb84 4eb9
000001b0: 74af 02b9 ea43 a1b9 68c0 a639 47b3 97b9
000001c0: 5dac 9c39 b34e 0f38 0000 0000 3b25 0ab9
000001d0: 7c96 8939 3d09 cbb7 9900 563a 10fd 82ba
000001e0: f082 4cb9 3333 76ba fe44 8eb9 35e0 0bb9
000001f0: 0000 0000 3fb3 6fb9 82d8 ba39 3a18 bd39
00000200: cacd 063a de2c 87ba a9ad 1fb9 f144 81ba
00000210: b711 13b9 e871 b238 0000 0000 76f3 85b9
00000220: 53d7 a039 5522 c139 259a d139 d5bf 78ba
00000230: fd58 0ab9 1cd7 67ba b6e6 eeb8 a0d5 fb38
00000240: 0000 0000 7312 6eb9 2c67 05ba 6e21 33ba
00000250: 12ee 27b9 2f86 25ba 7fea a939 7f5b 113a
00000260: 4f3e 9cb9 d067 88b9 0000 0000 6d4f 72b8
00000270: a1d7 31ba 5113 29ba 8091 92b9 0894 d4b9
00000280: cd11 7139 9377 b139 09e6 c8b9 e16f b3b9
00000290: 0000 0000 7841 fd38 42b2 1439 331a 2b3a
000002a0: f004 35ba 98ca 7ab9 93cf 7ab9 be22 8139
000002b0: a0c0 c239 6680 3fb7 0000 0000 bbab fe38
000002c0: 0e60 3139 ac75 cf39 462b f6b9 ed7f 24b8
000002d0: fde7 dd35 3eea a139 1f5c ae39 0335 4e38
000002e0: 0000 0000 0000 0000 0000 0000 0000 0000
000002f0: 0000 0000 0000 0000 0000 0000 df2b 98b6
00000300: a3b8 2139 30c6 5bb9 9795 dbb9 ba4f 01b9
00000310: 2c61 3bb9 80da dbb8 3d0f 90b9 d64b 57b8
00000320: a957 04b9 83ff 6db9 0ed7 23b7 f975 3bb9
00000330: 5094 91b9 be42 a8b8 ec9e 08b9 0505 cab9
00000340: 8391 1bb8 ce7b 6438 d886 8939 d645 88b9
00000350: 7406 fe37 2b61 bbb9 16aa 4e38 afea 82b8
00000360: 493e c036 062d 80b9 4980 35b9 65f2 3bb7
00000370: 8e21 5bb8 afea 82b8 493e c036 062d 80b9
00000380: 4980 35b9 65f2 3bb7 8e21 5bb8 1bb1 84b8
00000390: 1ade 1339 2345 ddb9 1272 eab9 c6e3 deb9
000003a0: c5e9 8fb8 bd77 a5b9 bad7 0cb7 475e d6b9
000003b0: bcef 3eb9 9e65 8538 8f37 e838 bd77 a5b9
000003c0: bad7 0cb7 475e d6b9 bcef 3eb9 9e65 8538
000003d0: 8f37 e838 a4a5 7fb7 47d3 62b9 e40f fdb8
000003e0: 5306 82b8 3d87 86b8 6af9 d237 af3e 5db8
000003f0: 9173 87b9 bf4c ffb7 636c 4138 233b d8b8
-7.0674673e-07 0.00024687962 -0.0003318164 -9.109881e-06 0.00022942526 3.3903252e-05 0.00047333218 -6.4330714e-05
0.000527045 -0.00064960716 -0.00035657137 -6.438071e-05 0.00021098311 0.0006290016 -0.00020173611 4.775368e-05
0.00012868969 0.00043827755 -0.00026586428 0.0003639198 9.4576935e-06 3.8542417e-05 -0.000682991 -0.00029859817
-0.00022393049 -0.00018993829 0.0001708001 -0.00017401236 3.431322e-05 -0.0002504414 -0.0001157389 -0.0001830548
-0.00020652438 0.0002399268 0.00010193203 0.00029128933 0.0003680593 0.0002962407 0.00011245784 7.742921e-05
0.00025459728 0.00011127851 0.00024368025 0.0001129454 -0.00012275655 0.0 0.0 0.0
0.0 0.0 0.0 0.0 0.0 0.0 0.0 0.00014285118
0.0003165349 0.00026568494 -0.00035899703 -0.00056710007 -0.00019814132 0.00054298044 0.0001541423 9.241265e-05
0.0 0.00026178 1.717945e-05 -0.00031155738 1.9892546e-05 -0.0006374263 0.00037087826 0.000581655
-0.00032735444 0.00018835427 0.0 0.00043473346 0.00015199243 0.00025444163 -0.00013195643 0.00014179389
0.00058465527 -4.2193315e-05 -0.0004488764 0.00017874103 0.0 1.8344508e-05 -0.0001322811 6.326123e-05
-8.815617e-06 -9.406583e-05 8.68505e-05 -2.0809604e-05 -9.0588415e-05 0.00011738862 0.0 -0.00019281462
-0.00011804415 -0.00020056995 -0.00013411634 -0.00027046446 0.00027052662 -0.0002535679 0.0002453689 5.1682837e-05
0.0 -0.00017093477 -0.00010198991 -0.0001969516 -0.00012463127 -0.00030758913 0.0003180534 -0.00028934536
0.0002988306 3.416715e-05 0.0 -0.00013174575 0.00026242796 -2.4203788e-05 0.0008163541 -0.0009993631
-0.00019503734 -0.00093917846 -0.00027135754 -0.00013339597 0.0 -0.0002285959 0.00035637995 0.0003606694
0.00051423593 -0.0010313054 -0.00015228115 -0.0009862465 -0.00014025612 8.508918e-05 0.0 -0.0002554913
0.00030678007 0.00036837408 0.00039978433 -0.00094890344 -0.00013193856 -0.00088440045 -0.000113916976 0.000120084034
0.0 -0.00022704322 -0.0005088921 -0.00068332895 -0.00016015049 -0.00063142454 0.00032408905 0.0005544945
-0.00029801062 -0.00026017288 0.0 -5.7771267e-05 -0.00067841454 -0.0006449717 -0.00027955696 -0.00040546083
0.00022990182 0.0003384916 -0.00038318362 -0.00034224897 0.0 0.000120761746 0.00014180786 0.00065270363
-0.0006905338 -0.0002391733 -0.00023919185 0.00024630682 0.0003714608 -1.1414382e-05 0.0 0.00012143651
0.00016915819 0.0003956979 -0.00046953018 -3.9219787e-05 1.6533301e-06 0.00030882837 0.00033256502 4.91636e-05
0.0 0.0 0.0 0.0 0.0 0.0 0.0 -4.5350603e-06
0.00015422939 -0.00020959298 -0.00041882388 -0.00012332099 -0.00017869909 -0.000104834326 -0.00027477174 -5.1330622e-05
-0.00012621157 -0.00022697267 -9.765628e-06 -0.00017877658 -0.00027767057 -8.023296e-05 -0.00013029174 -0.00038532182
-3.7090398e-05 5.4474738e-05 0.00026231143 -0.00025991973 3.0282165e-05 -0.00035739815 4.9272632e-05 -6.242596e-05
5.729297e-06 -0.00024447608 -0.00017309295 -1.1202505e-05 -5.224492e-05 -6.242596e-05 5.729297e-06 -0.00024447608
-0.00017309295 -1.1202505e-05 -5.224492e-05 -6.327239e-05 0.00014101752 -0.00042203916 -0.00044716947 -0.00042512844
-6.862314e-05 -0.00031560464 -8.394878e-06 -0.00040887503 -0.0001820912 6.360862e-05 0.00011072971 -0.00031560464
-8.394878e-06 -0.00040887503 -0.0001820912 6.360862e-05 0.00011072971 -1.5237751e-05 -0.00021631746 -0.0001206694
-6.200061e-05 -6.414808e-05 2.5150093e-05 -5.2748885e-05 -0.0002583531 -3.0434107e-05 4.611573e-05 -0.00010310698
