src/collect_models/vanilla/vanilla_halfcheetah_best.model (torch, 157774 bytes, 36 tensors)

affine_layers.0.weight f4 [64, 17]
00000000: 8761 2a3e 5488 e0bd 9c20 02bc a7e3 71bc
00000010: c5ec 01bd 98d7 54be 7429 993d 12a4 2b3e
00000020: 041b 853d ea83 5e3d 9ee6 833e eaef d03d
00000030: 8ef0 a63a 2076 16bc 5c93 7e3d b725 003c
00000040: 7569 84bd 10a3 913e c4de af3e a58c 6bbe
00000050: f48f 503e b008 673b ccc5 a63e a57d 583e
00000060: 1848 773e f198 8e3e 2f51 cdbb 9df5 64be
00000070: d901 003d c92a ffbd 099d 9e3d fe07 b6bd
00000080: 5475 1ebe 1202 973d 4f7a c2bc 5f5e e73d
00000090: 534a 74bd 8e30 553d 63cf 653e f8af f3bd
000000a0: a717 033c 2041 f03c 3021 8ebd 2690 38be
000000b0: b5ed 3ebe d2ce 833d f840 33bd 5c78 84be
000000c0: 92fd 243e 2218 d9bc cc8f ce3d db09 c23d
000000d0: f565 91bd a34f 6a3e 2658 293c d2bd bf3d
000000e0: 7605 0f3e 8c06 a43d 8833 db3d cf7e 373e
000000f0: 0978 853d a4be 18be 4c07 0fbe 3ad5 34bd
00000100: c92d f03d cce6 523d 5f88 643d 5336 b4bc
00000110: 3294 393e 0bd8 93be 878f 9a3e a593 a23d
00000120: 9ff2 223e ce5f ebbc 70f8 05bb 7075 11bd
00000130: b2b2 12be 0d53 323c 7e51 30bc 2f35 03bb
00000140: b334 0dbd 269a ea3b 7787 043d 4a6d 77bd
00000150: 01b4 8abe 20ea ca3d 16ef f53d 0486 4cbe
00000160: 6e1e 6dbe 9da1 f6bd 8391 123e 50b8 08be
00000170: fcdb babd 71de f9bc ce11 e33b 587b ba3d
00000180: dec8 153e 736a d1bc 41fa 82bc 51b1 22be
00000190: 4d08 e43d 73ef 433d 6eaa 93bd 9392 3ebe
000001a0: 8f4a 183e 24d7 17bd 5842 12be a492 d33d
000001b0: d769 46be ac18 07bb 7dfd 97be aaef 4d3d
000001c0: 2374 ed3d b9d7 5d3e 9e0c fc3c 75bb f2bd
000001d0: 938c 193d a6e4 08bd 8aef 673c 5653 6dbd
000001e0: 6fe4 01bf 9284 bebd 8cc4 ce3c a52d 2fbe
000001f0: b369 4cbe 1d50 6dbe a6a2 80bc 623c 21bc
00000200: f3c8 483d 55fd 6dbe a543 96bc 015d 96bc
00000210: 1ccb 553e a6a8 453d c67d 303c e9ba b8bc
00000220: 3b84 95bd b420 683e 6e3f 763d 9c80 53be
00000230: ba74 dabd 254a 3f3e 0d4f 1abe a20d 883d
00000240: e351 fcbd c19a 28be cd01 3bbd 40a9 84be
00000250: 0977 bb3c 2029 dc3b 6199 d9bb 2edd 123e
00000260: e2f2 953c 1ea1 9bbd 87e3 1cbd d4bf b33d
00000270: 3d3c 583e 25bd 103d a0db a3bd 229b 5dbe
00000280: 482b 943c 546a 16bc 6583 5fbd eed9 693d
00000290: 3b73 1e3c 99af 153d 5af5 f03d 41db dd3c
000002a0: 7119 26be 20ee 25be 0f55 5fbe 3418 2fbe
000002b0: 0e89 5c3e a801 b33d 71c1 3e3d afee 13be
000002c0: 7849 fcbc 9c03 9bbd 6179 40bd 0b20 f3bd
000002d0: af43 21bd e59a 10be 70b2 31bd d29c 273d
000002e0: aa78 9dbe e97e abbe 9985 523d 2886 a53e
000002f0: 7e24 c03c 6dc4 88bd ec62 c2bd 25a5 0bbe
00000300: b9fc 793e efe9 3f3e 0fde 9938 633a 193d
00000310: 963c 8a3e b810 efbd 7542 933e 5d5d fd3c
00000320: 64f0 083d 5803 dabd 56db 27bd 3f64 133d
00000330: e3ba e23c 7bb3 90bd b974 1c3e 17f0 a53d
00000340: fd10 40be 909f 0c3d c2f0 9f3e 50fb 07be
00000350: 0104 e83d ae45 b3be 1b03 0cbd ff5b d73d
00000360: 484b a63b 17c6 ae3c f603 783e 2e45 35bd
00000370: 8aa5 943e 9bf5 e1bd 7ceb e6bc a880 b63d
00000380: 53d2 433d 521c 25be d6c9 173e ff03 243e
00000390: 79f5 e73d dbf6 113c 03d5 efbc f082 853d
000003a0: 6a10 023e fbc5 81bd 60e4 6d3d 16f0 9abe
000003b0: b5d0 c93d 67d5 46bd 8d19 5fbe 1db9 c9be
000003c0: 8f88 dfbd 397b a0bd d157 2d3e a720 85bd
000003d0: 8d4c a6bd c77b 8ebd dab9 fe3d f041 c13d
000003e0: 719e 23bc 3c45 b9bd 2b7e 393c bc24 513b
000003f0: 3ef6 0fbd 5700 a4bd 4861 bcbb d855 9b3d
0.16638766 -0.109635025 -0.007942345 -0.014763749 -0.03171994 -0.20785367 0.0747861 0.16761807
0.064992934 0.05432502 0.25761884 0.1020201 0.0012736486 -0.009183437 0.06215225 0.007821492
-0.06465427 0.2844472 0.34349644 -0.2300287 0.20367414 0.003525298 0.32572782 0.2114168
0.24148595 0.2785106 -0.0062657814 -0.22359319 0.031251762 -0.124593325 0.07744796 -0.08888243
-0.15474445 0.07373442 -0.023739962 0.11297297 -0.059641194 0.05204826 0.22442393 -0.11898798
0.008001245 0.029327929 -0.06939924 -0.18023738 -0.18645366 0.06435932 -0.04376313 -0.25873077
0.16112354 -0.026500765 0.10086021 0.09474536 -0.07099525 0.22881941 0.010335958 0.09362377
0.13966927 0.08009061 0.10703188 0.17919467 0.065170355 -0.14916474 -0.13967627 -0.04414866
0.11727483 0.051489636 0.055794116 -0.02199856 0.18122938 -0.28875765 0.30187628 0.07938317
0.15912865 -0.028732207 -0.002044227 -0.035512388 -0.1432598 0.010884059 -0.010761617 -0.0020020714
-0.034474086 0.007159489 0.03235575 -0.06040696 -0.27090457 0.09907937 0.12008493 -0.19972998
-0.23156139 -0.12042544 0.14313321 -0.1335156 -0.0912399 -0.030501576 0.0069296127 0.09105557
0.14627406 -0.025563454 -0.015988471 -0.15887953 0.11134396 0.04783578 -0.07210241 -0.18610601
0.14872192 -0.03707041 -0.1428312 0.10330704 -0.19376312 -0.002061407 -0.29685584 0.05027739
0.11594417 0.21664323 0.030767735 -0.11852161 0.037487578 -0.03342118 0.014156232 -0.057940803
-0.50739187 -0.093026295 0.025240205 -0.17107256 -0.19962196 -0.23175092 -0.015702557 -0.009841057
0.049019765 -0.2324117 -0.018342802 -0.018354895 0.20878261 0.04825654 0.010772174 -0.022550063
-0.073006116 0.22668725 0.060119085 -0.2065453 -0.10666795 0.18680628 -0.15069218 0.06643225
-0.12320306 -0.16465284 -0.045656014 -0.25910378 0.022883909 0.0067187697 -0.0066405986 0.14342186
0.018304292 -0.0759909 -0.038302924 0.08776823 0.21116729 0.035336632 -0.080008745 -0.2164121
0.018087044 -0.009180624 -0.054568667 0.0570926 0.009671028 0.036544416 0.11765547 0.027082087
-0.16220643 -0.16204119 -0.21809791 -0.17099077 0.21536657 0.0874055 0.0465712 -0.1444652
-0.030796751 -0.07569048 -0.046990756 -0.11871346 -0.03937119 -0.14121588 -0.043383062 0.04092104
-0.30756122 -0.33495262 0.05139694 0.32328916 0.0234549 -0.0667809 -0.09491524 -0.13637216
0.24412812 0.18741582 7.33697e-05 0.037409198 0.26999348 -0.11673111 0.2876164 0.030928308
0.03343238 -0.10645169 -0.04098066 0.035984274 0.027677005 -0.07065483 0.15278901 0.08102434
-0.1875648 0.03433186 0.3123837 -0.13279462 0.11328889 -0.350141 -0.03418265 0.10515594
0.005074892 0.021334691 0.24220261 -0.044255428 0.29032546 -0.11033174 -0.02818846 0.08911258
0.047808003 -0.16124085 0.14823088 0.1601715 0.11326117 0.008908953 -0.029276377 0.06519115
0.12701574 -0.0633659 0.058079123 -0.30261296 0.09854261 -0.04854336 -0.2178709 -0.39399043
-0.10914718 -0.07836003 0.1692803 -0.065003686 -0.0812007 -0.069572024 0.12437792 0.09436405
-0.009986506 -0.090464085 0.011321585 0.0031912765 -0.035146944 -0.08007877 -0.0057489015 0.07584733

affine_layers.0.bias f4 [64]
00000000: ce11 4f3e fa48 bb3d e372 06bf e5ba ee3d
00000010: 94ce 183e 5f20 44be b05e 913e 4563 c4bd
00000020: df0b ffbd 22dd 253e 542b 4fbe f24d a9bc
00000030: 2086 ea3d bce1 e8bd ac1e 9c3e d6d7 04be
00000040: 5b9d 563e 3a12 523e 9dd3 22bd 0842 98bd
00000050: 1045 92bd 47a8 c0be 8622 913e edd1 75be
00000060: 8780 563e 64ed 27bd e33c 6fbe dc52 42be
00000070: 13d1 7bbe e454 08bf d838 c43d 8400 f93d
00000080: 1b38 aabe abb6 89be 23ba b93e 372e 243e
00000090: 66f1 2bbe 1bdd 323c 7933 1a3e 7047 47bd
000000a0: 3b90 1cbe eb7f 98be 818d b3be 5b75 df3e
000000b0: 5dc3 febe 9a7d f437 6be2 8ebe 7dbe 46be
000000c0: b070 eb3e f166 2b3e 28da d53d df05 75be
000000d0: 6d6a 2bbe ce27 36bd 1a00 fd3d 2566 b53e
000000e0: 48ce c6be ec71 3f3e a20a 93be b467 953d
000000f0: 0441 c63e 599a 923d b475 84be 9451 3ebe
0.20221636 0.091447785 -0.52519053 0.11656741 0.14922553 -0.19152974 0.28392553 -0.09589247
-0.12453436 0.16197637 -0.20231372 -0.02066705 0.114513636 -0.113711804 0.3049215 -0.1297296
0.20958464 0.20514765 -0.03975259 -0.074344695 -0.07142079 -0.37628385 0.28346652 -0.24005862
0.20947467 -0.040997878 -0.2336307 -0.18976921 -0.24591474 -0.5325453 0.095811546 0.121583015
-0.3324593 -0.26897177 0.36274824 0.16033255 -0.16791305 0.010916973 0.15058698 -0.048652112
-0.15289395 -0.29785094 -0.35068896 0.43644223 -0.49758425 2.9145554e-05 -0.27907118 -0.19408603
0.4598441 0.16738488 0.10442001 -0.23928021 -0.16739817 -0.044471554 0.12353535 0.35429493
-0.38829255 0.18695801 -0.2871905 0.072951704 0.38721478 0.07158346 -0.2587105 -0.18585807

affine_layers.1.weight f4 [64, 64]
00000000: ab50 123b 600e c73c 5279 9f3e 67fe 22be
00000010: 00d4 823e 8bc2 bdbd 4915 9f3e 6ade 68bd
00000020: 8859 6d3d da9f a6bd bffa 2ebd ce63 b43d
00000030: f342 043e 1d72 7f3e 0552 a73d 20ca 193e
00000040: 677a 88bd e47a bbbd 07ae afbb d19b b03e
00000050: 60c1 233d 7836 2b3e f881 9b3e 2158 eabd
00000060: 7d0f c6be 56d1 193e 7caa 96ba cdf5 b3b9
00000070: 755d 58be 8977 82bd fe78 343e b307 82be
00000080: 7b5b 90be 6505 143e b72b ed3c 5ff2 1dbe
00000090: d418 7ebe 6558 a3bb fbd1 d2bc 9887 ac3e
000000a0: fa2b 33be 3c2b 66bd e2a8 e53d c718 e73d
000000b0: cd1a bf3d 11a9 d93c 5e30 3fbe c1a6 8c3e
000000c0: abc7 16be ec2c acbe 5c86 90be 7f2b 413c
000000d0: 4d2c 0ebd a397 5abd 06c9 8bbd 3379 65bd
000000e0: 0530 68be f4ed 633e 2f0c d2bd 735f 6e3d
000000f0: e99d 8dbd a87b 03be 75e4 45bd ef12 81be
00000100: 0a3a 8a3d 59b1 9cbe 269c 14bb 712a d0be
00000110: f969 0a3d a0b8 4bbe 7fad 76b9 93f2 1a3e
00000120: 2cce db3d 4e06 f03b 7f81 f0bc ede7 2dbd
00000130: 619f 3fbe ad61 aebd 68b8 49bd 4102 653e
00000140: 24be a83d c92e 34be fcfe be3d 0877 8cbd
00000150: 1e8d d6bd 7219 5a3d acba 573e c61c 643c
00000160: 1c10 37be 2fb6 15be d4e3 2abe 5f32 403e
00000170: 03ff 433e 5d12 7ebe 93d6 eebd 6473 123e
00000180: 9722 e2bd 09db 523d 6292 583e 6f95 c93c
00000190: 970a 823e 033c 54be e2b4 cf3e e598 2ebe
000001a0: 1f92 93bc 765a 50bd 4052 113e 56ac 35be
000001b0: ec50 583e e601 e93d d760 923d 0f77 323c
000001c0: 45fa ab3b 5259 f03c 337e 503e 549c c13d
000001d0: 5dc3 64be 7029 ed3b 4478 403e e074 9dbd
000001e0: 99d5 3d3e 77c1 0a3d bf0b f4bc b8c8 f6bd
000001f0: d863 b2bd f093 11bd 08b3 003c f4bf fbbe
00000200: 65f6 0cbe 30dd f33c 85dc 03be 4bae f33c
00000210: 4f19 843c 013b 23be 8ab4 3cbd 01d6 dd3d
00000220: 4e71 313e 7b36 a8bd 94a9 ee3d 3154 2c3c
00000230: b3c7 aebc 3875 44bd 339e a2bd 85d7 62be
00000240: 01b3 2dbe be15 3bbe a051 b23e 85bc b13d
00000250: e566 f83c 01d4 adbd 656d 0f3e 7a16 aebd
00000260: 0ccb 1fbd eba9 f43c 5d2f 63be 78ad 09bd
00000270: 1499 60be 6c8d f6be 7b04 373e 3ee9 25be
00000280: dbda a6be 8b72 bc3d dc08 83be ffe1 e8bc
00000290: 90ce 0abe aec9 2e3e d400 47be 034f 54be
000002a0: c33f d9bb fb61 d23c 8045 883d 3844 5c3d
000002b0: 550d 57bd 8e31 b1be 0ec4 49bc 487b 01bf
000002c0: ce29 cf3e d03a 703e 3c0d aa3d c606 063e
000002d0: b0a3 51bd 4d95 c43e 9ab1 6f3e c5f3 45be
000002e0: e725 84be 4126 0a3e 2177 8bbe 162d 913d
000002f0: bc82 5f3e 9b3c 35be 0923 6bbe 58e7 f63d
00000300: 2c39 74be a08a 22bd a124 933e 3e91 b03d
00000310: f4fa 50be 9925 15bc acb7 dabd 2225 ae3e
00000320: e0ff e33b fabf 98bd 04ac a83e ac33 6e3c
00000330: 9ad6 f33c d579 38be ffbd 0dbe f3f9 41bd
00000340: 7189 44be 8a71 06bd 3d5d 2d3e 9cb5 523e
00000350: fd87 3fbe 80c5 e4bd 8ceb f2be 87c4 0f3e
00000360: c1d6 b3be 5d77 c23d 68b6 3bbd 972d 413e
00000370: 1d95 8dbd 66fb 5f3c 03ee 9ebd 453b 923e
00000380: 1483 c5bc b3d9 cf3d 3905 bb3d 5d22 8fbe
00000390: 23f9 973e 3e3a 1a3e bb2f c7be 3663 3bbd
000003a0: f3e7 843e e3ab 5dbd 7a5f af3d d2af 9bbd
000003b0: 3861 c53e 7127 d9bd dede 733d d0f5 1b3e
000003c0: 61ba c8be 81e4 30bd 55a1 de3c 277b 8d3e
000003d0: 25fb 0c3e 6aa8 733b d405 95bd cd73 31be
000003e0: 8d5e 603e 3132 743e 840b 003d a012 e3bd
000003f0: 7fe2 abbd 40ba f2bd 1cc2 803e 4024 9cbd
0.0022325914 0.024298847 0.31147248 -0.1591736 0.25552368 -0.09265622 0.31070927 -0.056852736
0.05794671 -0.08135958 -0.0427196 0.08808099 0.12916164 0.24945875 0.08169941 0.15018511
-0.066639714 -0.09154299 -0.005361322 0.34493878 0.03997934 0.16719997 0.30372596 -0.114425905
-0.38683692 0.15021262 -0.00114949 -0.00034324676 -0.21129401 -0.06370456 0.1762428 -0.253965
-0.28194794 0.14455183 0.028951509 -0.15424488 -0.24814159 -0.0049849027 -0.025734892 0.336972
-0.17497244 -0.056193575 0.112138525 0.11284023 0.09331284 0.026569875 -0.18670794 0.27470973
-0.14724605 -0.33628023 -0.28227508 0.011790155 -0.034710217 -0.05336727 -0.068254516 -0.056023788
-0.22674568 0.2225874 -0.1025623 0.058196496 -0.069148846 -0.1284014 -0.048313577 -0.25209758
0.06749351 -0.30604056 -0.002267608 -0.4065738 0.03379247 -0.19894648 -0.0002352502 0.15131597
0.107326835 0.0073249703 -0.029358624 -0.04245751 -0.18713142 -0.08514724 -0.04924813 0.22364141
0.082393914 -0.17595972 0.09325978 -0.06858641 -0.10476135 0.053246923 0.21067303 0.013922876
-0.17877239 -0.14620279 -0.16688472 0.18769215 0.19140248 -0.24811693 -0.116620205 0.1430183
-0.11041754 0.05147842 0.2114959 0.024607388 0.25398704 -0.20726018 0.4056769 -0.17050512
-0.018014012 -0.05086752 0.14191532 -0.17741522 0.21124619 0.11377315 0.07147377 0.010892644
0.0052483403 0.029339466 0.20360641 0.09453645 -0.2234015 0.0072376058 0.18795878 -0.07688308
0.18538512 0.03387591 -0.029790757 -0.12050003 -0.0871045 -0.035541475 0.007855184 -0.49169886
-0.13765867 0.029768556 -0.1287709 0.029746195 0.01612535 -0.15940477 -0.046070613 0.10831834
0.17328379 -0.08213516 0.11653438 0.01051812 -0.021335458 -0.04796335 -0.0794033 -0.22152527
-0.16962816 -0.18270013 0.348279 0.08678535 0.030322501 -0.08487702 0.14006574 -0.08500381
-0.039012 0.02986618 -0.22186036 -0.0336127 -0.21933395 -0.4815477 0.17872803 -0.16202256
-0.32588848 0.09201535 -0.25592697 -0.028428076 -0.1355536 0.17069122 -0.1943391 -0.20733266
-0.0066299154 0.025681486 0.06653881 0.053775996 -0.05250295 -0.3460812 -0.0123148095 -0.5057874
0.40461582 0.23459935 0.083033055 0.13088521 -0.051181495 0.38395157 0.23407593 -0.19331272
-0.25810167 0.13491155 -0.27239326 0.070886776 0.21827215 -0.176989 -0.22962584 0.12055844
-0.23849934 -0.039682984 0.28738883 0.08621453 -0.20408231 -0.009103202 -0.10679564 0.34012705
0.006957993 -0.074584916 0.32943738 0.014538687 0.029765416 -0.18015225 -0.13842009 -0.04735751
-0.19193055 -0.032823123 0.16930099 0.20577091 -0.18704219 -0.11170483 -0.47445333 0.14039813
-0.35124782 0.09495423 -0.045828253 0.18865047 -0.06913207 0.013670778 -0.07760241 0.28560844
-0.024110354 0.10148945 0.091318555 -0.27955905 0.29682264 0.1506128 -0.38903603 -0.04574891
0.25958213 -0.054119002 0.085631326 -0.076018944 0.38550735 -0.10603226 0.059538715 0.15230489
-0.39204696 -0.04318667 0.027176538 0.2763302 0.13767679 0.003717924 -0.07276502 -0.1732933
0.21911068 0.23847272 0.031260982 -0.11087537 -0.0839281 -0.118519306 0.25148094 -0.07624102

affine_layers.1.bias f4 [64]
00000000: 3398 163e 3729 2a3e 1741 8cbd 119e c6be
00000010: d344 553e 48a5 76be 9b7f 25be 4577 a3be
00000020: 2fe8 63be d600 4e3e ad76 31be 4561 11be
00000030: 1dfd 0d3e 0184 523e 8999 1bbe dac4 5e3d
00000040: 377c 62be fd92 943e ae69 57be fd4c 5dbe
00000050: e99e 3ebe 7af5 263c 5559 953e c420 ef3d
00000060: d06e 223e dae9 383e 80fa 383e d133 65be
00000070: 2ea2 0fbe d9d7 913d 7ad7 3d3e d97f 2b3e
00000080: 55ed 82be 15b0 72be a2c3 52be ed3d dd3d
00000090: 0016 9d3e a646 d1be 7c75 c5bd 53a5 9f3c
000000a0: f836 95be e06c 87be a3f3 95be 65cd 983e
000000b0: d0d5 6b3e 2369 223d 6832 28be 498b 023e
000000c0: 36e6 72be e4dc b63e 92de 3b3e a21a 2b3e
000000d0: 88de a93e d9fa f63d a78c 603e daac 223e
000000e0: 51c5 8d3d 270d 2e3e 7a70 0c3e 0f31 25be
000000f0: 59fd 85be f45b c7bd 2eb6 263e c281 283e
0.14706497 0.16617285 -0.068483524 -0.3879247 0.20827036 -0.24086487 -0.16161959 -0.31926933
-0.2225654 0.20117506 -0.17330427 -0.14197262 0.13866086 0.20558168 -0.15195288 0.05438695
-0.22117697 0.29018393 -0.21036407 -0.216114 -0.18615307 0.010190362 0.29169717 0.116761714
0.15862584 0.18057957 0.18064308 -0.22383048 -0.1402671 0.07121248 0.18539229 0.16747989
-0.25571695 -0.23699982 -0.2058244 0.10802827 0.30680847 -0.40874213 -0.09641549 0.019488012
-0.291435 -0.26450253 -0.29287443 0.29844204 0.23030782 0.039651047 -0.16425478 0.12748446
-0.23720631 0.357154 0.18346623 0.16709378 0.3317759 0.12059564 0.21928655 0.1588625
0.06922401 0.16997205 0.13714781 -0.16131996 -0.2616985 -0.097343355 0.16280434 0.16455749

final.weight f4 [1, 64]
00000000: c1e7 2b3c b5a0 e93d 2a3f 39bd 8dde 9abe
00000010: c6e9 823d b17c 42bd 00eb 99bd eaf5 78be
00000020: 6408 92bd 78a3 bb3c 2e86 14be 132b 09bd
00000030: d356 043d 8f14 2c3d 92c1 15be a5ce 3a3d
00000040: 8912 d4bc 7d12 d63d d651 d2bc 940b 32bd
00000050: 042e 62bd 5aea dc3b 1e63 883d 0b4d 003e
00000060: 8dea 123d 82bd 703d ddaf 0f3e 371d 9cbd
00000070: 9f08 98bd a760 a23d 1c09 2f3d 2caa 353d
00000080: 7da9 f0bd dbc7 54be 88ae 89bd bdfd 3e3c
00000090: fd6f 273e 6da3 50be 5448 41bd 097e aa3d
000000a0: d192 89bd bc00 b3bd d6ca 47be 8131 763e
000000b0: 58e4 913d d72e 3bbd 4132 9fbd 5f37 a93d
000000c0: 1173 9cbe 3e09 af3e ec11 873d e6b2 833d
000000d0: 7227 683e 8e4a f23d 0c6b 3d3d 6269 2c3e
000000e0: a34d ff3c 92dc b63d 4683 113d dbb8 07be
000000f0: f515 01be 07f2 0dbe d26e 353d d2e1 813d
0.010492266 0.114076056 -0.045226254 -0.30247918 0.06392245 -0.047482196 -0.07515526 -0.24312559
-0.07130507 0.022905096 -0.1450431 -0.033488344 0.032309365 0.042011794 -0.14624622 0.045607228
-0.025887745 0.10452745 -0.025673788 -0.043468073 -0.055219665 0.006741804 0.0665953 0.1252939
0.035868216 0.05877448 0.1403193 -0.0762276 -0.07423519 0.07928591 0.042733297 0.04435174
-0.11751077 -0.20779364 -0.06722742 0.011657176 0.16351314 -0.20374842 -0.047188118 0.083248205
-0.06717456 -0.087403744 -0.1951097 0.24042322 0.07123631 -0.045698967 -0.07773257 0.08262514
-0.3055654 0.3418674 0.06595215 0.064306065 0.22671297 0.118306264 0.046244666 0.16837075
0.03116495 0.08928789 0.035525583 -0.1325411 -0.12606032 -0.13861857 0.04429514 0.063419

log_stdev f4 [6]
00000000: 5211 f5bf 03db 13c0 3a0b ccbf 4476 09c0
00000010: b078 dcbf 6a8a d0bf
-1.9145911 -2.3102424 -1.5940926 -2.1478434 -1.7224331 -1.6292241

affine_layers.0.weight f4 [64, 17]
00000000: 08ed 123b 3056 003e a847 06be 791c d6bd
00000010: 4ec4 dd3d 92b2 363e 6f74 fd3d 3d14 ec3e
00000020: fcbc 26be d68f 1abe d94b 97bd 6b87 0b3f
00000030: abf3 013d 5aa3 d23e 4919 6a3e f87a efbe
00000040: 52f0 f9ba 7004 28bd ab8a fdbe bff5 0b3d
00000050: 2b93 8fbe 2b1c a6bd ff2f 81be 1abf 09bf
00000060: 98ef 6d3d 6d18 983c c8d8 3dbd 8063 9a3e
00000070: 5a9a 533e 93e8 6ebe abb9 b93e a82c 8bbd
00000080: e6e3 3cbe c445 edbd 1095 0a3f dae0 843e
00000090: f9bf 00be be45 8ebe 2ec3 44be ffc3 0cbc
000000a0: 7bfe 073e 3026 35bd 51de 053e 4ae3 b33e
000000b0: 185c 0cbf 2e26 8a3d fe6a 2f3d 8d81 9a3e
000000c0: 0356 01bf f317 60bc f5ef 143c cb95 783e
000000d0: b419 26bc 99be c9bb ff84 bfbd f3cd 443e
000000e0: c4a2 05be e061 8cbd b4d2 2d3e 58d3 5f3e
000000f0: 93df 933d 99c8 5e3e 081a 963e 521a 08bd
00000100: f66b 3f3e 4d4b 37bd 5576 d73d 70bd b4be
00000110: b14a 9b3e 4683 fe3e 3ee8 a2be e294 12be
00000120: 71d3 95bd 9f39 9d3e 557c 223e 16f4 423e
00000130: 3ad4 0d3e d4b3 6a3e 6525 893d 5006 003e
00000140: 7ac7 1b3d 9983 6d3d d0f0 803e b0ce 2d3e
00000150: 6e65 b73d 57b1 a13e e97c e83d 21a3 a9bd
00000160: 0fa5 69be 24bc ab3c da15 7e3e 954a 093c
00000170: 686a f33c c9e7 2ebe f409 2bbd 7da0 143f
00000180: 43a5 bebe 6f7d 183e 7f85 29bf b1e3 a5be
00000190: 9d54 d33e 9a44 8bbc 251a 133e c1b8 ddbe
000001a0: ebc2 5e3e 1351 173d 098d 3e3d ba92 6bbe
000001b0: c632 b3bd 3975 b33c aeeb 883e 4575 c8bd
000001c0: 39f8 c7bd cf9f 253e beaf 8fbe 9747 b6be
000001d0: 4c0c 14be 3777 ff3d 4d55 6d3e 91a6 37be
000001e0: 2e12 2abd c135 99be bb09 03be 4e47 4bbe
000001f0: bf0e 043e ec59 693c a330 5dbe 9775 9e3e
00000200: 9c3b a73d 52b2 a93e 455f 893d 45ae 073e
00000210: 099e edbd 721c 8abe bd89 a63d 8c72 ffbd
00000220: 348a 093e f71b 4dbf 6dfa f03d 94b8 8cbd
00000230: 45c9 07be 3f94 ce3d 430e dbbc a375 8fbd
00000240: 18d8 313e 6d20 78be c925 40be d29e a7be
00000250: 974c b7be 6b9e 183c 6131 49ba fd63 a1bd
00000260: 43c4 6cbe 622b 08be 713c 873d cc71 963c
00000270: ff14 b23c 141e 83be b548 cc3e 166a e3bd
00000280: c96e d53d b873 c23c e1d8 9338 605a f23e
00000290: 1844 abbe c840 80be 4126 323e 66ef 0b3e
000002a0: e3b9 03be fd00 76bd 503c 1d3e 1af5 ddbe
000002b0: 27d4 9a3e 40f2 80be 2808 e63d 3bab f63e
000002c0: b682 ef3e 59b6 923b 7a19 67bd b1d6 a63e
000002d0: 732d 9fbe df22 403e 3490 0c3e 72cf d23e
000002e0: 30c5 213e 157b efbd 69f8 b6bd bc1b 743e
000002f0: 63e0 3dbe 602f 1e3e 3391 9c3d b271 ecbc
00000300: 6d77 2ebe ede6 f63e 6ecb cdbd d24e 973e
00000310: 2744 e33d e80d 963e 5afe e4bd fca8 f33d
00000320: 89f5 8e3c 1e22 a83e e978 53be b115 993e
00000330: 8dd9 0fbf 1754 f63e dfda 8d3c 556c 933d
00000340: a076 f73d 7bbf 923e d467 01be 1339 1d3d
00000350: 7704 d83e e4fa 8ebe 7831 c13e 5430 ff3d
00000360: 5b0d 1b3d 957f 8d3e 2803 f33d 3815 f3bd
00000370: 02da 363e 6420 c3be e99d 4dbc 509a ea3e
00000380: 4c39 d6be 2e5a c63d 2858 003f ed4c 82be
00000390: 8dd5 e2be 7030 edbd a64a 113e de60 593e
000003a0: 4c42 8bbd e19d 903e b7e7 4bbd b820 8abe
000003b0: f23e 663e 6632 07be 928e c5be 8652 06bf
000003c0: 571f bb3d 55d1 cabe 0105 54be a0d3 4b3e
000003d0: 64e4 72bd 7cdf 6abd 5ac1 f53d 9931 753e
000003e0: 75f4 87be 2113 91be 3b41 7d3d f96e 063e
000003f0: acbe 843e fafa 733e f053 133e 5848 61be
0.0022419114 0.12532878 -0.13113272 -0.104546495 0.10828458 0.17841557 0.123757236 0.4610919
-0.1628303 -0.15093932 -0.07387514 0.54503506 0.03172652 0.41140252 0.22861208 -0.46773505
-0.0019068813 -0.041019857 -0.49519858 0.03416991 -0.28041968 -0.08110841 -0.2523193 -0.5380722
0.058089823 0.018566335 -0.046349317 0.30154037 0.20664349 -0.23330908 0.36274466 -0.06795627
-0.18446311 -0.11585572 0.541337 0.25952798 -0.12573232 -0.27787584 -0.1921508 -0.008591651
0.1328067 -0.04422587 0.13073088 0.35134345 -0.54828024 0.067455634 0.042826645 0.30176964
-0.5052187 -0.013677585 0.009090413 0.24275891 -0.010137964 -0.006156754 -0.09351539 0.19219188
-0.13050371 -0.06854606 0.16974908 0.21857965 0.07220378 0.2175621 0.29316735 -0.033228226
0.18693528 -0.044749547 0.10520617 -0.3530078 0.30330423 0.4970953 -0.31817812 -0.14314607
-0.0731572 0.30708024 0.15867741 0.19038424 0.1385049 0.22920161 0.066965856 0.12502408
0.038032033 0.05798683 0.25183725 0.16973376 0.08954893 0.31580612 0.1135195 -0.082830675
-0.22816871 0.020963736 0.24813023 0.008379598 0.029713824 -0.17080607 -0.04175754 0.58057386
-0.3723546 0.14891599 -0.66219324 -0.32400277 0.41275492 -0.017000485 0.14365442 -0.4330502
0.21754043 0.036942553 0.04652122 -0.2300519 -0.08749919 0.021906482 0.2674231 -0.097879924
-0.097641416 0.16174243 -0.28063768 -0.35601494 -0.14457816 0.1247391 0.23177071 -0.17934634
-0.041521244 -0.29923823 -0.1279668 -0.1985142 0.1289625 0.01424263 -0.21600585 0.3094909
0.081656665 0.3314386 0.06707624 0.13250072 -0.116024084 -0.26974827 0.0813174 -0.1247302
0.13431627 -0.80120796 0.11766515 -0.06871143 -0.13260372 0.100868694 -0.026740199 -0.07004859
0.1736759 -0.2423112 -0.18764414 -0.32738358 -0.3580062 0.009315114 -0.00076748995 -0.078803994
-0.23121743 -0.13297799 0.06603325 0.01836481 0.021738527 -0.25608885 0.3989922 -0.11104219
0.10421521 0.02373682 7.049903e-05 0.47334576 -0.3345039 -0.25049424 0.17397405 0.13665542
-0.12863879 -0.060059536 0.15355039 -0.4335106 0.30239984 -0.25184822 0.112320244 0.48177513
0.46779412 0.004477304 -0.05642078 0.32585672 -0.31089363 0.18763302 0.13726884 0.41173893
0.15797877 -0.11693398 -0.08934099 0.23838705 -0.18542628 0.1544776 0.07644882 -0.028862808
-0.17037745 0.48223057 -0.10048567 0.29552323 0.110969834 0.29307485 -0.11181326 0.118974656
0.017451065 0.3283853 -0.20651592 0.29899362 -0.5619133 0.4811103 0.01731628 0.07198397
0.12083173 0.28661713 -0.12637264 0.03838451 0.42190906 -0.2792579 0.37733054 0.1246039
0.037854534 0.276364 0.118658364 -0.118692815 0.17856601 -0.3811065 -0.012549856 0.45820856
-0.4184059 0.09685169 0.50134516 -0.25449315 -0.4430355 -0.11581504 0.14188632 0.21228358
-0.067997545 0.28245452 -0.049781527 -0.26978087 0.22484949 -0.13202819 -0.38585335 -0.5246967
0.09136837 -0.39612833 -0.20705034 0.19904947 -0.05929984 -0.057342038 0.119997695 0.23944701
-0.26553693 -0.28334907 0.061829787 0.1312827 0.2592672 0.23826209 0.14387488 -0.22000253

affine_layers.0.bias f4 [64]
00000000: a511 35be ac3d e9bd 9f8c f33b c569 ac3e
00000010: a044 833d b9d5 c13c f272 f93e ac6c 4f3e
00000020: 9531 07be b83c 67bd 8755 edbd da02 513e
00000030: eebc 2abe b3d0 b8bd 658b 41be 7880 c23e
00000040: 392d 123d b0d5 a6be e71c aebd 1ed8 75bd
00000050: 98d0 35be 0498 093e de6b 37be 825b 04bd
00000060: 62a0 2dbd 9220 38be d8bd bf3e ac6f 133e
00000070: 98a1 29bd 3505 b7bd 83ea 9bbc 72d4 833e
00000080: 1364 0c3e 485e cebe c5c1 5a3e 5be1 f93b
00000090: 7c7d 71be f33e b03d d444 16bd ef7c 083e
000000a0: 4622 d33d 8272 99be e7e4 17be 015d b2be
000000b0: cb27 363e 2f4e 1ebe 77f7 5f3e 24f8 343e
000000c0: 33d2 943d d2df 0dbe a153 8fbe 8b67 cabd
000000d0: b6ce 0fbd 9fbc 0bbc 53ff 83bd b33a 81be
000000e0: 4d76 a83e 29f0 5b3e 6abd 463e 88bc 073e
000000f0: a102 c0be b756 91bd 1a3a 0dbf 6060 3a3e
-0.17682512 -0.11388716 0.007432535 0.33674446 0.064095736 0.023661481 0.4872051 0.20256299
-0.13202508 -0.05645439 -0.11588579 0.20411244 -0.16673633 -0.09024181 -0.18900831 0.3798864
0.03568766 -0.32584906 -0.085016064 -0.06002056 -0.17755353 0.13436896 -0.17912242 -0.03231383
-0.04238928 -0.17981175 0.37449527 0.14398068 -0.041413873 -0.0893654 -0.019032722 0.2574802
0.1371005 -0.40306306 0.2136298 0.0076257414 -0.23583025 0.086057566 -0.036686733 0.13328908
0.103092715 -0.29970175 -0.14833413 -0.3483658 0.17788617 -0.15459512 0.21871744 0.17672783
0.07266655 -0.13854912 -0.2799349 -0.098830305 -0.035109244 -0.0085288575 -0.064451836 -0.25240096
0.32902756 0.21478333 0.19408193 0.13255513 -0.37502006 -0.07096618 -0.5516678 0.18200827

affine_layers.1.weight f4 [64, 64]
00000000: c842 a5bd 4e16 a53e 915d 3abd 8290 633d
00000010: b7ac 9c3d bc2f c23e e900 c53e f335 d33d
00000020: bdb0 543e 9cd4 9fbd 3a78 13be fe5c b2bb
00000030: 3a29 d7bc d52a 8b3d 6451 41be 6afd 923e
00000040: 2e34 6f3e 7879 efbd ba03 65be 1d2e 4c3d
00000050: ef36 de3d 8a4d ba3e 7576 7ebe 90e3 9abd
00000060: d51b 0ebe 57de 893e 25bd ba3c d9d0 e13e
00000070: b3b4 c13d 7348 f6bd c6cd c0bd 6c30 ef3e
00000080: 700f 6cbd c6e4 00be aaea 173e bec7 98be
00000090: b6b6 923d 2f80 85bd 771c 573e a45b 14be
000000a0: 3be1 983b cacf 8c3d c2b3 063d 4599 87be
000000b0: 08da 28be eb9b 8a3e 58fd 1b3e a7e7 253e
000000c0: 2dce d13d 68ba 883e 6d1a 17be 7c74 143f
000000d0: db21 91be acae 0b3e 9fce febd 7c7b 0ebe
000000e0: c85e c03b f90e 1a3e bff7 ef3e 5d9a 7ebe
000000f0: 94dd 54bd 6665 523e c641 513d 9311 143f
00000100: 7c93 58be 6eb6 27be 9c96 b93d eaf1 89be
00000110: 7c60 343e f494 0cbc 5e14 64bd 4540 22be
00000120: e9f6 c03d 56d1 3b3d a0c1 e03c d1fb b6be
00000130: 4527 f03d dc31 bb3e 480e f23e 5caf bb3e
00000140: 1623 1a3c e635 80be 782c 673d 8022 503e
00000150: 9544 1ebd 75d4 8e3e a528 95be 142a 8abe
00000160: 715f 95bc 36fb 13be 24df 4f3d 8c69 d6be
00000170: 1dd4 483d 9ef4 fbbc f89b 1e3b f8c9 8f3c
00000180: e548 803d d33d 813e 77ed cc3e 51e1 3e3e
00000190: 1015 cb3e 4829 4b3e ee63 373e 3194 1dbe
000001a0: c6a4 00bf 5663 29be 93a4 9bbd 5b0f cc3e
000001b0: f7e1 5b3e 67c0 7dbe 8dfd ca3b 18a1 68be
000001c0: c386 0e3d af97 b5bd 2991 01be 2b01 61be
000001d0: 0cba 28be f374 5a3d 62dd 4fbd 335c ac3e
000001e0: 0ae9 08be 567d 99be 94c0 1abe 085e cebe
000001f0: 8e95 cf3d d1a8 8ebd 5996 1bbe dd56 9e3e
00000200: 7f07 423e 4e78 393d 4cec 00bd 934c 9ebc
00000210: 15d1 97be 34ee 04be 13d2 5a3d 2a85 37be
00000220: bf0c ad3e 0e4a 2d3d cb4a 953e 9c2e a8bd
00000230: d854 373e 1a2c 8abc 37c0 cf3e 59b6 b13d
00000240: e0b6 e03d 59e1 e13e 0ae5 fa3d 8cf1 973e
00000250: d00f ac3d a095 ecbe 05db f93d 8d8d 20be
00000260: 48cc 78be 9c4f b63c fc3c 483e 90a9 32be
00000270: 408f 32be a5c2 753d 0891 43bd 4ed2 89be
00000280: a45f c83e 5a24 a43e 9842 9fbe 7cb2 8b3d
00000290: d9ce 713e 08d6 c5be d8db a4bd d3f4 73be
000002a0: c98a f33b c87d 08bf 615b bdbd 990a 2bbe
000002b0: 7468 6d3d 3f8a 6a3d dfda ba3e 86fa fdbe
000002c0: f32c a33c 95d1 a73e 6e38 97bc 84c7 b5be
000002d0: 7f35 2bbe db88 323d fd67 49be 1f5f 38be
000002e0: f204 afbe e423 5e3e 1712 e93d 730c 29be
000002f0: 5501 5e3c 9a5c f93d 3def e03c 0f08 bdbd
00000300: b6ed 26bb 8ce5 73bd 6e1a 0cbe 045b 78bd
00000310: c365 3cbd abed a23d 2f40 cc3d 926c e13d
00000320: af26 bf3e 7a63 283e f656 aabe e3b7 74bd
00000330: ceb5 6bbe abd9 a1bd 398a 72bc 09d0 83bd
00000340: ab7b 0d3d 402e f4bc 020d 1bbe daa4 65bd
00000350: 521d c93d 41d2 913e d6a2 eb3a ab42 e1bd
00000360: 31c2 713e 9511 633c 2f4b 92be 42df 3c3e
00000370: 0163 2dbe bd36 f4bc f124 0ebf cd3a 1fbe
00000380: 4189 25be ae18 243e cba7 65bd 1e7a ee3d
00000390: 6faf 56bf ebbd 173c 5728 bdbe 119e 11be
000003a0: 1c83 e03d 30ff 653c 7f46 e93d cafe a33d
000003b0: 8ba0 10bd db86 dc3d b36e 213e 9022 9dbc
000003c0: f1d6 85be 93f2 283e 7b79 9ebc 1bdb 16be
000003d0: f264 e5bd 2746 48be 3b62 503e 8139 0abd
000003e0: de35 01be 7570 3d3e 4a31 8cbc 0953 c0be
000003f0: 2dbb 9ebe 0a73 803e f106 55be 6665 963e
-0.08069378 0.3224358 -0.045499388 0.055557735 0.0765013 0.37927043 0.38477257 0.10313024
0.20770545 -0.07804224 -0.14401332 -0.0054432144 -0.026264776 0.06795279 -0.18878704 0.28708965
0.23359749 -0.1169309 -0.22364703 0.049848665 0.108503215 0.36387283 -0.24849875 -0.07562935
-0.13877805 0.26927444 0.02279527 0.4410465 0.09458294 -0.12025537 -0.09414248 0.4671663
-0.05763191 -0.1258727 0.14835611 -0.2983989 0.071637556 -0.0651859 0.21006952 -0.14488083
0.0046655214 0.0687557 0.032886274 -0.26484123 -0.16489422 0.2707208 0.15233362 0.1620165
0.10244403 0.26704717 -0.14756174 0.5799024 -0.28346142 0.13640851 -0.124417536 -0.13914293
0.005870674 0.15044774 0.46868703 -0.24863572 -0.051969126 0.20546493 0.051088117 0.57839316
-0.21150011 -0.16378185 0.090619296 -0.26942378 0.17614931 -0.008580435 -0.055683486 -0.1584483
0.094220944 0.045853935 0.027436078 -0.35738996 0.1172624 0.36561477 0.4727652 0.36657226
0.009407779 -0.2504112 0.056438893 0.2032566 -0.038639624 0.27896467 -0.29132572 -0.26985228
-0.018233987 -0.14451298 0.050749913 -0.418774 0.049030412 -0.030756291 0.0024201851 0.01755236
0.062639035 0.2524248 0.4002492 0.18640639 0.39664507 0.19839966 0.17909214 -0.15388562
-0.50251424 -0.165418 -0.075997494 0.39855465 0.21472917 -0.24780427 0.0061947764 -0.22717702
0.034796488 -0.08866822 -0.1265303 -0.21973102 -0.16477221 0.053334188 -0.050748236 0.33664092
-0.13370147 -0.29978436 -0.15112525 -0.40306115 0.10135947 -0.06965793 -0.15194072 0.30925646
0.18948172 0.045280747 -0.03147535 -0.019323623 -0.29651704 -0.12981492 0.053423 -0.17921892
0.33798787 0.042306952 0.29158625 -0.08212015 0.17903459 -0.016866732 0.40576336 0.08677358
0.10972381 0.4411724 0.12250717 0.29676473 0.084014535 -0.46207905 0.12199978 -0.15678997
-0.24296677 0.022254758 0.19554514 -0.17447495 -0.17437458 0.06000008 -0.047745734 -0.26918262
0.39135468 0.32058984 -0.31105494 0.068211526 0.23614062 -0.38639855 -0.08049744 -0.23823862
0.007432316 -0.53316927 -0.09245945 -0.16703261 0.057960942 0.057260748 0.3649511 -0.49605197
0.019918894 0.32777086 -0.018459525 -0.3550378 -0.16719626 0.043587547 -0.19668575 -0.18005036
-0.3418346 0.21693379 0.113804035 -0.16508655 0.013550122 0.121758655 0.027457828 -0.09230053
-0.0025471277 -0.059545085 -0.13681957 -0.060633674 -0.045995485 0.07955488 0.099731795 0.11007036
0.373342 0.16444197 -0.3326947 -0.05974568 -0.23018572 -0.07902845 -0.014803463 -0.06436164
0.034541767 -0.02980721 -0.15141681 -0.056065418 0.098200455 0.28480724 0.0017977606 -0.10999044
0.23609234 0.013859172 -0.28572986 0.18444541 -0.16932298 -0.029811257 -0.5552512 -0.15549774
-0.1616564 0.1602504 -0.056068223 0.11644386 -0.8386144 0.009261589 -0.3694484 -0.14220454
0.10962507 0.014037892 0.11390399 0.080075815 -0.035309356 0.10767909 0.15764885 -0.01918152
-0.2614055 0.16498785 -0.019345036 -0.1473202 -0.112008944 -0.19558011 0.20349972 -0.033746246
-0.12618205 0.1849993 -0.017113347 -0.3756335 -0.3100218 0.25087768 -0.20803429 0.29374236

affine_layers.1.bias f4 [64]
00000000: 7b99 143e ada1 04bd 7e1d 57be a54d 40bd
00000010: f94f e8bd 982f 143e 2cb1 afbd ea02 863d
00000020: 6421 25be 4bb6 23be 761f 153e f5a4 803d
00000030: 1d3b 8b3d 3c4c 63be 7405 e93c b58b a4bd
00000040: acfa 713e 730c 7e3e d419 b13d b1d9 29bd
00000050: 6af7 643e b84a ee3d 8126 123e b448 92bd
00000060: 2421 183e 789e 003e a60c 3bbe 26fc f8bd
00000070: 984e 223e a055 8bbe abc2 c53e 7bdd 63be
00000080: 3c3b 89be c00a d6bd 32c3 703e 0669 aabe
00000090: a954 333d 80de 6ebe 1563 a43d f549 9b3d
000000a0: 403f 743e 432b f9bd 5fb3 3b3e be1e 4fbe
000000b0: 91f4 543e d2d9 f9bd 5f1c d73c 0f58 373d
000000c0: f0d8 58be 8894 9c3d 2d9c 383e 3730 333d
000000d0: 311f 38be dc9d 86bd bd26 b3bd 3628 f43d
000000e0: c68e 023e c4ff 46be 87c1 f2be be72 313e
000000f0: 3fd0 b93d 7e4f 4e3b 289b 7c3c 852e 6dbe
0.14511673 -0.03238075 -0.21007344 -0.046949048 -0.113433786 0.1447128 -0.08578715 0.065435246
-0.16126019 -0.15987508 0.14562783 0.06281463 0.06798384 -0.2219705 0.028444983 -0.080344595
0.2363078 0.24809437 0.086475044 -0.041467372 0.22360006 0.11635345 0.142725 -0.07142773
0.14856392 0.12560451 -0.18266544 -0.121574685 0.15850294 -0.27213764 0.38625082 -0.22252457
-0.26803005 -0.10451269 0.23511961 -0.33283252 0.04378191 -0.23327065 0.08026711 0.075824656
0.23852253 -0.12166455 0.18330143 -0.20226571 0.2079642 -0.12199749 0.026258646 0.044761714
-0.21176505 0.076455176 0.18028326 0.043747153 -0.17980649 -0.06573078 -0.08747623 0.11921732
0.12749776 -0.19433504 -0.47413275 0.17328927 0.09072923 0.0031480487 0.0154178515 -0.23162277

final_mean.weight f4 [6, 64]
00000000: b74e 8fbc 6195 b6bc 9b80 2a3e 52e7 433d
00000010: 6db3 223d 907f 6c3c 097f cabd 3661 d43c
00000020: 91e6 46bd f76d 8e3d 757a dfbd 870c cd3d
00000030: bf61 11be 45fb 20bd e9a2 fd3c 1724 073d
00000040: b01d d33d a6cd c53c f159 a1bd 61d3 b1bb
00000050: de15 2b3d 79e6 26be 10c9 1a3d 50b9 293d
00000060: d7cd a4bd 32f6 55be 6fd9 9c3d b30a e83d
00000070: 437c d7bd 62da 023d f99e 1d3d 3ba9 033c
00000080: 6f9f f93d b41d 8e3d 411a 57bd b4b0 20bc
00000090: 9545 0fbe 0cd8 f03d e21a efbc 49cb a73c
000000a0: cb52 80bc d380 333e 163e 2ebd 54d8 06be
000000b0: 9dc6 c03d 11d9 35bd ac95 973d 2adb 12be
000000c0: 28aa 7d3d 77ec bbbd 6e00 b7bc ecfc dbbd
000000d0: b9fd 0cbe 68c9 e33c bf39 ac3c de7e adbd
000000e0: 1588 be3d 8e42 8f3d c275 09be f46d 5f3d
000000f0: ca7f aa3d 31da 01be 2929 4e3c 3d49 23be
00000100: b9bd c9bd addb ec3d 1e8e bd3d 1f8e 4abd
00000110: c414 7ebd 8058 023d e449 073d 8ef0 083c
00000120: 51a6 b2bd 790d 2c3d 32f5 b33c 41c1 8c3d
00000130: 92ef 703d bac3 ec3d 1c57 91bd d657 473e
00000140: 4c36 42be a711 193c 2802 81bb 791a 92bd
00000150: 961e 84bd 1e20 003e edde 913d 9761 0cbd
00000160: d152 76bd 2085 1c3d f66b c13c 0f9c b23c
00000170: 69dc b73d 13ab 6e3d bbd0 07be 3ffd 3c3d
00000180: 1699 133d 43bc cdbd c773 9cbd 83d1 95be
00000190: 36a2 92bd b39c 03be b02d 14bc 8c40 04bd
000001a0: 6ca9 cd3c d85e 6e39 89bf d8bd b303 7e3d
000001b0: 55b4 003e 9e8c 4b3d 11e4 55bc d045 913d
000001c0: 9cec 103e 8e11 f43d 87c4 f33c c8a7 a0bd
000001d0: b81e b43d 0e38 16bd 1a94 2b3d 0a24 803c
000001e0: b1be 103d 10f1 6cbd e95f 5cbe a711 64bd
000001f0: 449f 8c3d 14fc 833d d750 c83d 36e1 6e3d
00000200: a592 473d f22b e5bd 7f07 c13a 6d05 9f3d
00000210: 4f50 e9bd 85a9 91bd a377 6abd 6483 78bd
00000220: 395c bfbc 0c29 93bd b62d b5bc d79c 86bd
00000230: 0d9b f2bc 28cf 2dbd 3842 6a3c cf96 94bd
00000240: 902f 383e cb58 ca3d 3db1 383c ee92 f73d
00000250: 7db5 08bd 477e f7bd 293c bfbd 9350 3e3e
00000260: 33eb d8bd 2de8 d1bd 762a 993d 900a 9b3c
00000270: 0a9b c9bd 3237 233e b0ee 54bd c55e 1cbe
00000280: 4b94 223d 7e51 243e b48d c3bd 9e7e 283e
00000290: 139c f8bd edf5 173e 26f4 8ebd b40f 9cbb
000002a0: c178 3ebe ea49 e23b d22e c83c 1a0e 98bd
000002b0: 8e91 01be 885c 56be 97ff a83d f7b7 e6bd
000002c0: 115e 03be 445e c93c f4e9 bcbc 7cca b23d
000002d0: afe2 f9bb 573a ad3b 8586 c53d c894 53bd
000002e0: 4440 d83d 380c 4b3e 64f6 b93a 81e7 79bc
000002f0: 26af f8bd e37e a1bc adca f3bd fecd 96bc
00000300: fdbd 20be 6d95 13be 3699 5dbd e178 13bd
00000310: ccc4 7dbd 4aa5 9cbc f4fe 203d d50b 7b3c
00000320: 5479 853d 5a0e a5bd 19a0 69bd de45 73be
00000330: e529 93be 7eaa 98bb 9116 363d 2baa a3bd
00000340: 6364 453e 1bf2 4ebe 496c e63b 3289 0dbe
00000350: 09c8 943e c2ad e3bd 0320 003d 8948 51bc
00000360: 2430 833d e058 74be 7dfc 84bd bd62 a0bd
00000370: 9e82 8c3d 3723 4b3e 18e7 5a3e 4d4b 34be
00000380: c880 433e 08a4 163b 1fa8 fa3c b9a4 75bd
00000390: 3553 c93c 1cf7 7c3e b9a8 d0bc 44cf 093e
000003a0: e060 6e3b 3e4d cd3b ce13 2e3b 3652 2bbe
000003b0: 4c3d 773d 6e49 d4bd 1407 bc3c 10e3 d7bc
000003c0: e37b a33d b402 c43c 3ab2 6cbd 44e4 f63c
000003d0: c1fb 9bbc 3224 4b3e e6e5 50bc 92ad 313d
000003e0: ea34 6e3a f36e 80bc 6b5f 553e 81e8 523e
000003f0: 1c27 f6bd dffb 0dbd a5cb f93c acfc c2bd
-0.017493589 -0.022288026 0.16650622 0.047828026 0.039721895 0.01443471 -0.09887511 0.02592526
-0.04855973 0.06954568 -0.10912029 0.10012155 -0.14197443 -0.03930213 0.03096147 0.032993402
0.10308397 0.024145912 -0.07878483 -0.0054268097 0.0417689 -0.16298856 0.037789404 0.041436493
-0.08047073 -0.20894697 0.0765866 0.11330166 -0.10521748 0.031946547 0.038481686 0.008035953
0.12188613 0.06939259 -0.052515272 -0.009807754 -0.13991387 0.11759958 -0.029187623 0.020482676
-0.015664479 0.17529611 -0.04253968 -0.1316846 0.094128825 -0.044396464 0.074015945 -0.14341417
0.06192985 -0.091759615 -0.022339072 -0.107416004 -0.13768663 0.027805999 0.02102363 -0.084714636
0.09303299 0.06995116 -0.13423827 0.05454822 0.08325155 -0.1268089 0.0125830555 -0.15945907
-0.0985064 0.11565337 0.09255622 -0.049451943 -0.062031522 0.03182268 0.033029452 0.008358134
-0.087231286 0.042005036 0.021967504 0.06872798 0.058822222 0.115607694 -0.07096693 0.194671
-0.18966025 0.009342588 -0.0039370246 -0.071339555 -0.06451146 0.12512252 0.07122598 -0.034272756
-0.060137574 0.038212895 0.02361105 0.02180293 0.08977587 0.058268618 -0.13263218 0.04613995
0.036034666 -0.10045674 -0.0763927 -0.29261407 -0.071598455 -0.12852745 -0.009044096 -0.03228812
0.0251052 0.00022732781 -0.105834074 0.062015247 0.12568791 0.04969465 -0.013054864 0.07093394
0.1415276 0.11917411 0.029756797 -0.07844502 0.08794922 -0.03667455 0.041889288 0.015642185
0.035338107 -0.057847083 -0.21520962 -0.055680897 0.06866315 0.064445645 0.09781044 0.058320247
0.048723835 -0.111900225 0.0014726965 0.07764707 -0.11392271 -0.071124114 -0.057243 -0.06067218
-0.023359405 -0.071855634 -0.022116523 -0.065728836 -0.02961495 -0.042433888 0.014298014 -0.07255327
0.17986894 0.09880217 0.011272726 0.120885715 -0.033376206 -0.12084632 -0.093376465 0.18585424
-0.10591736 -0.10249362 0.07478802 0.018925935 -0.098440245 0.15939024 -0.051985443 -0.15270527
0.039692204 0.16046712 -0.09548512 0.1645455 -0.12139144 0.14839907 -0.06980161 -0.004762614
-0.18600751 0.006905784 0.024436388 -0.07424565 -0.12653181 -0.20933735 0.08251875 -0.11265557
-0.12828852 0.024581082 -0.023060776 0.08730027 -0.0076258997 0.0052864957 0.09644798 -0.05165556
0.10559133 0.1982888 0.001418781 -0.015252949 -0.12142782 -0.019713825 -0.11903892 -0.018408772
-0.15697475 -0.1441247 -0.05410119 -0.03600395 -0.06195526 -0.019121785 0.039305642 0.015322645
0.06517282 -0.08059378 -0.057037447 -0.23757121 -0.287429 -0.004658996 0.044455115 -0.07991441
0.19276576 -0.20209543 0.0070319516 -0.13821867 0.29058865 -0.11117126 0.03128053 -0.012773641
0.064056665 -0.23862028 -0.06493471 -0.07831333 0.06860851 0.19837652 0.21377218 -0.1760685
0.19092095 0.0022985954 0.030597745 -0.059971545 0.024575809 0.2470364 -0.025471078 0.13457972
0.003637366 0.0062653115 0.0026562097 -0.1673058 0.06036119 -0.10365568 0.022952594 -0.026353389
0.07982614 0.02392707 -0.057787158 0.030138142 -0.019040944 0.19838026 -0.012750125 0.04337842
0.00090868643 -0.015677905 0.2083718 0.20596506 -0.12019178 -0.03466403 0.030492613 -0.095208496

final_mean.bias f4 [6]
00000000: 658f 283d 8da2 3abd 7682 3bbd 97de e93d
00000010: a47e 83bc 5e7a dcbd
0.041152377 -0.045565177 -0.045778714 0.11419409 -0.016051598 -0.10765527

exp_avg f4 [64, 17]
00000000: 06eb 7e39 deb4 3038 d9fc b539 e45f 92b9
00000010: f2e1 8d39 7c47 093a 519a 67b9 89ce 40ba
00000020: 42e8 ecb9 5091 e139 353f 49ba 01bd 0236
00000030: 5232 183a 46e7 61b9 011a 80b9 6b19 5d3a
00000040: 67b0 b038 3713 a2b8 23b9 5d37 f2dc f0b8
00000050: 2a50 b339 60e7 dfb8 85ba 4237 066c c638
00000060: 4d9e b2b9 ae18 6eb8 5a55 99b8 1a63 4ab9
00000070: f20e 11ba 1639 d739 a7cc e9b9 35dd 70b9
00000080: d482 073a c1b9 9e39 b2d3 d5b9 0670 abb9
00000090: de1e b7b9 bb6a b63a 6982 17ba 6f03 81ba
000000a0: 76fa ce38 fba0 3439 6c79 b639 02b0 34ba
000000b0: 62c4 8439 0941 05b9 c01a ce36 ec0c a5b7
000000c0: b1c9 62b9 efa4 37b9 0955 1a39 d9e9 ac39
000000d0: fa72 afb8 65e0 2bba 0a2a 87ba 4139 39b9
000000e0: e8c5 fbb9 79d6 dd39 586b 003b 890f 8b3a
000000f0: cf4b 6139 55b1 ec39 3418 ac3a 17d8 e7ba
00000100: d9ec b73a ba8b 8639 e9df e0ba 94f1 bfb9
00000110: 8194 f738 e171 6ab8 c1db 5b38 332b e238
00000120: fbb0 03b9 aef3 e039 277f 9638 5721 81b9
00000130: 2816 0bba 6f0a 2939 1f0b fbb9 d333 08ba
00000140: 9666 193a aa6c feb9 87f4 bbb9 30f4 053a
00000150: 506f 8d39 2069 2c3a 15c5 c738 dd82 8839
00000160: 2060 29ba f6f4 1439 f045 2a3a beba 0ab9
00000170: a2e6 bdb9 42ca 46ba 7459 9139 587d 30ba
00000180: 0930 9eb9 4997 be39 5f60 e9b9 62cd b9b9
00000190: e7f7 033a d786 ae38 9772 c839 385f 0539
000001a0: 38c5 9536 ab2e 1dba 0b34 a4b7 060a d239
000001b0: b41c 12b7 bfef 3738 e7d7 f5b9 db01 a239
000001c0: 2eb5 f9b9 c639 1639 f108 64b9 d93c 38b8
000001d0: 9870 0fb9 c742 5c38 7222 1f38 f4c9 dbb9
000001e0: 1834 97b9 e9a1 c739 d248 923a e124 bdb9
000001f0: 8940 efb7 f524 7d39 effe 59ba 1ab6 5cba
00000200: 40e7 fc37 e3a2 16ba b9cb 10ba 0fec 173a
00000210: ad47 3fba ee01 bab9 04b1 843a 94ef 1a3a
00000220: e601 2439 d457 b138 ccd9 0db9 0e69 8ab9
00000230: 859c 6036 02eb ba39 5eb3 c538 f370 e8b8
00000240: ff08 eab8 e81c 8339 6115 a2b9 5686 7eb9
00000250: 8571 5539 465e 7eb9 7c43 9eb8 5ee0 ad39
00000260: 29e5 2a39 1d6c 5639 050a 6638 adeb 1db9
00000270: e277 a6ba ab70 8139 9daf 9739 ad68 9238
00000280: 658d 7a3a 2a2a 033a 23b9 2c39 3ade adb8
00000290: 0a90 3b3a a24e 3bba 6026 483a c40e 053a
000002a0: c5c6 8eba 2737 85b9 c9da 7eb9 84e5 beb8
000002b0: 0803 3bb9 4514 0b3a 82dd 6bb9 fc4a 78b9
000002c0: f222 e838 dd0f 33b8 d192 40b8 8203 b4b9
000002d0: 1e71 14b9 feec 14b8 1218 3039 2a0e 12b9
000002e0: 8724 78b7 85ea 1238 d275 5137 9b4c 0a3a
000002f0: a98c e438 1150 1bb9 8f0f d1b9 af59 bcb7
00000300: d5c2 2539 594e bab8 b330 0238 a359 70b9
00000310: d966 bfb8 b95d 3cb8 6930 d5b9 c352 7039
00000320: a2d2 84b9 f967 b2b9 bea0 f138 54b4 5639
00000330: 4732 2e39 4391 0239 8b14 48b9 4bcf 80ba
00000340: e6d7 9a39 bfcb fab8 6c20 17b9 330b 433a
00000350: ceaa 373a 230c aab8 c49a 013a 3a3a 403a
00000360: 4ae9 54ba 9c1b 593a 5de8 f539 a152 8bba
00000370: 5940 0fba 6e77 ef39 c268 dc38 0975 a439
00000380: 3ca2 06ba ec48 3439 65a5 6b3a 1ed9 f3b8
00000390: 7e8a bcb9 b53b 12ba de10 a139 2699 30ba
000003a0: 8d02 01ba bd5f 343a 161a 2cba e4d8 adb9
000003b0: 297e 2b3a 3a6c 6b39 d37f f138 b2ae 43b9
000003c0: ba9a 6fb9 e29f 91b9 0997 ddb8 6aa8 c2b9
000003d0: 6bbd 0c39 a8b2 843a 6909 713a 1641 8639
000003e0: d579 8039 8e5e 6e3a af2e a2ba 9212 4d3a
000003f0: f675 aa38 a47c 52ba 1e49 6fb9 602b 143a
0.0002431088 4.2130116e-05 0.00034711396 -0.00027918734 0.00027061958 0.0005236787 -0.00022087364 -0.0007354995
-0.00045186473 0.0004302361 -0.000767696 1.9481524e-06 0.0005805838 -0.00021543828 -0.00024433437 0.00084342685
8.4251915e-05 -7.728341e-05 1.3215732e-05 -0.00011485246 0.00034201267 -0.000106765656 1.1606729e-05 9.461497e-05
-0.0003406875 -5.6766607e-05 -7.3115065e-05 -0.0001930114 -0.0005533538 0.00041050528 -0.000445937 -0.0002297059
0.0005169336 0.00030274506 -0.0004078425 -0.00032699126 -0.00034927478 0.0013917306 -0.00057796255 -0.0009842942
9.8694974e-05 0.00017226108 0.00034804211 -0.0006892682 0.0002532332 -0.00012708096 6.1423925e-06 -1.967555e-05
-0.00021628175 -0.00017513683 0.00014718263 0.00032980627 -8.366066e-05 -0.000655657 -0.0010312211 -0.00017664304
-0.00048021902 0.000423122 0.0019595232 0.0010609488 0.00021485913 0.0004514555 0.0013129772 -0.0017688301
0.0014032378 0.00025662576 -0.0017156574 -0.0003661035 0.00011805539 -5.5896006e-05 5.241833e-05 0.00010784566
-0.00012559064 0.00042906165 7.176241e-05 -0.00024629637 -0.0005305731 0.00016120983 -0.00047882737 -0.00051957107
0.00058517733 -0.00048527616 -0.00035849607 0.0005109934 0.0002697655 0.0006576944 9.525769e-05 0.00026037442
-0.0006461162 0.00014205635 0.0006495407 -0.00013230272 -0.00036220724 -0.00075832393 0.00027723203 -0.0006732545
-0.00030171897 0.0003635234 -0.00044513025 -0.00035438972 0.0005034194 8.3220824e-05 0.0003823235 0.0001271934
4.4635053e-06 -0.0005996029 -1.9574558e-05 0.0004006179 -8.708961e-06 4.385388e-05 -0.000468909 0.0003090043
-0.0004762797 0.00014326637 -0.00021747105 -4.3925687e-05 -0.00013679487 5.251428e-05 3.7940634e-05 -0.00041921402
-0.00028839777 0.0003807687 0.0011160618 -0.00036076366 -2.8521072e-05 0.00024141728 -0.0008315881 -0.0008419469
3.0148425e-05 -0.0005746318 -0.0005523521 0.00057953683 -0.00072967523 -0.00035478122 0.0010123556 0.0005910334
0.00015640966 8.456377e-05 -0.00013527944 -0.00026399683 3.3469707e-06 0.0003565178 9.427102e-05 -0.000110836605
-0.00011159665 0.00025007804 -0.00030914976 -0.00024273372 0.00020355552 -0.00024258447 -7.546597e-05 0.00033164298
0.00016297832 0.00020448906 5.4845605e-05 -0.00015060483 -0.0012700523 0.00024688742 0.00028931806 6.98132e-05
0.00095578126 0.00050035364 0.00016472167 -8.290676e-05 0.00071549474 -0.0007145201 0.0007635113 0.00050757476
-0.0010892978 -0.00025408829 -0.00024304831 -9.1026566e-05 -0.00017834839 0.00053054496 -0.00022493865 -0.00023679057
0.00011069131 -4.26917e-05 -4.59131e-05 -0.0003433489 -0.0001415652 -3.5506666e-05 0.00016793635 -0.00013928922
-1.4790457e-05 3.5027526e-05 1.2484803e-05 0.00052756973 0.00010898087 -0.00014811779 -0.00039875178 -2.2453109e-05
0.00015808207 -8.8837645e-05 3.103977e-05 -0.00022921576 -9.1267466e-05 -4.490998e-05 -0.00040662594 0.00022919015
-0.00025333936 -0.0003402827 0.00011521716 0.00020475808 0.00016612663 0.0001245188 -0.00019081139 -0.0009827403
0.00029534026 -0.000119588796 -0.0001441256 0.00074403285 0.0007006348 -8.108492e-05 0.00049440213 0.0007332895
-0.0008121921 0.0008282007 0.00046903166 -0.0010629484 -0.00054646056 0.00045674614 0.0001050993 0.00031367716
-0.0005135869 0.00017193303 0.0008989184 -0.00011627584 -0.0003596134 -0.0005578355 0.0003072088 -0.0006736688
-0.00049213396 0.0006880721 -0.00065651664 -0.00033158727 0.00065419317 0.00022451664 0.000115155846 -0.00018661728
-0.00022850456 -0.00027775677 -0.00010566234 -0.00037128042 0.00013422004 0.0010124044 0.00091948226 0.00025606964
0.00024504834 0.0009093069 -0.0012373532 0.00078228966 8.1282036e-05 -0.0008029437 -0.00022820054 0.00056522153
