src/collect_models/vanilla/vanilla_hopper_best.model (torch, 136398 bytes, 36 tensors)

affine_layers.0.weight f4 [64, 11]
0	0x3e3ec0e1	0.18628265
1	0xbe0f89f5	-0.1401747
2	0xbf2be2f7	-0.67143196
3	0xbe2e4318	-0.17017782
4	0xbe1e46f0	-0.15456748
5	0x3f31c2f7	0.6943812
6	0xbed9cf0e	-0.42540783
7	0xbbaab7ad	-0.005209884
8	0xbe591706	-0.21200189
9	0xbea88cb3	-0.32919845
10	0xbc8c00a1	-0.017090144
11	0x3ed82f39	0.42223528
12	0x3d0ce98f	0.034402426
13	0xbe6f399b	-0.23361818
14	0xbecc4cae	-0.39902252
15	0xbe8a41a7	-0.27003214
16	0xbda8b4c5	-0.08237604
17	0x3dd4d3ef	0.103919856
18	0xbd5d2682	-0.053991802
19	0x3dd67dd8	0.104732215
20	0x3d41843a	0.04724524
21	0x3e2ee7f4	0.1708067
22	0x3eabdd30	0.3356719
23	0x3d95a377	0.07306569
24	0xbe4e5cf8	-0.20152652
25	0xbd5bf4e4	-0.053700343
26	0xbd82f466	-0.063942716
27	0x3d366671	0.04453129
28	0x3dbc69e5	0.09199885
29	0x3d962d62	0.07332875
30	0xbe23d44f	-0.15998958
31	0xbdbb06ab	-0.09132131
32	0xbe3803d9	-0.17970218
33	0xbeda38a4	-0.42621338
34	0x3d3b6dd9	0.045759056
35	0x3f00d775	0.5032876
36	0x3d3a44c6	0.045475744
37	0x3ea664dd	0.32498828
38	0x3cb894a4	0.022531815
39	0x3c82421a	0.01590066
40	0xbd809b76	-0.06279652
41	0x3e115d3d	0.14195724
42	0x3df792f8	0.12088579
43	0xbdb029be	-0.08601712
44	0xbe912c4c	-0.28354108
45	0x3df69934	0.1204094
46	0x3e316cfd	0.17326732
47	0x3e806b29	0.25081757
48	0x3f226901	0.63441473
49	0xbb8be451	-0.004269161
50	0x3d5aaecc	0.053389356
51	0xbca06d56	-0.019583385
52	0x3b21b22b	0.0024672847
53	0xbdfd3086	-0.12362771
54	0xbd37f961	-0.04491556
55	0x3b7d2c59	0.003863117
56	0x3e78e706	0.24306878
57	0x3ea3915c	0.31946838
58	0xbe07593c	-0.13217634
59	0x3e2e2045	0.17004497
60	0xbe904423	-0.28176984
61	0x3d221086	0.03956654
62	0x3da77b0f	0.081777684
63	0xbd519692	-0.051168986
64	0xbcc63eca	-0.024199862
65	0xbd1bb5ce	-0.03801518
66	0xbd42a72a	-0.0475227
67	0x3dced83d	0.10099838
68	0x3ce5eb9d	0.02806645
69	0x3da092f5	0.0784053
70	0x3cdda5d6	0.027056616
71	0x3d3e4b7a	0.0464587
72	0xbc477bc1	-0.012175501
73	0x3d37c2b2	0.04486341
74	0x3e1a6b52	0.15080002
75	0x3e10d2d6	0.14142928
76	0x3dcfddd6	0.10149734
77	0xbf02e6d3	-0.5113346
78	0x3e9263b2	0.28591686
79	0xbdf57719	-0.11985607
80	0xbe367a30	-0.17820048
81	0xbece371c	-0.4027642
82	0x3ebf3319	0.37343672
83	0xbe5adeb5	-0.21374018
84	0xbd0d4a46	-0.03449466
85	0x3c3c6f4f	0.011501147
86	0x3dbf44ea	0.09339316
87	0xbdb3ef61	-0.08785892
88	0xbd10bc7b	-0.035336
89	0x3dad0905	0.08448986
90	0xbd20dfc9	-0.03927592
91	0xbea54afc	-0.3228377
92	0xbcdadcb6	-0.026716571
93	0x3f027fe5	0.509764
94	0xbeaac7e5	-0.33355632
95	0x3e23bee6	0.1599079
96	0xbe8ed440	-0.2789631
97	0xbe9e9d67	-0.30979463
98	0xbd622605	-0.05521204
99	0xbeb984b3	-0.36234054
100	0x3dc6d2ca	0.097081736
101	0xbe7f54c5	-0.24934681
102	0xbef87c74	-0.4853245
103	0xbe79359a	-0.24336854
104	0x3e939fc9	0.28832844
105	0x3e133664	0.14376217
106	0x3dfe7c5a	0.12426062
107	0xbe36f055	-0.17865117
108	0xbeaad58f	-0.33366057
109	0x3e4f8624	0.20266014
110	0x3d02d801	0.03194428
111	0x3e3bca96	0.18338999
112	0xbea1449c	-0.31497657
113	0xbe45f098	-0.1933006
114	0xbdaf1eb3	-0.08550777
115	0xbec92f36	-0.39293832
116	0xbeb41f54	-0.3518015
117	0x3e034959	0.12820949
118	0xbe28d377	-0.16486917
119	0xbd8ff478	-0.070290506
120	0xbded8bf0	-0.115989566
121	0x3e57c77f	0.21072195
122	0xbd8f07c8	-0.06983906
123	0x3dc947b8	0.098281324
124	0x3ec5783d	0.38568297
125	0x3e1b0d1d	0.15141721
126	0xbeff4e01	-0.498642
127	0x3d99ac0a	0.07503517
128	0xbc4a73d6	-0.012356719
129	0x3dda7f43	0.106688045
130	0x3e7f54be	0.2493467
131	0x3e7fbd52	0.24974564
132	0x3b534a92	0.0032240492
133	0x3bff1250	0.0077841654
134	0xbb3b0d62	-0.0028541912
135	0xbde0b3e9	-0.10971815
136	0xbe06241b	-0.1309971
137	0x3eb1b7f1	0.3471065
138	0xbebb753e	-0.36612886
139	0xbe84c93c	-0.2593478
140	0x3ef6456f	0.4809985
141	0x3e8e121b	0.27748188
142	0xbdf07d8d	-0.11742697
143	0x3ea2793b	0.31733117
144	0xbe6c6d47	-0.23088561
145	0x3ea87daa	0.32908374
146	0x3e93950d	0.28824654
147	0xbefb305a	-0.49060327
148	0xbe09c422	-0.13453725
149	0x3f1fdb75	0.6244424
150	0x3ce22125	0.027603695
151	0xbced94b7	-0.029001577
152	0xbd740c0a	-0.059581794
153	0xbe1db096	-0.15399393
154	0x3ef85f36	0.4851014
155	0x3e45c806	0.19314584
156	0xbf784130	-0.9697447
157	0xbe8e6073	-0.2780796
158	0x3c7baab2	0.015360521
159	0x3d6148b4	0.055000976
160	0xbe0527b2	-0.13003424
161	0x3e2c65a7	0.16835652
162	0xbeacd27c	-0.33754337
163	0xbe937d09	-0.28806332
164	0xbd03698e	-0.032083087
165	0xbe46ba4f	-0.19407009
166	0xbce75344	-0.028237946
167	0x3f05648c	0.5210655
168	0x3de3aa4a	0.111164644
169	0x3c18a63c	0.009316977
170	0x3d8c1d3f	0.06841516
171	0xbe241e03	-0.16027074
172	0xbdf3f9fe	-0.119129166
173	0x3eb724e1	0.35770324
174	0x3e99d713	0.300469
175	0x3c35ac33	0.011088419
176	0xbd5937bb	-0.053031664
177	0xbe3785ec	-0.17922181
178	0x3ddcddd0	0.10784495
179	0xbcecfea5	-0.028930018
180	0x3d6eecc2	0.05833126
181	0xbecde2c9	-0.40212086
182	0x3ea2ca62	0.3179503
183	0xbe125f53	-0.14294176
184	0x3eaf9f0a	0.34301025
185	0x3ee2e693	0.4431654
186	0x3dba253f	0.090891354
187	0xbceea900	-0.02913332
188	0x3d2b5b7b	0.04183529
189	0xbf41ee56	-0.75754297
190	0xbe176c85	-0.1478749
191	0xbd952116	-0.07281701
192	0x3ecb9e23	0.39769086
193	0xbd7f4585	-0.06232216
194	0xbd559db0	-0.052152336
195	0xbb9765d2	-0.004620292
196	0xbebea30e	-0.37233776
197	0xbe0d8c5e	-0.13823077
198	0x3e7fd746	0.24984464
199	0xbe1f0ced	-0.15532275
200	0x3e31453f	0.17311572
201	0xbc138885	-0.009004717
202	0x3d8df9c3	0.06932404
203	0xbe8f6241	-0.2800465
204	0x3e6d5931	0.23178555
205	0x3dd48d77	0.10378545
206	0xbe803cce	-0.2504639
207	0xbcd75f11	-0.026290448
208	0x3d76a6b6	0.06021758
209	0xbe052508	-0.13002408
210	0x3c16cb22	0.009203704
211	0xbe8fab2c	-0.2806028
212	0x3c4328e1	0.011911602
213	0x3e1af0c0	0.15130901
214	0x3e87cff0	0.2652583
215	0xbd434a4b	-0.047678273
216	0xbe2f4b97	-0.17118679
217	0x3ea3fce4	0.32028878
218	0x3e4fd816	0.20297274
219	0x3de7e284	0.11322501
220	0x3e229acc	0.15879363
221	0xbe529804	-0.20565802
222	0x3f35204d	0.7075241
223	0x3e381769	0.1797768
224	0x3da39b87	0.07988649
225	0x3e9ca785	0.30596557
226	0xbd3ab576	-0.04558321
227	0xbded8e6a	-0.11599429
228	0x3e1746eb	0.14773147
229	0x3d40b782	0.047050007
230	0xbdc86c2c	-0.09786257
231	0xbd490daa	-0.049085297
232	0x3c3976f2	0.011319863
233	0xbe0a5436	-0.13508686
234	0xbe2136dd	-0.15743585
235	0x3e32175e	0.17391726
236	0x3e3fab83	0.1871777
237	0xbe790961	-0.24319984
238	0xbd7df6b2	-0.062002845
239	0x3e34307e	0.17596623
240	0xbd8a22f8	-0.06744951
241	0x3dad3831	0.08457983
242	0x3d2d1c45	0.042263288
243	0xbb78a82c	-0.0037942035
244	0xbe052833	-0.13003616
245	0xbe3f0175	-0.186529
246	0xbc5840ee	-0.013199074
247	0x3e999761	0.29998305
248	0xbb62bae4	-0.0034596259
249	0x3e82db65	0.2555801
250	0xbef99770	-0.4874835
251	0xbeb118d5	-0.34589258
252	0xbe3545d6	-0.17702422
253	0xbd026fbe	-0.031844847
254	0x3c4b50a8	0.012409367
255	0xbe0e5135	-0.13898166

affine_layers.0.bias f4 [64]
0	0xbf0366e3	-0.5132887
1	0x3d96f5f3	0.0737113
2	0x3e072256	0.13196692
3	0x3e843cc0	0.258276
4	0x3e4ecdb4	0.20195657
5	0x3efdddf5	0.49583402
6	0xbea837ac	-0.32854974
7	0x3eaedb54	0.3415171
8	0x3e389314	0.18024856
9	0xbf282c75	-0.65692836
10	0xbe67d5ff	-0.22640227
11	0x3c0111a4	0.007877741
12	0xbe43cf79	-0.19122113
13	0x3ec94b6c	0.39315355
14	0xbec391f5	-0.38197294
15	0x3e4103c3	0.18849091
16	0xbec5f3bf	-0.38662526
17	0xbd736b84	-0.059428707
18	0xbe78b3d1	-0.24287345
19	0x3e9a29ae	0.30109924
20	0x3d98eeba	0.074674085
21	0xbe9f097e	-0.3106193
22	0x3d821166	0.06350975
23	0x3dff1e2f	0.12456929
24	0x3dc197a1	0.09452749
25	0xbdfeac50	-0.1243521
26	0x3e8e47cf	0.2778916
27	0x3dc2ca55	0.09511248
28	0x3f153f99	0.5830017
29	0xbf344a1d	-0.7042559
30	0x3daa7538	0.08323139
31	0xbd22bdd3	-0.03973181
32	0xbe2ee78c	-0.17080516
33	0x3e265b7d	0.16245838
34	0xbee1c1fa	-0.44093305
35	0xbea47cf6	-0.32126588
36	0xbe09bcd0	-0.13450933
37	0xbda8a3dc	-0.08234379
38	0x3ee479b0	0.4462409
39	0xbf499c10	-0.7875376
40	0x3c352cfc	0.011058088
41	0xbdd07837	-0.10179179
42	0x3defcfbe	0.117095456
43	0xbdf1a951	-0.11799873
44	0xbcc474a7	-0.023981405
45	0x3e91b673	0.2845951
46	0x3e4b13b3	0.19831733
47	0xbe79e270	-0.24402785
48	0xbdd52891	-0.10408128
49	0xbe957208	-0.2918856
50	0xbeb91100	-0.36145782
51	0xbe39bedf	-0.18139218
52	0xbdf8e2b8	-0.12152618
53	0xbec0a5b0	-0.3762641
54	0x3e8dc7a9	0.2769139
55	0x3e89c65c	0.2690915
56	0xbdbd42af	-0.092412345
57	0xbe9be5d6	-0.30448788
58	0x3e2f0cd3	0.17094736
59	0xbef91e64	-0.48656
60	0x3e1931a2	0.1496034
61	0xbeb3d2d3	-0.35121784
62	0xbe0c6543	-0.13710503
63	0xbeaa7efe	-0.33300012

affine_layers.1.weight f4 [64, 64]
0	0x3d87732b	0.066137634
1	0x3dd0befb	0.10192677
2	0x3e8801fa	0.26564008
3	0xbebff77d	-0.37493506
4	0xbe20b634	-0.15694505
5	0x3e29c440	0.1657877
6	0xbd72bdae	-0.059262924
7	0x3d8847d2	0.06654324
8	0x3eaf3349	0.34218815
9	0xbd5bf8a5	-0.053703923
10	0xbbeb3bde	-0.0071787676
11	0xbe1501ff	-0.14551543
12	0xbe6c6b0e	-0.23087713
13	0x3e5825b9	0.2110814
14	0x3dd21554	0.10257974
15	0xbe47e057	-0.19519173
16	0xbd612ee6	-0.054976366
17	0x3e502052	0.20324829
18	0x3b964bbc	0.004586665
19	0xbd8f17ec	-0.069869846
20	0xbef95ba6	-0.48702735
21	0xbdd30aa5	-0.10304765
22	0x3e7c8a75	0.24662192
23	0x3e77da08	0.24204266
24	0xbe4eb260	-0.20185232
25	0xbe2794cb	-0.16365354
26	0xbd685bff	-0.05672836
27	0x3e3350b0	0.17511249
28	0xbdccb4bf	-0.09995412
29	0x3dff32fc	0.124608964
30	0xbdf512ae	-0.119664535
31	0x3e420961	0.1894889
32	0x3dd686fd	0.10474966
33	0x3e98aafc	0.2981795
34	0x3e97feca	0.29686576
35	0xbd247ad1	-0.04015619
36	0xbd8f0b83	-0.069846176
37	0xbe1e942f	-0.15486215
38	0xbe7a73a7	-0.2445818
39	0x3e1373be	0.14399621
40	0x3dc6b25d	0.09701989
41	0xbd35c995	-0.044381697
42	0x3e22d37e	0.1590099
43	0x3dd36378	0.103217065
44	0xbe72bc4a	-0.23704639
45	0x3edaf326	0.42763633
46	0x3dc82bfc	0.09774014
47	0x3f0093d7	0.50225586
48	0x3d853819	0.065048404
49	0x3e441116	0.19147143
50	0x3e3ea2bd	0.18616767
51	0xbe942366	-0.28933257
52	0xbd4df2ae	-0.050280266
53	0xbdb6b9e5	-0.08922175
54	0x3d04535f	0.03230607
55	0x3d74e642	0.059789903
56	0x3daf84f3	0.0857028
57	0x3cc13dd5	0.023589054
58	0xbb3a8f86	-0.0028466894
59	0x3e78e864	0.243074
60	0x3de1bd75	0.11022464
61	0xbe998a34	-0.29988253
62	0x3dd360ac	0.10321173
63	0xbc8d4b65	-0.017247865
64	0xbd9fc650	-0.07801497
65	0xbdb3a11f	-0.08770966
66	0x3dea121d	0.11429236
67	0xbd7ef623	-0.062246453
68	0xbeba710f	-0.36414382
69	0xbe98062d	-0.29692212
70	0xbd3b0f15	-0.04566868
71	0x3e16238b	0.14661996
72	0x3c574430	0.013138816
73	0xbe1f9c2d	-0.1558692
74	0xbeb0ef10	-0.3455739
75	0x3e6b825f	0.22998951
76	0x3e95b19f	0.29237077
77	0xbbe29095	-0.006914208
78	0xbdb960d0	-0.09051669
79	0x3e221b15	0.15830643
80	0x3da0db53	0.07854333
81	0xbea4c059	-0.32178
82	0x3d76eec2	0.06028629
83	0x3e3d67b2	0.18496588
84	0x3e4c8a8c	0.19974726
85	0x3ed24d9d	0.4107484
86	0x3c7bbd21	0.015364916
87	0xbeb90eac	-0.36144006
88	0x3e8a5bfd	0.27023306
89	0xbdd63f50	-0.10461295
90	0xbe122fa9	-0.14275993
91	0xbe31f329	-0.17377914
92	0x3db79951	0.0896479
93	0x3d5b900d	0.053604174
94	0x3e81abd6	0.25326413
95	0xbd89f07d	-0.067353226
96	0x3d377487	0.044788864
97	0x3de99ccb	0.11406859
98	0xbe46933a	-0.193921
99	0x3c14564a	0.009053776
100	0xbeb9025f	-0.36134622
101	0x3e638f74	0.22222692
102	0x3d5e477b	0.054267388
103	0x3c75a41d	0.014992741
104	0xbd11b58c	-0.035573527
105	0xbd5ec1b9	-0.054383967
106	0x3e1a8b03	0.15092091
107	0x3e72ca98	0.23710096
108	0xbe71e81a	-0.23623696
109	0x3da38be8	0.079856694
110	0x3e35e734	0.17763978
111	0xbe330b69	-0.17484821
112	0x3e1b30b7	0.15155302
113	0xbecf97cd	-0.40545502
114	0x3c06a446	0.008217877
115	0x3e39cbcc	0.18144149
116	0xbd8c9239	-0.06863827
117	0xbca6b718	-0.020350978
118	0x3ca55f0c	0.020186923
119	0x3de9ca4e	0.1141554
120	0x3e3b15c3	0.1827002
121	0xbe7cad65	-0.2467552
122	0x3d6f1525	0.058369774
123	0x3effa835	0.4993302
124	0x3d8ccc4a	0.068749025
125	0x3ea0220b	0.31275973
126	0xbd3afdba	-0.04565213
127	0xbe5723b1	-0.21009709
128	0xbe5d9636	-0.21639332
129	0xbe67c6c6	-0.2263442
130	0x3e0a0222	0.13477376
131	0xbd91548b	-0.070962034
132	0xbe464101	-0.19360735
133	0x3de9b652	0.11411728
134	0xbd051106	-0.032486938
135	0xbe03950b	-0.12849824
136	0xbdb07e09	-0.08617789
137	0xbe3ab110	-0.18231606
138	0xbdc5788e	-0.096421346
139	0xbe11f580	-0.14253807
140	0xbe205582	-0.15657619
141	0xbd6a147a	-0.057148434
142	0x3e1b2a8f	0.15152954
143	0xbf125085	-0.57154113
144	0xbe630a7b	-0.22171967
145	0x3c4d1552	0.01251729
146	0xbe16ee13	-0.14739256
147	0x3e3a8bf5	0.18217452
148	0xbd2b4c55	-0.041820843
149	0xbf1eda01	-0.620514
150	0x3e8bb151	0.2728372
151	0x3d9f5565	0.077799596
152	0x3bb9066b	0.005646517
153	0xbd9a9445	-0.075478114
154	0xbe856583	-0.2605401
155	0xb95fb4d1	-0.00021334297
156	0x3e3e7bb6	0.1860188
157	0x3e3618d6	0.17782912
158	0x3e84d4ef	0.25943705
159	0x3e2a63c3	0.16639619
160	0xbdbf9c8b	-0.0935603
161	0x3e6d1e48	0.23156083
162	0x3e3129a9	0.17301048
163	0x3a251a28	0.0006298148
164	0x3e867558	0.262614
165	0x3ed2c444	0.41165364
166	0x3e4ec7ed	0.20193453
167	0xbe9d80d4	-0.3076235
168	0xbe8276c7	-0.25481245
169	0xbd1ae379	-0.03781459
170	0x3e812036	0.25219887
171	0x3da3f633	0.08005943
172	0xbd5bb51e	-0.053639524
173	0x3da0d9e5	0.0785406
174	0x3e374036	0.17895588
175	0xbdbfad70	-0.093592525
176	0x3d55cda5	0.05219807
177	0x3d402da1	0.046918515
178	0xbc1b52d9	-0.009480202
179	0xbe8a0ebe	-0.26964372
180	0xbdad8121	-0.08471895
181	0x3f006f43	0.5016977
182	0x3db71554	0.08939615
183	0x3e3d6a7a	0.18497649
184	0xbe03cc21	-0.12870838
185	0xbdffa011	-0.12481702
186	0x3da8f1d8	0.08249253
187	0xbe687cae	-0.22703812
188	0xbe7bce86	-0.24590501
189	0x3d3486f1	0.044074003
190	0xbdffc96c	-0.1248959
191	0xbe237513	-0.15962629
192	0xbe2e6c75	-0.1703356
193	0x3e628515	0.2212108
194	0xbdc88c09	-0.097923346
195	0x3e837672	0.25676304
196	0x3dfa54ae	0.122231826
197	0x3e9bc7bd	0.30425826
198	0x3e67d5ae	0.22640106
199	0xbdce0c04	-0.100608855
200	0xbe2d63ae	-0.16932556
201	0xbc45dfe8	-0.012077309
202	0x3e048343	0.12940697
203	0x3f44569a	0.76694643
204	0xbde9a282	-0.11407949
205	0xbd3d12c5	-0.04616048
206	0xbe4c06a7	-0.19924413
207	0x3de45d32	0.11150588
208	0x3de56f36	0.112028524
209	0x3cd22769	0.025653558
210	0x3e619649	0.22029985
211	0xbd55022a	-0.052004017
212	0x3d454801	0.04816437
213	0xbe99e99b	-0.3006104
214	0xbe25f8be	-0.16208169
215	0xbe4692ee	-0.19391987
216	0x3e8a3529	0.26993683
217	0x3da07d79	0.07836432
218	0xbe292302	-0.1651726
219	0xbdee1a8a	-0.11626156
220	0xbea1448c	-0.3149761
221	0x3db8cb19	0.09023113
222	0xbac36ac2	-0.0014909136
223	0x3bc0b524	0.0058809686
224	0x3de796d0	0.11308062
225	0x3e30a1ea	0.17249265
226	0xbebcfd41	-0.36911967
227	0xbd892cc9	-0.06697995
228	0xbd9ac0b1	-0.07556284
229	0x3ecf6e7d	0.40513983
230	0xbe91c3f3	-0.2846981
231	0xbd3078a0	-0.043083787
232	0xbe1f4121	-0.15552188
233	0x3e0fb37f	0.14033316
234	0x3d5f489d	0.05451261
235	0x3f009c9d	0.5023897
236	0xbd1d38f2	-0.038384385
237	0x3da286b4	0.07935849
238	0xbd1e571a	-0.038657285
239	0x3d5857d2	0.052818127
240	0xbd8c4cf0	-0.06850612
241	0x3cf303ad	0.029664839
242	0x3de32eb8	0.11092895
243	0xbd0fc478	-0.035099477
244	0x3ea0cfe1	0.314086
245	0xbe7609a0	-0.24027109
246	0xbe8c4e0d	-0.27403298
247	0xbda92154	-0.0825831
248	0xbd4f784a	-0.050651826
249	0x3d053f2e	0.032530956
250	0xbdba32ee	-0.09091745
251	0x3e10c839	0.14138879
252	0xbd8568f3	-0.06514158
253	0xbd4a4578	-0.049382657
254	0xbe84e4e4	-0.2595588
255	0x3e62177b	0.2207927

affine_layers.1.bias f4 [64]
0	0x3e0dab90	0.13834977
1	0xbe6b9845	-0.23007305
2	0x3e881651	0.26579526
3	0xbe47a5be	-0.1949682
4	0x3e306240	0.1722498
5	0x3ca050c5	0.019569764
6	0xbeaf94a9	-0.34293106
7	0xbd6a3110	-0.057175696
8	0x3e996a0a	0.29963714
9	0x3e636ac4	0.22208697
10	0xbe59eabc	-0.2128095
11	0xbe920227	-0.28517267
12	0x3ea025e2	0.31278902
13	0xbe337df6	-0.17528519
14	0x3d3c82d1	0.046023194
15	0x3e37c44d	0.17945977
16	0x3e10c1a0	0.14136362
17	0xbe71d46b	-0.23616187
18	0xbd399383	-0.045306694
19	0xbe5f45d8	-0.21803987
20	0x3da41780	0.08012295
21	0xbead2646	-0.33818263
22	0xbd1aefd3	-0.03782637
23	0x3e03385c	0.12814468
24	0xbe257f84	-0.16161925
25	0x3e78909f	0.24273919
26	0x3e6cc6f9	0.23122777
27	0xbe1f145d	-0.15535112
28	0x3d9dae7b	0.07699295
29	0xbe821c78	-0.25412345
30	0xbc442527	-0.011971748
31	0x3e525b84	0.20542723
32	0xbe4da934	-0.20084077
33	0x3e835450	0.25650263
34	0x3e2af35b	0.16694395
35	0xbe2b0437	-0.16700827
36	0xbdc7d090	-0.09756577
37	0xbe7a92f2	-0.24470118
38	0x3dc57c35	0.09642831
39	0xbdc4fe9f	-0.096188776
40	0x3dc1bb12	0.09459509
41	0x3e6ef4ad	0.23335524
42	0x3e26a2da	0.1627306
43	0x3daaf06c	0.08346638
44	0xbdcb7df9	-0.09936137
45	0x3d4cea06	0.05002787
46	0xbea335db	-0.31877026
47	0x3e4ab4a7	0.19795476
48	0xbd031603	-0.032003414
49	0xbe2baaed	-0.16764422
50	0xbebbdafc	-0.3669051
51	0xbdf92e0e	-0.12166987
52	0xbd8fe469	-0.07025988
53	0xbe969fd9	-0.2941883
54	0xbe23d19d	-0.1599793
55	0x3e187391	0.14887835
56	0x3e310906	0.17288598
57	0xbe8574d8	-0.26065707
58	0x3e3874b6	0.18013272
59	0xbea7988f	-0.3273358
60	0x3e1083fb	0.14112847
61	0x3e3c6ebb	0.18401615
62	0xbe75f5fc	-0.24019617
63	0xbe892af6	-0.2679059

final.weight f4 [1, 64]
0	0x3d8da9b8	0.06917137
1	0xbd278f70	-0.040908277
2	0x3e2af05e	0.16693255
3	0xbe0b6c49	-0.13615526
4	0x3e48c4d7	0.19606338
5	0x3dec332b	0.11533197
6	0xbe8f25fe	-0.27958673
7	0xbdd65d72	-0.10467042
8	0x3e8bf099	0.27332
9	0x3e2d1f0d	0.16906376
10	0xbe0b5bc5	-0.13609226
11	0xbd9a4d50	-0.075342774
12	0x3e308040	0.17236423
13	0xbde903de	-0.11377691
14	0x3df134ee	0.11777674
15	0x3e8dc655	0.27690378
16	0x3e0bf20d	0.13666554
17	0xbe2432e8	-0.16035044
18	0xbe20770d	-0.15670414
19	0xbd0ec636	-0.034856997
20	0x3e35c3d4	0.17750484
21	0xbe3f6c14	-0.18693572
22	0xbe5ba698	-0.21450269
23	0x3dfd5051	0.12368835
24	0xbddeb30e	-0.10873996
25	0x3eb533e3	0.3539115
26	0x3e0a45f8	0.13503253
27	0xbde2d376	-0.11075489
28	0xbe14bb99	-0.14524688
29	0xbec5dd5a	-0.3864544
30	0xbdf67016	-0.120330974
31	0x3dc7518d	0.097323515
32	0xbb9dfbaf	-0.004821263
33	0x3e8643ac	0.26223505
34	0x3e5a56c4	0.21322161
35	0xbd13310c	-0.035935447
36	0xbd2b8863	-0.041878115
37	0xbe577296	-0.21039805
38	0x3e4a25a4	0.19740921
39	0xbdf33886	-0.11876015
40	0x3c10e754	0.008844215
41	0x3e03195b	0.12802641
42	0x3dec43b3	0.1153635
43	0x3e3a07eb	0.18167083
44	0xbe2318f4	-0.15927488
45	0xbd8cec19	-0.068809696
46	0xbd877581	-0.06614209
47	0x3db05198	0.08609313
48	0xbe684e77	-0.22686182
49	0xbe4f9cd2	-0.20274666
50	0xbe93c9df	-0.28864953
51	0xbe1863c8	-0.14881814
52	0x3e4df0ea	0.20111433
53	0xbea883ad	-0.3291296
54	0xbc73d4b0	-0.014882252
55	0xbd55dcab	-0.0522124
56	0x3c089bd6	0.008337935
57	0xbea7f434	-0.328035
58	0x3d873994	0.06602779
59	0xbdb3ccc4	-0.0877929
60	0xbe75fdef	-0.24022649
61	0x3dfb92b7	0.12283843
62	0xbd624388	-0.055240184
63	0xbdf424cd	-0.11921082

log_stdev f4 [3]
0	0xbfb3aea5	-1.4037672
1	0xbfb83589	-1.4391338
2	0xbfb184c4	-1.3868642

affine_layers.0.weight f4 [64, 11]
0	0x3e2143a0	0.15748453
1	0xbeb6f7c7	-0.35735914
2	0x3e07fe5d	0.13280626
3	0x3e90ac76	0.28256577
4	0xbdbeb900	-0.0931263
5	0x3e0b0736	0.1357697
6	0x3f9280f0	1.1445599
7	0x3e712819	0.23550452
8	0xbe4e2227	-0.20130216
9	0xbef1e74f	-0.47246787
10	0x3d36ab97	0.044597235
11	0x3c534a05	0.012896066
12	0x3c962a2b	0.018330654
13	0xbcd69ef8	-0.02619885
14	0x3ef0996b	0.4699205
15	0x3ea0bec0	0.3139553
16	0x3a9e1602	0.0012061002
17	0x3e516fe2	0.20452836
18	0xbca902cd	-0.020631218
19	0x3e71fde0	0.23632002
20	0x3d99d38b	0.07511052
21	0xbd95a3f7	-0.073066644
22	0x3d17c281	0.037050728
23	0xbece159d	-0.40250865
24	0xbe6992c9	-0.228099
25	0x3e0286d2	0.12746742
26	0xbe17508e	-0.14776823
27	0x3dfbd43b	0.12296339
28	0x3dab71c7	0.08371311
29	0xbe4a0ad8	-0.19730699
30	0xbcdd64de	-0.027025636
31	0x3e456f9c	0.19280857
32	0xbda01963	-0.07817342
33	0x3ee4ef5e	0.44713873
34	0x3ed74c7a	0.42050534
35	0x3ebe6694	0.37187636
36	0xbedb2cdb	-0.4280766
37	0x3df47b6a	0.11937602
38	0xbe920458	-0.2851894
39	0xbe14e904	-0.14542013
40	0x3e5b6187	0.21423922
41	0x3e26bb76	0.16282448
42	0x3eb94010	0.36181688
43	0x3e0a51c8	0.1350776
44	0xbda58ffd	-0.08084104
45	0xbf01f0f0	-0.50758266
46	0x3c4786bd	0.01217812
47	0xbd9fb5b6	-0.077983305
48	0x3966ed1c	0.0002202284
49	0xbd9031bd	-0.07040737
50	0xbd0b7320	-0.03404534
51	0xbb865098	-0.004098963
52	0xbe192df2	-0.14958933
53	0xbd87caf9	-0.06630511
54	0xbc629908	-0.013830431
55	0x3dd0b1ec	0.10190186
56	0x3e02f887	0.12790118
57	0xbe7ebe20	-0.24877214
58	0x3e51c7e1	0.20486404
59	0x3e521fbe	0.20519921
60	0x3e1b3183	0.15155606
61	0x3e8285d9	0.25492743
62	0xbe663e6c	-0.2248475
63	0xbdd55a80	-0.10417652
64	0x3e48f924	0.1962629
65	0x3e23da2d	0.16001196
66	0xbdb664fc	-0.0890598
67	0x3e6ab2e6	0.22919807
68	0xbe46ba0e	-0.19406912
69	0xbd3824cd	-0.04495697
70	0xbd7e2cc0	-0.062054396
71	0xbd7fc279	-0.062441323
72	0x3de5f9fa	0.1122932
73	0x3ee665eb	0.44999632
74	0x3e8efbee	0.27926582
75	0xbdcafe13	-0.09911742
76	0xbe6f9e3f	-0.2340021
77	0x3c86f1f5	0.016472796
78	0xbeb8713b	-0.36023888
79	0xbe146160	-0.1449027
80	0xbea6a6ff	-0.32549283
81	0xbe37db09	-0.17954649
82	0x3da5b518	0.080911815
83	0x3e7ef0c3	0.24896531
84	0xbec6dfa7	-0.38842508
85	0x3e533082	0.20623973
86	0xbf2d3b8a	-0.67668974
87	0xbe16fef7	-0.14745699
88	0xbf1031f9	-0.5632625
89	0x3ba93dfc	0.00516486
90	0x3d876c4e	0.06612454
91	0x3f28e522	0.6597463
92	0x3cb29830	0.021801084
93	0x3b1aaa06	0.0023599877
94	0xbc39d3b0	-0.011341974
95	0x3c2275b1	0.009915755
96	0xbde0b059	-0.10971136
97	0xbddf790a	-0.10911758
98	0xbe60681a	-0.21914712
99	0x3f67994f	0.90468305
100	0x3e4fba54	0.20285922
101	0x3eb6f646	0.35734767
102	0x3cf34fad	0.029701078
103	0x3cc0884c	0.023502491
104	0xbcef5390	-0.02921465
105	0x3e6e7cad	0.23289748
106	0x3e28653d	0.1644487
107	0x3e79ee0a	0.24407211
108	0xbd86fb5d	-0.065909125
109	0x3ecec8fe	0.4038772
110	0xbe4a8db3	-0.19780616
111	0x3d82e730	0.06391752
112	0x3c547f68	0.012969829
113	0xbd74006c	-0.059570715
114	0x3e1ad076	0.15118584
115	0x3e801a7b	0.25020203
116	0xbec9a5a9	-0.393842
117	0xbe31d522	-0.1736646
118	0xbe1891c8	-0.14899361
119	0x3d8ec788	0.06971651
120	0x3ea2358e	0.31681484
121	0x3e314668	0.17312014
122	0x3e8002ea	0.25002223
123	0xbda6403a	-0.08117719
124	0x3eb369c2	0.35041624
125	0xbdbea85e	-0.09309457
126	0x3d217ae3	0.039423835
127	0x3e88c7a7	0.26714823
128	0x3ed4adb0	0.41538763
129	0x3dbdb07d	0.09262178
130	0x3e967594	0.2938658
131	0xbec940b5	-0.3930718
132	0xbe4b92ed	-0.19880266
133	0xbdc23ac5	-0.09483866
134	0x3a13c35c	0.0005636716
135	0x3d15ba87	0.03655484
136	0x3d3f1517	0.046650972
137	0xbe05824c	-0.13037986
138	0xbf132a88	-0.5748677
139	0xbda773f2	-0.08176412
140	0x3e9a1c34	0.30099642
141	0xbe22ff3d	-0.15917678
142	0x3ec9b3fd	0.39395133
143	0x3dd0cc2b	0.10195192
144	0x3e06c171	0.1315973
145	0x3e6a586b	0.22885291
146	0x3d7b83df	0.06140506
147	0xbdd1e9ad	-0.10249648
148	0xbeaaf4f9	-0.33390024
149	0xbe374baf	-0.17899965
150	0xbe205a8e	-0.15659544
151	0xbea7257d	-0.3264579
152	0xbb993576	-0.0046755625
153	0xbee923b4	-0.45535052
154	0x3e954c32	0.29159695
155	0xbe7ff0ff	-0.24994276
156	0x3dac88a4	0.084245
157	0xbe7c9873	-0.2466753
158	0x3e02270f	0.12710212
159	0xbe9c77b4	-0.30560076
160	0x3e3dc9d5	0.18534024
161	0x3d9fed65	0.07808951
162	0xbe345e60	-0.17614126
163	0x3dcf17ed	0.10111985
164	0xbe862a69	-0.2620423
165	0xbdc8f2a9	-0.09811909
166	0x3eb06155	0.34449258
167	0x3e06f9c9	0.13181223
168	0x3e447108	0.19183743
169	0x3dde721d	0.10861609
170	0x3df2e519	0.11860103
171	0x3ee11413	0.43960628
172	0xbddb099d	-0.10695193
173	0xbedcf98d	-0.43159142
174	0x3ea140b7	0.31494686
175	0xbe6a25f9	-0.22866048
176	0xbec9091a	-0.39264756
177	0x3d3509d7	0.044198837
178	0xbdfe6f1b	-0.124235354
179	0xbe23f007	-0.16009532
180	0xbe0fabe7	-0.1403042
181	0x3ea4a87e	0.321598
182	0xbf12dac1	-0.5736504
183	0x3e577f31	0.21044613
184	0x3e408f25	0.18804605
185	0xbe464693	-0.1936286
186	0xbe57d68d	-0.21077938
187	0x3ebd1b0a	0.36934692
188	0x3e54f035	0.20794757
189	0xbdab2c2c	-0.083580345
190	0xbe846f6c	-0.25866258
191	0xbe4fb2e0	-0.20283079
192	0xbdffec61	-0.124962576
193	0x3e415eb0	0.18883777
194	0x3e8e3ab3	0.2777916
195	0xbe85b050	-0.26111078
196	0x3d1efcc2	0.038815267
197	0x3e1c8fb4	0.15289193
198	0x3f00df2e	0.50340545
199	0xbe5e3fd2	-0.21704033
200	0x3ce51ddf	0.027968345
201	0xbe8bbcbb	-0.27292427
202	0x3cde3930	0.027126878
203	0xbedc9f15	-0.4309012
204	0xbe5262bb	-0.20545475
205	0xbe1e512e	-0.15460655
206	0xbecf0c9e	-0.40439314
207	0xbe4c3c48	-0.1994487
208	0xbe52dbe1	-0.2059169
209	0x3eadd23d	0.33949462
210	0xbe2ace3d	-0.16680236
211	0xbea41eca	-0.3205474
212	0xbed0f754	-0.40813696
213	0x3e91215f	0.28345773
214	0xbe8fa933	-0.28058776
215	0x3e217b6e	0.15769741
216	0xbd92666d	-0.071484424
217	0xbcd780dd	-0.026306564
218	0x3ceb90cc	0.028755568
219	0x3e5d73fb	0.21626274
220	0xbdee49b8	-0.116351545
221	0x3ed2de2a	0.41185123
222	0xbdea48fe	-0.114397034
223	0xbdfcf2bc	-0.123509854
224	0x3df283e3	0.11841562
225	0x3e5467b4	0.20742685
226	0xbe92fe8a	-0.28709823
227	0x3e175728	0.14779341
228	0x3f1b2b90	0.60613346
229	0xbd277433	-0.0408823
230	0xbe817395	-0.25283495
231	0xbe97dd4f	-0.29661033
232	0xbd000920	-0.031258702
233	0x3e120339	0.14259042
234	0xbea2b2ad	-0.31776944
235	0xbdb2f3e9	-0.087379284
236	0x3ed6597e	0.41865152
237	0xbe36a39f	-0.17835854
238	0x3e990522	0.2988673
239	0xbd4de307	-0.05026534
240	0x3bd5cfe9	0.006525029
241	0xbea7d1b9	-0.32777193
242	0x3d2a84f2	0.041630693
243	0x3e9089fe	0.2823028
244	0xbe8a1767	-0.2697098
245	0xbe117878	-0.14206111
246	0x3ec7a04b	0.3898948
247	0x3e7f9793	0.24960165
248	0x3dae2c0e	0.085044965
249	0xbd7967fc	-0.060890183
250	0xbe617e43	-0.22020821
251	0x3c7fa30d	0.015602839
252	0x3e8c212e	0.27369064
253	0xbea782bb	-0.32716927
254	0x3dc048a2	0.093888536
255	0x3eba2c54	0.36361945

affine_layers.0.bias f4 [64]
0	0xbdc7eebd	-0.097623326
1	0xbd424af0	-0.047434747
2	0xbec7d019	-0.39025953
3	0x3de8ac68	0.11361009
4	0x3e341d8f	0.175894
5	0x3e15a981	0.14615442
6	0xbe40fd04	-0.18846518
7	0x3c957cc6	0.018247973
8	0xbd5b3d78	-0.053525418
9	0x3e7fe1a4	0.24988419
10	0x3bc3b93f	0.005973011
11	0x3db3dfed	0.08782945
12	0xbe89f0ec	-0.2694162
13	0xbccf7802	-0.025325779
14	0x3e05f647	0.13082229
15	0xbc4dca14	-0.012560386
16	0x3de44cfa	0.111474946
17	0xbe09924b	-0.13434713
18	0xbbf35dfd	-0.0074269758
19	0x3dd168eb	0.1022509
20	0xbe15120d	-0.14557667
21	0xbe9228bc	-0.28546703
22	0x3e9cd3b7	0.30630276
23	0x3ddae8b8	0.10688919
24	0xbdbd0f8e	-0.092314824
25	0x3e042f84	0.12908751
26	0xbd576fda	-0.052596904
27	0xbe25c768	-0.16189349
28	0x3e9509ef	0.2910914
29	0x3df431da	0.11923571
30	0xbe6fb559	-0.23409022
31	0xbe1a7d3f	-0.1508684
32	0x3e3c088b	0.18362634
33	0xbe00ebcc	-0.1258995
34	0xbd1ff9db	-0.03905664
35	0x3c23e614	0.010003585
36	0xbe468639	-0.1938714
37	0xbd05d8de	-0.032677524
38	0x3dc96d12	0.09835257
39	0x3ebe2858	0.37140155
40	0x3dbfc8ef	0.09364497
41	0x3e9adedb	0.3024815
42	0x3ddd290c	0.10798845
43	0xbe5f2632	-0.21791914
44	0x3e9509bd	0.29108992
45	0x3e284ec7	0.16436301
46	0xbe131631	-0.14363934
47	0x3e1f8327	0.15577374
48	0xbc9912ef	-0.018685786
49	0xbdc43f00	-0.09582329
50	0xbdb28ac6	-0.08717875
51	0xbe11df59	-0.14245357
52	0x3e892bb4	0.26791155
53	0xbe9f5c77	-0.31125233
54	0xbe6ed84a	-0.23324695
55	0xbe6cf50e	-0.23140356
56	0x3e200bcb	0.15629499
57	0x3df77175	0.12082187
58	0x3d6e42d4	0.0581692
59	0xbd3b4dcf	-0.0457285
60	0x3ebdf910	0.37104082
61	0x3e84286c	0.2581209
62	0xbddb5dd2	-0.10711254
63	0x3e33213b	0.17493145

affine_layers.1.weight f4 [64, 64]
0	0x3e93811e	0.28809446
1	0xbe113f55	-0.14184316
2	0x3ea2b8ce	0.3178162
3	0x3e284fb4	0.16436654
4	0xbe3aecb3	-0.18254356
5	0xbe85bb70	-0.26119566
6	0x3c211067	0.009830571
7	0x3e97aa35	0.29622045
8	0xbee2e645	-0.44316307
9	0x3e9cdf16	0.3063895
10	0xbd54d9cd	-0.051965524
11	0x3e8925d1	0.26786664
12	0xbdc30441	-0.09522296
13	0x3e362237	0.1778649
14	0xbd164261	-0.036684398
15	0xbdc1bcf0	-0.09459865
16	0xbbffde3f	-0.007808476
17	0xbcfb6567	-0.030688
18	0xbe7d0497	-0.24708782
19	0x3da84283	0.08215811
20	0x3da174c6	0.07883601
21	0xbbab2509	-0.005222921
22	0xbdd2f173	-0.10299959
23	0xbe0f3b04	-0.13987356
24	0x3d03467b	0.032049637
25	0x3d92fe41	0.07177401
26	0xbe6b2337	-0.22962652
27	0xbd708d0f	-0.058728274
28	0xbb055ed4	-0.0020350711
29	0xbe0cef97	-0.13763271
30	0x3d75b1ab	0.05998389
31	0x3d9740db	0.07385417
32	0xbf707163	-0.93923014
33	0x3e382be6	0.17985496
34	0xbe0570d1	-0.13031317
35	0x3cdc671d	0.026904637
36	0xbdf803fe	-0.121101364
37	0x3de8d6d1	0.11369098
38	0xbcea99b7	-0.02863775
39	0xbd87f486	-0.06638436
40	0x3f037bc1	0.5136071
41	0x3e3d2e27	0.18474637
42	0x3ea7df95	0.32787767
43	0x3d4a64a3	0.04941238
44	0xbea84e4f	-0.32872245
45	0xbe9144d1	-0.28372815
46	0x3f354131	0.708026
47	0xbf391a8f	-0.7230615
48	0x3eebdf57	0.46068832
49	0xbdd0ea4d	-0.10200939
50	0xbea6f549	-0.32609013
51	0xbe0377b1	-0.12838627
52	0xbeac2275	-0.3362004
53	0x3e12f1b3	0.14350013
54	0xbd694eaa	-0.056959786
55	0xbe5500a5	-0.20801027
56	0x3e4fd236	0.20295033
57	0xbebb3dfc	-0.36570728
58	0xbe100637	-0.14064871
59	0xbd2b2370	-0.041781843
60	0x3d7daa61	0.061930064
61	0xbf2a40cb	-0.66505116
62	0xbe8a19fa	-0.26972944
63	0x3d877c45	0.066154994
64	0x3e6087f9	0.2192687
65	0x3e9d45f7	0.3071744
66	0xbeb11342	-0.34585005
67	0x3dab709c	0.08371088
68	0xbed49883	-0.41522607
69	0x3ec2293f	0.37922093
70	0xbd93dbaf	-0.07219636
71	0xbe421f1a	-0.18957177
72	0x3dd39dec	0.103328556
73	0x3e0c15b2	0.13680151
74	0xbece838f	-0.40334746
75	0xbe6b55f2	-0.22982004
76	0xbdd0b8df	-0.10191511
77	0xbdd23851	-0.10264648
78	0x3c73da51	0.014883594
79	0x3d8238d9	0.06358499
80	0xbe2a806f	-0.16650556
81	0x3e9d51ff	0.3072662
82	0xba8d04db	-0.0010758893
83	0xbe01f1ca	-0.12689891
84	0xbe8f63d6	-0.28005856
85	0xbe850616	-0.25981206
86	0xbe20bf8e	-0.15698072
87	0xbd51ef04	-0.051253334
88	0x3dc90f99	0.09817428
89	0x3e547680	0.20748329
90	0x3dec73e2	0.115455404
91	0xbdafdd81	-0.085871704
92	0xbcb7ba92	-0.02242783
93	0xbe8a519a	-0.27015382
94	0xbe199aeb	-0.15000503
95	0x3c331417	0.010930083
96	0x3e843c63	0.2582732
97	0xbe7084ef	-0.2348821
98	0xbb4ee476	-0.0031569279
99	0x3ea7c150	0.32764673
100	0x3e75d052	0.24005249
101	0x3e61df56	0.22057852
102	0x3f0d394e	0.55165565
103	0xbde566b1	-0.112012275
104	0xbb880ebf	-0.0041521485
105	0xbcfbbba0	-0.030729115
106	0xbdd476d7	-0.103742294
107	0x3edbf838	0.42962813
108	0xbe4b189b	-0.19833605
109	0xbe8b00f5	-0.27149168
110	0x3ea5fd49	0.32419804
111	0xbec17ecc	-0.3779205
112	0xbde981b7	-0.11401694
113	0xbdcb6497	-0.09931295
114	0xbf055992	-0.520898
115	0x3e56f1d8	0.20990694
116	0x3e03b7fb	0.12863152
117	0xbe162bcf	-0.14665149
118	0xbe6d9f99	-0.23205413
119	0xbd2e11ca	-0.042497434
120	0xbe414ec0	-0.18877697
121	0x3e7dfd58	0.24803674
122	0xbe9b054b	-0.30277476
123	0x3df9fc12	0.12206282
124	0xbdf67abf	-0.12035131
125	0xbe21f6eb	-0.15816848
126	0x3ed2345a	0.41055566
127	0xbdfef1cf	-0.12448465
128	0x3e5ed815	0.21762116
129	0xbead81c8	-0.33888078
130	0xbed34269	-0.41261604
131	0xbe969fb2	-0.29418713
132	0xbefc2b55	-0.4925181
133	0x3e4dec0c	0.20109576
134	0x3e53d73d	0.20687576
135	0x3d75739c	0.059924707
136	0x3d4ba1d2	0.04971487
137	0x3df9414c	0.121706575
138	0x3ea0fb3a	0.3144167
139	0x3d3b3465	0.045704264
140	0x3e022189	0.12708105
141	0xbeeb6579	-0.45975855
142	0xbef570ae	-0.4793753
143	0xbf216d15	-0.6305707
144	0x3e8f647d	0.28006354
145	0xbea7b94c	-0.32758558
146	0xbf62fc0c	-0.88665843
147	0xbe0efcb5	-0.13963588
148	0x3e6f786b	0.2338578
149	0xbe2ecb01	-0.17069627
150	0x3e172e79	0.14763822
151	0x3e6e8abe	0.23295113
152	0x3d86453e	0.06556176
153	0xbeaf0484	-0.34183133
154	0xbdaac029	-0.08337433
155	0xbd755547	-0.05989578
156	0x3ddbe55b	0.107371055
157	0x3da3459e	0.07972263
158	0xbeef6426	-0.46756095
159	0x3eb0abda	0.34506112
160	0x3e541187	0.20709811
161	0xbde809df	-0.11330008
162	0xbd3a3adc	-0.04546629
163	0xbe1b7b92	-0.15183857
164	0xbece2e8e	-0.40269893
165	0x3e382818	0.17984045
166	0xbe85a425	-0.26101795
167	0x3d3e7f49	0.046508107
168	0xbe843f87	-0.25829718
169	0xbe571b1d	-0.21006437
170	0x3ec1d4cc	0.37857664
171	0x3e15e2f0	0.14637351
172	0x3db84390	0.089972615
173	0xbd54ad2c	-0.051922962
174	0x3ed063e2	0.40701205
175	0xbea49c2e	-0.32150406
176	0xbe8909f5	-0.2676541
177	0x3d1d9bd4	0.038478687
178	0x3dea42bb	0.11438509
179	0xbeb43633	-0.351976
180	0x3e7683c4	0.24073702
181	0xbe7524fa	-0.23939887
182	0x3e5a454c	0.21315497
183	0xbee1eb3e	-0.44124788
184	0x3d5107b1	0.051032726
185	0x3ecdf230	0.40223837
186	0x3e43b7ce	0.19113085
187	0xbddbe010	-0.10736096
188	0x3f5eadb9	0.8698383
189	0x3d8b5a4f	0.06804334
190	0x3ce736bd	0.028224343
191	0x3c1233ef	0.008923515
192	0xbe67d00d	-0.22637959
193	0xbe0b9610	-0.13631463
194	0x3e588888	0.21145833
195	0xbf05f1d1	-0.5232211
196	0x3e8dea5d	0.27717867
197	0x3e9fd4b6	0.31216973
198	0xbe6e40ba	-0.23266879
199	0x3e44ee3f	0.19231509
200	0x3dd8f8da	0.1059434
201	0xbdceaefe	-0.10091971
202	0x3d9d3d1e	0.07677673
203	0xbca79124	-0.02045495
204	0xbdedd02c	-0.11611971
205	0xbd0625a2	-0.032750733
206	0xbe6707f7	-0.22561632
207	0x3eb65cd9	0.35617712
208	0x3c6ab3dc	0.014325108
209	0xbeef7229	-0.46766785
210	0x3e4c0100	0.19922256
211	0xbe2a9f90	-0.16662431
212	0xbe4ccd61	-0.20000221
213	0xbe41b36e	-0.18916103
214	0xbe76309e	-0.24041983
215	0xbdeb8efa	-0.1150188
216	0xbef4c77e	-0.4780845
217	0x3ea461da	0.32105905
218	0x3d4a190f	0.049340304
219	0xbe44c477	-0.1921557
220	0xbba23069	-0.0049496186
221	0x3e45ce31	0.19316937
222	0x3dfd5dd3	0.12371411
223	0xbdb2699b	-0.08711549
224	0xbe23a216	-0.159798
225	0x3d7a3643	0.061086904
226	0x3e5744b6	0.21022305
227	0xbe5f4298	-0.21802747
228	0xbdf2a2b6	-0.11847441
229	0xbd22b968	-0.0397276
230	0xbf2c3e21	-0.672823
231	0xbe1087d1	-0.1411431
232	0x3ecad10b	0.39612612
233	0x3def51ac	0.116854995
234	0xbcec6c2d	-0.028860176
235	0xbe463850	-0.19357419
236	0xbece25b5	-0.40263143
237	0xbddf68fa	-0.109086946
238	0xbce02186	-0.027359735
239	0x3e9613e2	0.29312044
240	0x3d193a61	0.03740919
241	0x3e0f431b	0.13990442
242	0x3f146fdc	0.57983184
243	0xbe628f91	-0.22125079
244	0xbe805e3a	-0.2507189
245	0xbd2010de	-0.039078586
246	0xbdcc943e	-0.099892125
247	0xbd194e99	-0.037428472
248	0x3f0eb1b7	0.5573992
249	0x3e8fa484	0.28055203
250	0xbe9e2456	-0.30887097
251	0xbc6e683b	-0.014551218
252	0xbe149eb5	-0.14513667
253	0x3df0993f	0.117479794
254	0xbe673314	-0.22578079
255	0x3d33b0ce	0.043869786

affine_layers.1.bias f4 [64]
0	0xbe2a8215	-0.16651185
1	0xbe2f8470	-0.17140365
2	0x3e9ebb68	0.31002355
3	0xbba4ab33	-0.0050252913
4	0xbe5c9377	-0.21540628
5	0xbd61779d	-0.055045713
6	0x3e681fd2	0.22668388
7	0x3dfd4b0c	0.1236783
8	0xbd23514c	-0.039872453
9	0x3c8dba57	0.017300768
10	0xbe08e5eb	-0.13368957
11	0x3e9abac0	0.30220604
12	0x3d93fa0c	0.07225427
13	0x3c17b170	0.009258613
14	0x3ddc0c13	0.107444905
15	0x3e1598d4	0.1460908
16	0xbdaad6b4	-0.083417326
17	0x3e050b69	0.12992634
18	0x3eac9e44	0.33714497
19	0xbda74aad	-0.0816854
20	0x3b403a72	0.002933171
21	0xbdbf59cf	-0.093433015
22	0xbe16ebe3	-0.14738421
23	0x3e8a9aac	0.2707113
24	0x3e9495b2	0.29020458
25	0xbe5a7317	-0.21332966
26	0x3e4751da	0.19464818
27	0x3c7bd357	0.015370212
28	0xbe59bac1	-0.21262647
29	0xbd645db0	-0.05575341
30	0x3d914165	0.07092551
31	0xbeafb8f0	-0.34320784
32	0x3b8619ae	0.0040924167
33	0x3d66ec30	0.05637759
34	0xbd8d0ae6	-0.06886844
35	0xbd099054	-0.033584908
36	0xbd8cd88f	-0.06877243
37	0xbe010d2e	-0.12602684
38	0x3d820ca8	0.0635007
39	0x3e7e37df	0.24826
40	0x3e96790b	0.29389223
41	0x3e876e91	0.26451543
42	0xbdbc8994	-0.092059284
43	0x3e0b7a67	0.13620912
44	0x3e53a027	0.20666562
45	0xbeb67149	-0.35633305
46	0x3daa4ab9	0.083150335
47	0x3e20929a	0.15680924
48	0x3e68c474	0.22731191
49	0x3eb1be3b	0.34715447
50	0xbe266179	-0.1624812
51	0xbdad4c0a	-0.08461769
52	0xbe3b0729	-0.1826445
53	0x3ec9d200	0.3941803
54	0x3e7eeb91	0.24894549
55	0x3a51d7bd	0.0008004865
56	0x3e239066	0.15973052
57	0x3d2c4a89	0.04206327
58	0x3e9d659e	0.3074159
59	0xbe6d0bb2	-0.23148993
60	0x3e3ccde4	0.18437916
61	0x3e679fa7	0.22619496
62	0x3d5c0498	0.05371532
63	0x3e2c7605	0.16841896

final_mean.weight f4 [3, 64]
0	0xbcaf6aab	-0.021413168
1	0xbddc5109	-0.10757644
2	0xbd53dbbf	-0.051723238
3	0x3e225091	0.15851046
4	0xbd59e944	-0.053200975
5	0xbe45822e	-0.19287941
6	0x3e11522e	0.14191505
7	0x3d6a5cd5	0.057217438
8	0xbdb2c147	-0.08728271
9	0x3e27b64b	0.16378133
10	0x3d2061fb	0.03915594
11	0x3de8e8d1	0.11372531
12	0x3dcb1b6d	0.099173404
13	0x3d23a44f	0.03995162
14	0x3d6b5873	0.0574574
15	0x3d8ab33a	0.06772466
16	0x3c84f23b	0.016228786
17	0x3e216d92	0.15764454
18	0x3cc44642	0.023959283
19	0x3e14eee1	0.1454425
20	0xbe65cd7f	-0.22441672
21	0x3da0f353	0.078589104
22	0xbde26840	-0.1105504
23	0x3d9d9785	0.07694916
24	0x3dd31e43	0.10308506
25	0xbd0edabf	-0.03487658
26	0x3e064910	0.13113809
27	0x3de04194	0.10950008
28	0xbd3fa065	-0.046783824
29	0x3db41ffc	0.08795163
30	0x3d9468cb	0.0724655
31	0xbd2bf976	-0.04198595
32	0x3e9bb8c4	0.30414402
33	0x3e1c2954	0.1525014
34	0xbe6c5477	-0.23079096
35	0xbb6e5361	-0.0036365616
36	0xbdada9c2	-0.08479644
37	0x3d66ef91	0.056380812
38	0x3d74b415	0.059742052
39	0x3de8b305	0.1136227
40	0xbd94b90a	-0.07261856
41	0x3e49bb57	0.1970037
42	0xbd869c3b	-0.06572767
43	0x3ddac16c	0.106814235
44	0xbd870d66	-0.065943524
45	0x3ca8edb1	0.020621153
46	0x3e502fa2	0.2033067
47	0xbd909367	-0.07059365
48	0xbe0e1326	-0.13874492
49	0x3d44e922	0.048073895
50	0xbbc2314e	-0.0059262877
51	0xbdb00bd0	-0.08596003
52	0x3d1b3698	0.03789386
53	0xbdba5184	-0.09097579
54	0x3e246654	0.1605466
55	0xbe5a0d61	-0.21294166
56	0x3b545921	0.0032401758
57	0x3d003a76	0.031305753
58	0x3df0d97a	0.1176023
59	0xbc7f89ca	-0.015596816
60	0x3e9db142	0.307993
61	0x3df679e7	0.1203497
62	0x3e1efe1d	0.15526624
63	0xbdb1ff58	-0.08691281
64	0xbe8f6313	-0.28005275
65	0x3b8d8ead	0.004319987
66	0x3e44a0ef	0.19202016
67	0xbca058da	-0.019573618
68	0x3d0bb571	0.034108583
69	0x3e86d1a0	0.26331806
70	0xbdb0bd7c	-0.08629891
71	0x3d18959c	0.037252054
72	0x3d5533b8	0.052051276
73	0xbdbd4b9c	-0.09242937
74	0xbe697618	-0.22798955
75	0x3e63f1ef	0.22260259
76	0x3dc3ec6c	0.09566578
77	0xbe2f2d5e	-0.1710715
78	0x3d126874	0.035744146
79	0x3d72feec	0.059325144
80	0xbea9cc93	-0.3316389
81	0xbda1e2d0	-0.07904589
82	0xbd8e14b0	-0.069375396
83	0xbd16f3d9	-0.036853645
84	0xbdf8ff32	-0.1215805
85	0xbe355b0c	-0.17710513
86	0xbdc986d9	-0.09840173
87	0x3d36704b	0.044540685
88	0xbcce99d2	-0.025219832
89	0xbdee2704	-0.116285354
90	0xbe04fd42	-0.12987235
91	0x3c3c706e	0.011501415
92	0x3de5ebc6	0.11226611
93	0x3d47e050	0.048797905
94	0x3d2aa2e1	0.04165924
95	0x3d8f0fa5	0.06985406
96	0x3e371c6e	0.17881939
97	0xbc040734	-0.008058358
98	0xbd048075	-0.03234907
99	0x3e078b10	0.13236642
100	0x3dcb6b10	0.0993253
101	0xbdceb9ea	-0.10094054
102	0x3d9f977b	0.077925645
103	0x3acd338a	0.0015655619
104	0x3e010d73	0.12602787
105	0x3d7039f9	0.058649037
106	0x3e174401	0.14772035
107	0x3cbe3890	0.02322033
108	0x3d144fce	0.03620892
109	0xbea80f6a	-0.3282426
110	0x3da652e8	0.08121282
111	0x3d03bcd7	0.032162514
112	0x3d843522	0.06455447
113	0xbeb95284	-0.36195767
114	0x3e112958	0.14175928
115	0x3e3b3275	0.18280967
116	0xbd4fb9eb	-0.050714415
117	0x3d8eac53	0.06966462
118	0x3e8fbf79	0.2807577
119	0x3da35be4	0.07976511
120	0x3eb5ec69	0.3553193
121	0x3dacbe5d	0.084347464
122	0xbeaadf1f	-0.33373353
123	0x3e747ebf	0.23876475
124	0xbe27b640	-0.16378117
125	0xbecb5a3d	-0.39717284
126	0x3d36563b	0.04451583
127	0x3e287afe	0.16453168
128	0xbe05264f	-0.13002895
129	0xbe2a331a	-0.16621056
130	0xbec36d0c	-0.38169134
131	0xbb9b0704	-0.004731061
132	0x3e898d9f	0.2686586
133	0xbd790368	-0.060794264
134	0x3dbc6abe	0.09200047
135	0x3d68a486	0.056797527
136	0x3eaa17a0	0.3322115
137	0xbe2a8716	-0.16653094
138	0x3e50e9cc	0.20401686
139	0xbe099553	-0.13435869
140	0x3e6729b9	0.2257451
141	0x3db8bfbc	0.090209454
142	0xbdd70d5c	-0.10500595
143	0x3e5f3913	0.21799116
144	0xbde96610	-0.1139642
145	0x3e917421	0.28408912
146	0xbe4559d5	-0.1927255
147	0x3e353f1b	0.17699854
148	0x3d27d0a2	0.040970452
149	0xbe91be88	-0.28465676
150	0x3dce5fcf	0.10076868
151	0x3e79f4dd	0.24409814
152	0x3e9eb216	0.30995244
153	0xbdfe0100	-0.124025345
154	0x3dbf18f5	0.09330932
155	0xbd8420ce	-0.064515695
156	0x3ec8307d	0.39099494
157	0x3c4de0e3	0.012565824
158	0xbc8f19fd	-0.017468447
159	0xbd8c92bb	-0.06863924
160	0xbc42b87d	-0.011884806
161	0xbd888ee9	-0.06667883
162	0x3d5bb210	0.05363661
163	0x3e96db0b	0.29463992
164	0x3e4bc991	0.1990111
165	0xbe7dba5e	-0.24778125
166	0xbe1883cc	-0.14894027
167	0x3e985f7f	0.29760358
168	0xbe78732d	-0.24262686
169	0x3df2bfc5	0.118529834
170	0xbdaff1d6	-0.085910484
171	0xbe4ad28f	-0.19806884
172	0x3d2b396a	0.0418028
173	0x3e19c9b1	0.15018345
174	0x3da506c7	0.08057933
175	0x3eb83f81	0.3598595
176	0x3e7031f9	0.23456563
177	0xbe22e64f	-0.15908168
178	0xbe1ab28c	-0.15107173
179	0xbe1f9dba	-0.15587512
180	0x3e48de97	0.19616161
181	0x3e9da6be	0.30791277
182	0x3db38399	0.08765335
183	0xbddf2d9a	-0.1089737
184	0x3d495892	0.049156733
185	0x3d44de4c	0.04806356
186	0xbdf92ea2	-0.12167098
187	0xbdeef7a9	-0.11668331
188	0x3c62a500	0.013833284
189	0xbd27d308	-0.04097274
190	0x3d4d17b1	0.050071422
191	0x3ce03e6a	0.027373511

final_mean.bias f4 [3]
0	0x3d98ece9	0.07467062
1	0x3e18a713	0.14907484
2	0x3d846b85	0.0646582

exp_avg f4 [64, 11]
0	0xbaa8dc1d	-0.0012882982
1	0xb9a63808	-0.00031703734
2	0x3a706cb6	0.00091714726
3	0x392b2f8c	0.00016325543
4	0xbac6fadb	-0.0015180962
5	0xbaac208b	-0.0013132257
6	0x3acfdb8b	0.0015858276
7	0x398684d8	0.00025657448
8	0x3a0567de	0.0005089025
9	0xba6b89e8	-0.0008985088
10	0x38389f08	4.4017128e-05
11	0xbae79c2e	-0.0017670447
12	0x3a07be20	0.0005178172
13	0xb992d431	-0.00028005385
14	0x3ad20055	0.0016021827
15	0xbab71378	-0.0013967594
16	0xbb28ca04	-0.0025755176
17	0x3ae52c2d	0.0017484479
18	0x3aff80b8	0.0019493317
19	0x3a85aedc	0.0010199207
20	0xbac94578	-0.0015355786
21	0xb9363702	-0.00017377365
22	0x3b2ff943	0.0026851452
23	0xbaa2df9b	-0.0012426259
24	0xbadfbd4e	-0.0017069967
25	0xba89ede3	-0.0010523166
26	0x3b8327bf	0.004002541
27	0x3b9870a3	0.004652099
28	0xbbc4d6e8	-0.006007064
29	0xbb1e9821	-0.0024199563
30	0xbb2462a9	-0.002508322
31	0x3bad0aae	0.005280814
32	0xba334645	-0.0006838779
33	0xb9372a01	-0.00017467888
34	0xb9a25257	-0.00030960396
35	0xb7096c8c	-8.191109e-06
36	0xb9760c86	-0.00023465054
37	0xba32f997	-0.0006827353
38	0xb90fc073	-0.00013709236
39	0x3a1bace4	0.00059385435
40	0x398f0c29	0.00027284145
41	0x38126baf	3.49094e-05
42	0xb9d895cf	-0.00041310347
43	0x39061ecc	0.00012790709
44	0x3aa9b78d	0.0012948379
45	0xba3f9d50	-0.0007309513
46	0xbaf7cb87	-0.001890526
47	0x38e61b8d	0.000109723864
48	0x3b43d206	0.0029879822
49	0x3b61a0fd	0.0034428232
50	0xbb9b070b	-0.004731064
51	0xbb01c3a4	-0.0019800449
52	0xbaeda782	-0.0018131586
53	0x3b5e0fbf	0.0033883897
54	0xbac36e70	-0.0014910232
55	0x3aabb9d7	0.0013101649
56	0x36aa428f	5.0741432e-06
57	0xbae14153	-0.0017185606
58	0xba25a792	-0.00063192204
59	0xb95f2df0	-0.0002128405
60	0x39dcbecd	0.00042103828
61	0x3a2e7d80	0.0006656274
62	0x398eb30b	0.00027217748
63	0x3a02aa0b	0.0004984445
64	0x38dc63d4	0.00010509012
65	0x3a69a624	0.00089130015
66	0xbae8b4fb	-0.0017754132
67	0x3ab0c9a5	0.0013487829
68	0x3b11e054	0.0022258954
69	0x3a0f331e	0.0005462634
70	0xbb0ae282	-0.0021192138
71	0xbb45eca5	-0.0030200866
72	0x3b65b5a5	0.0035050896
73	0x3af50a34	0.0018695057
74	0x3a7d5fff	0.00096654886
75	0xbb4fb59c	-0.003169394
76	0x3a2c056d	0.0006562088
77	0x3b030a52	0.0019995165
78	0xb9c8f2cc	-0.0003832787
79	0xbaadbee5	-0.0013255744
80	0xba2fed77	-0.0006711105
81	0x3ae3dc90	0.0017384458
82	0x3b1326d6	0.0022453568
83	0xbaba7399	-0.0014225125
84	0xba0d55b6	-0.0005391495
85	0xb9cc380b	-0.00038951667
86	0x3a99bb38	0.0011728769
87	0xba0d2835	-0.00053847145
88	0x387c6558	6.0175866e-05
89	0xb91c756f	-0.00014921067
90	0xb9a61028	-0.00031674025
91	0x390e10d4	0.00013548444
92	0xba31d809	-0.0006784206
93	0xba1e651a	-0.0006042287
94	0x3ace7538	0.0015751487
95	0x3a24994e	0.00062789477
96	0x3a852de0	0.0010160767
97	0xba51b746	-0.0008000027
98	0x39261df6	0.00015842155
99	0xba111331	-0.0005534171
100	0x3a0e853b	0.0005436723
101	0x39ba0882	0.00035483023
102	0x3a51a223	0.00079968775
103	0x3ab711b2	0.0013967066
104	0x3ad80d3f	0.001648344
105	0xbb11a04a	-0.0022220784
106	0x3a5841f9	0.0008249577
107	0xbb31b914	-0.0027118372
108	0x3b1a7058	0.0023565497
109	0xb9757af9	-0.00023410832
110	0xbb87538b	-0.004129832
111	0x39a1d977	0.00030870337
112	0xba5ebd4c	-0.00084968354
113	0x3b385e08	0.002813222
114	0xbb45ca00	-0.0030180216
115	0xbb298f15	-0.0025872637
116	0x3b51ab18	0.003199285
117	0x3aa8a69b	0.0012867035
118	0x39f7da23	0.00047274036
119	0xbb212b7b	-0.0024592567
120	0xba9fc6f1	-0.0012190026
121	0xb949ff42	-0.00019263945
122	0x3990c6c1	0.00027613904
123	0x3ac21f98	0.0014810441
124	0xbac6aa21	-0.0015156904
125	0xbb8319b6	-0.0040008677
126	0xbb9d8859	-0.0048075137
127	0x3be7095b	0.007050676
128	0x3a8e63fe	0.001086354
129	0x3b8701d0	0.004120089
130	0xbbc06d1f	-0.0058723832
131	0x3af49036	0.0018658701
132	0x3b18f9a9	0.0023342168
133	0xb9b4e0f3	-0.00034499876
134	0x3b0b50f1	0.0021257962
135	0xbb35c9f4	-0.0027738782
136	0x38f830a1	0.00011834619
137	0x39737251	0.00023216872
138	0x3a6d561f	0.00090536656
139	0x367f9c78	3.8089038e-06
140	0x3a745b6f	0.0009321486
141	0xb9be9ab4	-0.00036354887
142	0x3ad2fd71	0.001609726
143	0xba5a3a70	-0.0008324748
144	0x3a4f2909	0.0007902538
145	0x39f1ab2c	0.00046094635
146	0x3a935480	0.0011240393
147	0x39bfe65e	0.00036601996
148	0xba18f1e1	-0.00058343826
149	0xb99e0066	-0.00030136405
150	0x3a8ef7b2	0.0010907559
151	0xb9b7cb4c	-0.00035055948
152	0xb957c2e7	-0.00020576605
153	0xba003a85	-0.00048915326
154	0xb95c3874	-0.00021001865
155	0x39908a51	0.00027568874
156	0xbacd4891	-0.0015661885
157	0x3ab6ba3d	0.0013941001
158	0x3ae69592	0.0017592183
159	0x39f8e546	0.00047473068
160	0xbb2f5fb4	-0.0026759924
161	0xbaa82a0b	-0.0012829913
162	0xba3faff4	-0.0007312291
163	0x3ac2ed26	0.0014871701
164	0xba9a51cd	-0.0011773646
165	0x3b520861	0.0032048451
166	0xba5d24b7	-0.0008435952
167	0x3a95ea9b	0.0011437716
168	0xbb5f64d5	-0.00340872
169	0xb9c97711	-0.0003842642
170	0x3b0010eb	0.0019541334
171	0x3a890f66	0.001045686
172	0x3a51a45b	0.0007997208
173	0x39fafc53	0.00047871712
174	0xb8221862	-3.8646518e-05
175	0x3af8669e	0.0018951481
176	0x3b32f151	0.002730448
177	0xb9ebf5c3	-0.000450058
178	0x3ad979c0	0.001659207
179	0xbb41e993	-0.0029588684
180	0x3a99bbaa	0.0011728902
181	0x3b03754e	0.0020058933
182	0xba997fa7	-0.0011711017
183	0xb8f92e3c	-0.00011881857
184	0xba72003e	-0.00092316035
185	0x3af57472	0.001872672
186	0x3adcfb7d	0.0016859617
187	0x3a101da9	0.0005497584
188	0x38ec135c	0.00011256963
189	0xb9092374	-0.00013078545
190	0xb9c75ae5	-0.0003802396
191	0xb8fd32b5	-0.00012073425
192	0x394884b6	0.00019122925
193	0x3a1dd27f	0.0006020441
194	0x3a7f87f7	0.00097477384
195	0x39038c3f	0.0001254538
196	0x3902afe0	0.00012463285
197	0x3a113246	0.00055388024
198	0xbb627a88	-0.0034557898
199	0x3a9965fc	0.0011703367
200	0xb8d52ca7	-0.000101649486
201	0x3b4f4726	0.00316281
202	0xba3ca276	-0.00071958394
203	0xbb53eeae	-0.003233831
204	0x399a674b	0.00029450128
205	0x3aa3532d	0.0012460701
206	0x38f6338a	0.00011739794
207	0xbaa70d9b	-0.0012745144
208	0xbab3e9b5	-0.0013726266
209	0x3b8570cf	0.0040722857
210	0xba90dafb	-0.0011051589
211	0xba5dfd2f	-0.0008468208
212	0xbb5a1cb0	-0.003328126
213	0x3ab4858c	0.001377271
214	0x3b581963	0.0032974116
215	0xba7d1d81	-0.00096555805
216	0xbaf30a34	-0.001854247
217	0x3915d957	0.00014290713
218	0x3ac02dcd	0.0014662087
219	0x3a8633bf	0.001023881
220	0x397fb7ea	0.00024387208
221	0xb9cd333d	-0.00039138822
222	0x39e141b4	0.00042964297
223	0xba4f3a65	-0.0007905125
224	0xbb08d0b7	-0.0020876357
225	0xbb0213d4	-0.0019848244
226	0x3b63b6fc	0.0034746518
227	0xb8ef139f	-0.00011400063
228	0x3b33e70b	0.0027450945
229	0xbb4b1017	-0.0030984932
230	0x3a015505	0.00049336284
231	0xbab8eed0	-0.0014109258
232	0x3a536a26	0.00080648286
233	0x3b374359	0.0027963726
234	0xba161c27	-0.0005726241
235	0xbb5cdfb6	-0.0033702678
236	0xbb9a9194	-0.0047170613
237	0x3bbb09df	0.005707964
238	0x3a2f971e	0.00066982384
239	0x3b4a0d9e	0.003083087
240	0xbbaa7168	-0.0052015074
241	0x3aa32b0d	0.0012448743
242	0xbb91f339	-0.004454043
243	0x3a55bab2	0.0008153125
244	0xba3d5770	-0.0007222807
245	0x3b8171df	0.003950342
246	0xbb14d221	-0.0022708254
247	0xbb82db03	-0.0039933934
248	0x3b37bef9	0.0028037413
249	0x3a80fb09	0.0009840439
250	0x3a995e69	0.001170111
251	0xbb32e587	-0.0027297453
252	0xbafbf722	-0.0019223432
253	0x3b30deaf	0.0026988199
254	0xb8782482	-5.9161808e-05
255	0x39324684	0.00017001672
