src/collect_models/vanilla/vanilla_walker_best.model (torch, 148046 bytes, 36 tensors)

affine_layers.0.weight f4 [64, 17]
-0.25095308 -0.1614633 0.103724085 -0.26995426 -0.14057566 -0.027682424 -0.018887563 0.26209065
0.24768612 0.15559116 0.5963747 -0.3301694 -0.3163068 0.17005214 -0.24634676 -0.1962686
0.031240134 -0.50358695 0.39292726 0.42906684 0.18034048 -0.001667623 -0.18402503 -0.016555645
-0.105219744 0.49556482 -0.2842316 -0.25539207 0.2795198 0.12785734 -0.08758852 -0.041231092
-0.038060665 0.02141149 -0.56697667 -0.16512665 0.084393315 0.00804238 0.01808817 -0.12159822
-0.054650884 0.07774019 -0.49413726 0.14479381 0.3645579 0.09436615 0.16081634 0.06215278
-0.36890426 -0.1394216 0.047615115 -0.38548374 -0.35446498 -0.18787688 0.24873139 -0.23935317
0.23093951 -0.024176646 0.27574885 -0.31087336 0.07470937 0.2832544 0.028686844 0.11244798
0.052192297 -0.19621421 -0.0905127 -0.11327516 -0.2162751 0.009393621 -0.018658517 -0.23118097
0.16120298 -0.09795939 -0.004377197 -0.080345675 -0.012314211 -0.2832245 -0.5561509 0.25886685
0.19719642 0.05557893 0.14305878 0.16396867 -0.074712865 -0.037411995 0.35511592 -0.19323386
-0.22216132 -0.054107163 -0.08659298 0.04146272 -0.2304449 0.1866542 -0.26658988 0.64813745
-0.48596188 -0.10195484 0.031954743 -0.30785832 -0.14096625 -0.1516399 -0.15385811 0.3268166
-0.28136575 0.017775716 -0.23585646 -0.0077842013 -0.2351852 -0.14173138 0.03992257 0.22212784
-0.19578958 0.13502312 0.06549593 0.07013129 0.06252639 0.052315496 0.013304545 0.2153552
-0.30393806 0.37753028 -0.104257986 0.17893124 0.0335726 0.35964775 0.11536646 -0.22920243
-0.040623464 -0.6468287 0.360178 0.38474384 -0.015805922 0.19217758 0.1327693 0.17319088
0.20408374 -0.012427557 0.016319143 0.14862941 -0.057752 0.14403471 -0.05953549 -0.004295036
-0.4600505 0.08159104 -0.0888899 0.0039186287 0.17030823 0.021116981 0.21743523 0.19014394
-0.080107406 0.18369642 -0.24394658 -0.34511983 -0.035203513 0.031883176 0.1850478 0.24309802
0.4432105 -0.22653526 0.26271623 -0.14870001 -0.17201085 -0.13874559 -0.0076516895 0.33574283
0.18595432 0.25121325 -0.092672564 -0.56619257 0.12394518 0.050050486 0.10025217 0.19594608
0.1048734 0.013564473 -0.19397077 0.009452468 0.14670686 -0.10933675 -0.097811535 -0.042938326
0.03113341 0.045753412 -0.0072107236 -0.22263819 -0.5846854 0.031359453 -0.063279994 0.015456079
0.019155376 0.033560373 -0.23077844 -0.39205435 0.10746805 0.078347735 0.12774727 0.14212142
0.07514691 -0.18631147 -0.059465524 -0.18095233 -0.3925053 0.13504279 0.15717816 -0.20337482
0.11512934 -0.22537778 -0.036630195 0.24889255 -0.23733632 0.008505223 0.15192923 0.006274225
0.10481159 0.02312202 -0.032243297 -0.036322903 0.07266667 -0.062234856 0.40169638 0.15462472
-0.010800124 0.21902916 -0.14225718 -0.09939129 -0.19855623 0.23946424 -0.24718517 -0.03465514
-0.10078706 -0.16471541 0.0051562777 -0.038415343 -0.066974625 0.045738786 0.24456024 -0.008891093
0.13973482 -0.19582768 0.028016768 -0.15691885 -0.036223415 0.15041342 -0.12238242 0.15928076
0.39147967 -0.11533587 -0.20548667 -0.06981279 -0.22480671 -0.20984036 -0.108146615 -0.47994846
00000000: ec7c 80be a356 25be 4b6d d43d 7237 8abe
00000010: 11f3 0fbe 40c6 e2bc 17ba 9abc bf30 863e
00000020: 6ea1 7d3e 4a53 1f3e 03ac 183f f70b a9be
00000030: f7f2 a1be 2622 2e3e 5342 7cbe a3fa 48be
00000040: 4feb ff3c 13eb 00bf c32d c93e a6ae db3e
00000050: 2dab 383e 2494 daba 0f71 3cbe b49f 87bc
00000060: 737d d7bd acba fd3e ce86 91be c0c2 82be
00000070: 381d 8f3e 09ed 023e 9c61 b3bd efe1 28bd
00000080: 80e5 1bbd 2667 af3c 6225 11bf f616 29be
00000090: 67d6 ac3d 30c4 033c a42d 943c 7d08 f9bd
000000a0: 9bd9 5fbd 4036 9f3d 8fff fcbe d444 143e
000000b0: 55a7 ba3e 0a43 c13d 0aad 243e ea93 7e3d
000000c0: 05e1 bcbe 89c4 0ebe 1108 433d 205e c5be
000000d0: 6f7c b5be cc62 40be 71b3 7e3e ff18 75be
000000e0: 687b 6c3e 1a0e c6bc f42e 8d3e cb2a 9fbe
000000f0: 3a01 993d b906 913e ac00 eb3c 204b e63d
00000100: 97c7 553d 61ec 48be b95e b9bd cffc e7bd
00000110: 3877 5dbe b4e7 193c bfd9 98bc b4ba 6cbe
00000120: 6512 253e ef9e c8bd 976e 8fbb 468c a4bd
00000130: 8bc1 49bc cd02 91be e85f 0ebf 328a 843e
00000140: dced 493e bba6 633d 007e 123e 67e7 273e
00000150: 0f03 99bd 523d 19bd c1d1 b53e 19df 45be
00000160: 427e 63be 799f 5dbd a957 b1bd d0d4 293d
00000170: bff9 6bbe 4722 3f3e 787e 88be 56ec 253f
00000180: ffcf f8be b3cd d0bd fae2 023d 9b9f 9dbe
00000190: 7559 10be 7d47 1bbe fb8c 1dbe 8154 a73e
000001a0: 2c0f 90be 619e 913c 5b84 71be 9d12 ffbb
000001b0: 64d4 70be 0822 11be d985 233d 7b75 633e
000001c0: 107d 48be 8043 0a3e bb22 863d fea0 8f3d
000001d0: d60d 803d c648 563d 4efb 593c 1386 5c3e
000001e0: c59d 9bbe a64b c13e 3685 d5bd c039 373e
000001f0: 6c83 093d c023 b83e 4045 ec3d 0bb4 6abe
00000200: ca64 26bd 9196 25bf 4069 b83e 25fd c43e
00000210: 6c7b 81bc 33ca 443e adf4 073e f358 313e
00000220: 54fb 503e f49c 4bbc b9af 853c 4f32 183e
00000230: 5c8d 6cbd d67d 133e 7cdb 73bd 60bd 8cbb
00000240: bd8b ebbe 3419 a73d e80b b6bd d767 803b
00000250: 4865 2e3e 85fd ac3c 57a7 5e3e 18b5 423e
00000260: 5a0f a4bd ea1a 3c3e 22cd 79be 8cb3 b0be
00000270: 8f31 10bd ef97 023d 2c7d 3d3e b0ee 783e
00000280: 7dec e23e dcf8 67be be82 863e d144 18be
00000290: 9d23 30be 5313 0ebe 06bb fabb 7ce6 ab3e
000002a0: cf6a 3e3e 069f 803e 1dcb bdbd fff1 10bf
000002b0: f8d6 fd3d bd01 4d3d 0251 cd3d 17a6 483e
000002c0: ddc7 d63d 863d 5e3c 46a0 46be 86de 1a3c
000002d0: 533a 163e f2eb dfbd 6a51 c8bd 19e0 2fbd
000002e0: 7e0b ff3c ee67 3b3d ef47 ecbb 44fb 63be
000002f0: f1ad 15bf c572 003d f198 81bd 7e3b 7d3c
00000300: bceb 9c3c 9a76 093d 2f51 6cbe 59bb c8be
00000310: 3618 dc3d c774 a03d 2ed0 023e 4788 113e
00000320: a0e6 993d 6fc8 3ebe 1f92 73bd 914b 39be
00000330: 74f6 c8be a848 0a3e 50f3 203e 7d41 50be
00000340: eec8 eb3d 6fc9 66be 8b09 16bd b0dd 7e3e
00000350: 4b08 73be 7e59 0b3c 5693 1b3e 0498 cd3b
00000360: 75a7 d63d 646a bd3c 8c11 04bd 53c7 14bd
00000370: 43d2 943d fae9 7ebd 26ab cd3e f155 1e3e
00000380: 01f3 30bc 2e49 603e deab 11be a98d cbbd
00000390: 5352 4bbe 1d36 753e 1c1e 7dbe 8cf2 0dbd
000003a0: 7269 cebd 28ab 28be fef5 a83b 6859 1dbd
000003b0: fe29 89bd 9858 3b3d 006e 7a3e f2ab 11bc
000003c0: a516 0f3e 0d87 48be 6c83 e53c 56af 20be
000003d0: 015f 14bd fa05 1a3e a2a3 fabd 7f1a 233e
000003e0: 0670 c83e 3635 ecbd 196b 52be 02fa 8ebd
000003f0: bb33 66be 64e0 56be f97b ddbd cebb f5be

affine_layers.0.bias f4 [64]
0.57286674 -0.06524048 -0.28435865 -0.25721106 0.34265354 -0.3193349 0.24471293 0.18892975
0.8364374 0.9000846 0.5947398 0.5826885 0.5660934 0.27695784 0.3220719 0.08210691
-0.4927464 0.6891596 -0.44601732 -0.23088382 -0.6224101 -0.28933054 0.1553063 -0.629093
0.21000102 0.6993601 0.23442267 -0.057732888 -0.24448782 0.3470164 -0.34379634 0.60716337
-0.16268532 -0.3651591 0.52011037 0.4488404 0.15219352 -0.51727027 0.80650747 -0.5907091
-0.036868446 0.2658659 -0.042074684 0.20569922 -0.32524416 0.24727753 0.23174702 0.34038597
-0.30488276 -0.15109399 -0.06859154 -0.21508501 0.25533497 -0.0009449677 0.60461277 0.06259381
-0.240247 -0.011432509 -0.34509137 0.3099811 0.5950579 -0.018770529 0.29474556 -0.7414835
00000000: 65a7 123f cd9c 85bd 7597 91be 2bb1 83be
00000010: 4970 af3e dd7f a3be 0796 7a3e cd76 413e
00000020: c320 563f f26b 663f de40 183f 132b 153f
00000030: 7feb 103f 6bcd 8d3e 9ce6 a43e ab27 a83d
00000040: 4249 fcbe c36c 303f 625c e4be cf6c 6cbe
00000050: 4556 1fbf 2223 94be 9d08 1f3e 3d0c 21bf
00000060: 820a 573e 4309 333f 7f0c 703e 5279 6cbd
00000070: 045b 7abe 22ac b13e 1306 b0be 0f6f 1b3f
00000080: fb96 26be 22f6 babe f425 053f 69ce e53e
00000090: 9ed8 1b3e d36b 04bf 4677 4e3f b638 17bf
000000a0: 5e03 17bd 931f 883e 8156 2cbd d1a2 523e
000000b0: 6786 a6be 5236 7d3e 174f 6d3e 1247 ae3e
000000c0: 9819 9cbe 62b8 1abe b979 8cbd 3f3f 5cbe
000000d0: 44bb 823e b5b7 77ba e7c7 1a3f 2f31 803d
000000e0: 4f03 76be 6b4f 3bbc d1af b0be d8b5 9e3e
000000f0: b755 183f a7c4 99bc e4e8 963e ddd1 3dbf

affine_layers.1.weight f4 [64, 64]
0.03253958 0.016218876 -0.1440074 -0.025185632 -0.37551102 0.46242383 -0.19543737 -0.20380592
-0.350023 -0.1480612 -0.091207646 -0.015528156 0.06792667 0.22970669 0.16616355 -0.25672996
0.1892133 0.19295159 -0.17129757 -0.3145975 -0.1036268 -0.036908135 0.007865332 -0.16373578
0.12103552 -0.59927434 0.3161473 -0.29460296 -0.14953987 -0.5048039 -0.042756557 -0.050749138
-0.25202873 -0.19789529 0.11024764 0.12405489 -0.07564342 -0.0141626885 -0.2710663 0.0844241
-0.10705473 -0.07418046 -0.08095001 0.010978645 -0.0050095306 0.13018656 0.41627347 0.016817003
0.3507083 -0.20316517 -0.24535643 0.31927657 -0.35848492 -0.15848754 -0.02845711 0.17145394
0.29041463 -0.1702738 -0.14607994 -0.4153993 0.4943359 0.12767039 -0.056359954 -0.03594991
0.052081387 -0.03175185 0.18832268 0.08891001 -0.024440281 -0.20763697 0.20039013 -0.18881233
0.039469056 0.023083573 -0.1013611 -0.1730801 0.099960156 -0.19112264 0.53037345 -0.34848905
0.08193436 -0.15255778 -0.24942487 0.13730067 -0.17642212 0.23578067 -0.09817376 -0.12567298
-0.26128054 0.0056275115 -0.2813112 0.0349532 0.18006258 -0.39611864 0.17099899 0.26641452
-0.28561556 -0.02594072 0.080547996 0.109869696 0.17073411 0.058063824 0.2539807 0.026215885
-0.319894 0.08646566 0.15682285 -0.04448877 -0.0068573123 0.3074668 -0.28613755 0.21635178
0.05125149 -0.14475717 0.11707082 0.041862354 0.15754499 -0.37320817 0.23019923 -0.24072981
0.17290397 0.23203348 0.2692651 0.1201813 -0.010495365 0.13026667 -0.16960996 0.050680675
0.05104278 -0.03099143 0.1683586 -0.08608202 -0.112615384 0.088322714 -0.36231756 -0.23161744
0.19539642 0.21734059 0.04629621 0.112985894 -0.30385336 -0.16052154 0.2683486 0.26324838
-0.124015905 0.4298021 -0.35662624 0.35558853 0.26667202 0.26066208 -0.20510723 -0.031065337
-0.04576928 -0.3433857 0.19486314 0.10649285 0.20415813 -0.047155272 -0.21344127 0.13829467
-0.08630724 -0.1326701 0.09761107 -0.054429803 -0.1854394 -0.03308028 0.08199745 0.0032694624
-0.09076523 -0.35435793 0.047659226 0.10383636 0.1510979 0.20266563 0.08913097 -0.06326941
0.05750381 -0.16379996 0.23787549 -0.17908332 0.083396524 -0.32265133 -0.38058892 0.08527503
0.04026579 -0.07722431 0.064557664 -0.09190034 0.08602507 0.3209044 0.17931116 0.104767315
-0.05102338 -0.093217276 0.10590355 -0.068070516 -0.041932814 -0.064573556 -0.19224359 0.1422967
0.30118892 -0.008188673 0.032798324 -0.11111708 0.44524145 -0.006173409 0.27128744 -0.12264114
-0.4269928 -0.08842165 0.20222646 0.22390263 -0.13358833 0.24421266 -0.21234468 0.07712064
0.075948186 -0.059294194 -0.04526791 0.07918152 -0.060698014 0.06711712 -0.01493331 0.28794163
-0.31386656 -0.03353176 0.058345113 -0.5225417 0.1360315 -0.11025673 0.113306955 0.061796144
-0.24628715 0.27754173 -0.15369052 -0.17196444 0.21274382 -0.16247946 -0.07543607 -0.2873439
0.01820634 -0.36965156 0.1568729 0.20684437 0.20077257 0.26812017 0.1256836 -0.17184256
-0.4141187 -0.033047415 -0.23731348 -0.2801583 -0.12322346 -0.1981713 0.16131914 -0.38041964
00000000: 3948 053d 73dd 843c ad76 13be 1952 cebc
00000010: fb42 c0be d1c2 ec3e bc20 48be 80b2 50be
00000020: 3736 b3be 5b9d 17be 13cb babd cf69 7ebc
00000030: 231d 8b3d 3b38 6b3e c726 2a3e 1c72 83be
00000040: 22c1 413e 1a95 453e a168 2fbe ec12 a1be
00000050: 4a3a d4bd fc2c 17bd 98dd 003c 5aaa 27be
00000060: 79e1 f73d 0b6a 19bf 0fde a13e 33d6 96be
00000070: fb20 19be d43a 01bf 8021 2fbd 54de 4fbd
00000080: e909 81be 10a5 4abe 84c9 e13d 7d10 fe3d
00000090: f0ea 9abd 9f0a 68bc 34c9 8abe 8be6 ac3d
000000a0: 833f dbbd edeb 97bd 1ec9 a5bd c6df 333c
000000b0: fd26 a4bb a04f 053e cc21 d53e d0c3 893c
000000c0: 0a90 b33e 880a 50be b73e 7bbe 3878 a33e
000000d0: 568b b7be 8f4a 22be e31e e9bc 9f91 2f3e
000000e0: 3ab1 943e 415c 2ebe fb95 15be 38af d4be
000000f0: 9819 fd3e 07bc 023e b2d9 66bd 3640 13bd
00000100: 4b53 553d 3a0e 02bd a9d7 403e 7416 b63d
00000110: fc36 c8bc c99e 54be 1233 4d3e 0558 41be
00000120: 4eaa 213d c319 bd3c 6996 cfbd e93b 31be
00000130: e9b7 cc3d a7b5 43be 8ec6 073f 286d b2be
00000140: 34cd a73d 1b38 1cbe 3c69 7fbe 8c98 0c3e
00000150: 00a8 34be 7d70 713e 530f c9bd 6bb0 00be
00000160: 90c6 85be fd66 b83b 0608 90be 162b 0f3d
00000170: 5362 383e 10d0 cabe 5c1a 2f3e 7c67 883e
00000180: 343c 92be a281 d4bc 59f6 a43d 5d03 e13d
00000190: ecd4 2e3e 55d4 6d3d c209 823e b2c2 d63c
000001a0: 25c9 a3be e814 b13d 2b96 203e db39 36bd
000001b0: 4eb3 e0bb 4a6c 9d3e 9f80 92be 528b 5d3e
000001c0: 15ed 513d 393b 14be d3c2 ef3d dc77 2b3d
000001d0: 7953 213e 2415 bfbe 59b9 6b3e e081 76be
000001e0: bd0d 313e 2f9a 6d3e 1ddd 893e 9d21 f63d
000001f0: c0f4 2bbc a064 053e 3cae 2dbe 8a96 4f3d
00000200: 3c12 513d bde1 fdbc 3266 2c3e c54b b0bd
00000210: e5a2 e6bd 8ae2 b43d b081 b9be 1f2d 6dbe
00000220: 0016 483e 888e 5e3e 18a1 3d3d 2665 e73d
00000230: ab92 9bbe c25f 24be fd64 893e 7ec8 863e
00000240: 0dfc fdbd 050f dc3e b797 b6be b30f b63e
00000250: 3c89 883e 8075 853e a107 52be bc7c febc
00000260: 9278 3bbd 40d0 afbe 348a 473e ec18 da3d
00000270: d40e 513e e325 41bd 5990 5abe 1e9d 0d3e
00000280: dac1 b0bd acda 07be 50e8 c73d c9f1 5ebd
00000290: d3e3 3dbe 307f 07bd 47ee a73d 7a44 563b
000002a0: 1fe3 b9bd 676e b5be 5236 433d 28a8 d43d
000002b0: 68b9 1a3e 9487 4f3e 4c8a b63d 6493 81bd
000002c0: 1d89 6b3d 2dbb 27be a295 733e 9e61 37be
000002d0: cccb aa3d 8e32 a5be 8ddc c2be ada4 ae3d
000002e0: beed 243d c727 9ebd cf36 843d 3f36 bcbd
000002f0: e92d b03d 954d a43e 589d 373e 3f90 d63d
00000300: e4fd 50bd b3e8 bebd f6e3 d83d 8e68 8bbd
00000310: bec1 2bbd 243f 84bd 81db 44be 3ab6 113e
00000320: 6f35 9a3e c929 06bc 8957 063d 5a91 e3bd
00000330: b0f6 e33e 4f4a cabb 30e6 8a3e 472b fbbd
00000340: cd9e dabe 6916 b5bd 7414 4f3e bb46 653e
00000350: 61cb 08be e212 7a3e e270 59be 6df1 9d3d
00000360: b98a 9b3d 78de 72bd d86a 39bd ec29 a23d
00000370: 7b9e 78bd b374 893d d8aa 74bc 166d 933e
00000380: 1eb3 a0be 9958 09bd 49fb 6e3d 4bc5 05bf
00000390: d74b 0b3e 48ce e1bd 7a0d e83d f41d 7d3d
000003a0: b332 7cbe f319 8e3e 0c61 1dbe 7217 30be
000003b0: 84d9 593e 0461 26be 3a7e 9abd bd1e 93be
000003c0: 7625 953c f842 bdbe 4aa3 203e 03cf 533e
000003d0: 5397 4d3e 0c47 893e 34b3 003e 7ff7 2fbe
000003e0: 5e07 d4be ba5c 07bd 4e02 73be e970 8fbe
000003f0: 955c fcbd 6bed 4abe d830 253e 5dc6 c2be

affine_layers.1.bias f4 [64]
0.1547287 -0.12431975 -0.23480019 0.1033793 -0.38972193 -0.37669697 -0.3584893 -0.31626981
-0.12327088 -0.107791044 0.079795524 0.21435967 -0.43263403 0.18505299 0.2369593 -0.46162817
-0.17963521 -0.013920271 0.0790171 0.14323609 -0.05250504 0.070383616 0.39360285 0.17286472
-0.17662096 -0.041745797 -0.23249348 0.15964644 0.23266497 0.16714455 0.061956853 -0.24877355
-0.18615659 -0.33160922 -0.053732604 0.19527307 -0.24725321 0.1540369 -0.23646232 0.19562905
0.13010566 0.203017 -0.042184938 -0.14201435 -0.42658558 -0.11706499 -0.103095494 0.10340866
-0.24259205 -0.0796982 -0.012832479 -0.28678772 -0.2868655 -0.37915495 -0.18296972 -0.38485375
0.19192517 -0.14741363 0.026243882 -0.19090267 0.18608157 0.14728375 -0.17196268 -0.2374413
00000000: 3371 1e3e 5a9b febd 766f 70be 87b8 d33d
00000010: a289 c7be 6dde c0be e98b b7be 1eee a1be
00000020: 7175 fcbd 8dc1 dcbd d66b a33d 1a81 5b3e
00000030: 3582 ddbe 887e 3d3e 75a5 723e 875a ecbe
00000040: 4bf2 37be d911 64bc b8d3 a13d 7bac 123e
00000050: 860f 57bd 4925 903d 5086 c93e 7303 313e
00000060: 20dc 34be a4fd 2abd c512 6ebe 5b7a 233e
00000070: ba3f 6e3e f127 2b3e 78c6 7d3d 7ebe 7ebe
00000080: d59f 3ebe afc8 a9be b816 5cbd aaf5 473e
00000090: f22f 7dbe d9bb 1d3e 2e23 72be fb52 483e
000000a0: 6b3a 053e b0e3 4f3e 1dca 2cbd 366c 11be
000000b0: 6d69 dabe c5bf efbd bb23 d3bd ebc7 d33d
000000c0: 0d6a 78be cf38 a3bd 513f 52bc d7d5 92be
000000d0: 09e0 92be 9920 c2be 6a5c 3bbe 8d0b c5be
000000e0: 0888 443e 99f3 16be 69fd d63c fd7b 43be
000000f0: 2b8c 3e3e 8dd1 163e fc16 30be d023 73be

final.weight f4 [1, 64]
0.14018352 -0.03822359 -0.0859149 0.034183256 -0.24889418 -0.10991194 -0.2438891 -0.14317942
-0.070331596 -0.06365316 0.069793984 0.09153084 -0.2837362 0.08692899 0.08224501 -0.215987
-0.049027782 0.19950794 0.09394809 0.082895085 -0.38752863 0.1726323 0.16252105 0.034615166
-0.084889874 -0.093448795 -0.119840965 0.12693977 0.04173835 0.1275657 -0.10335535 -0.21725741
-0.0060546543 -0.41599318 -0.053667992 0.11588245 -0.092746645 0.16638064 -0.11139679 0.021663278
0.07248387 0.08233632 -0.042882603 -0.10999768 -0.2977861 -0.07731859 -0.028390514 0.05741455
-0.28235117 -0.1543547 -0.07854595 -0.15900314 -0.21091233 -0.19678552 -0.054151144 -0.13944271
0.17690754 0.002501363 -0.022564866 -0.12004627 0.12026558 0.073845506 -0.022201672 -0.10934938
00000000: 458c 0f3e 5790 1cbd 27f4 afbd be03 0c3d
00000010: 1ede 7ebe 8319 e1bd 10be 79be a09d 12be
00000020: 030a 90bd 975c 82bd 26f0 8e3d 8574 bb3d
00000030: df45 91be d407 b23d 1270 a83d b22b 5dbe
00000040: 5bd1 48bd cf4b 4c3e db67 c03d e6c4 a93d
00000050: 276a c6be 86c6 303e eb6b 263e a2c8 0d3d
00000060: beda adbd 1562 bfbd 2e6f f5bd 80fc 013e
00000070: d5f5 2a3d 95a0 023e f8ab d3bd ba78 5ebe
00000080: 1f66 c6bb 0ffd d4be f8d2 5bbd c753 ed3d
00000090: f4f1 bdbd b05f 2a3e 0024 e4bd 3077 b13c
000000a0: 6c72 943d f29f a83d aba5 2fbd 7746 e1bd
000000b0: 6b77 98be 3559 9ebd 3993 e8bc 852b 6b3d
000000c0: 5590 90be 290f 1ebe b3dc a0bd b8d1 22be
000000d0: 67f9 57be 2582 49be 97cd 5dbd 12ca 0ebe
000000e0: 4027 353e e8ed 233b f4d9 b8bc d2da f5bd
000000f0: cd4d f63d 503c 973d 48e0 b5bc 91f2 dfbd

log_stdev f4 [6]
-1.4507256 -1.7846842 -1.4119873 -1.4960164 -1.5918226 -2.0656338
00000000: 60b1 b9bf 8870 e4bf 00bc b4bf 777d bfbf
00000010: d8c0 cbbf 5833 04c0

affine_layers.0.weight f4 [64, 17]
0.35013962 -0.06016477 -0.38748458 0.2831848 -0.026487542 0.1727066 0.56314105 0.43432102
-0.5586964 -0.10729465 -0.22106338 0.115817174 -0.2335359 0.22536168 -0.6174496 -0.28399807
0.06406057 0.13381161 0.31013557 -0.4236379 -0.019697791 -0.3511618 -0.20192699 -0.23302251
0.007852825 0.019914458 0.08854622 -0.23523036 0.22200707 -0.19157736 -0.26364267 -0.3647016
0.17710824 -0.45900887 0.46606386 -0.7356477 -0.20004201 -0.2523406 -0.0738213 -0.26459485
0.09407623 0.07917241 -0.01180594 -0.06825507 -0.2392455 -0.19169024 -0.03899371 0.48279145
-0.09093103 0.18981402 -0.42181545 0.052117214 -0.28020737 0.078472234 0.10520455 0.07224676
-0.1703882 -0.4203227 0.035833854 -0.06841153 -0.18756971 -0.02616869 -0.1149307 0.10253903
-0.21654576 0.43755648 -0.16013494 0.19944206 0.20583557 -0.06387362 0.39623773 0.026801147
0.13889784 -0.18201049 0.7874742 0.20728786 -0.2315502 0.12092263 -0.029011406 0.6348148
-0.31608495 0.4690953 -0.3688982 -0.06758679 -0.18881087 0.7902299 0.017553492 0.13978115
-0.018387184 -0.060377926 0.30798116 -0.29815423 -0.051663965 -0.4115434 -0.12363375 -0.10370518
0.39561382 0.41443118 0.11628645 0.22755668 -0.13767935 -0.0959873 0.19528675 0.011369579
-0.31724864 -0.2868094 0.22151732 -0.4063066 -0.3021302 -0.13773295 -0.50465024 -0.021217203
0.055108417 0.082919024 -0.5764001 -0.29137135 0.0662136 0.0021649397 -0.0930885 -0.36404526
0.5018093 0.0729573 0.21593031 -0.31142265 -0.021234589 0.05610185 -0.15448816 0.51856893
0.16455787 0.41231364 -0.0016704255 -0.18078007 -0.16881105 -0.31942675 -0.29885486 0.26900738
-0.13345 0.07239601 0.24061832 0.050074108 0.12401039 -0.13281053 -0.3239805 0.052813575
0.45447877 0.041778002 0.17869127 0.037180755 0.22056301 -0.0040099216 -0.081214145 0.05943196
-0.384711 0.15886931 -0.55690116 -0.08717899 0.34010398 0.46782193 -0.040879987 0.15024094
0.36016208 0.040430274 -0.3550237 0.13553002 -0.28271908 0.49565715 0.2229803 0.14161691
-0.07372547 0.12876895 0.10529656 -0.06860491 -0.13778871 -0.002590246 0.6060085 -0.042501345
-0.27467176 0.27695262 0.28733334 0.57837003 -0.26262146 -0.121058814 0.14230241 0.21213745
-0.25697717 0.12804022 0.4491488 0.2575223 -0.122823305 -0.30079687 -0.4502649 0.0861428
-0.4997465 -0.058809172 -0.014794104 -0.16294503 0.10792095 -0.27557006 -0.14703315 -0.059452765
-0.09900023 0.2502184 -0.6097445 -0.14698164 0.012147659 0.4773068 0.14662363 0.074742
0.1599846 0.5643684 0.36565587 -0.24115132 -0.24149743 -0.15900329 0.215569 0.048598483
-0.06879576 -0.16717376 0.68765426 -0.43898863 0.043667145 0.06092462 -0.05859833 0.46633178
-0.048498467 0.65135115 0.12635048 0.14341807 0.0048685046 0.34859014 -0.4608426 -0.05970869
-0.12169219 -0.075402886 0.24343936 0.20139544 0.26455963 0.08613833 0.4433785 0.22797386
0.02005101 -0.3594484 0.32123774 -0.108609945 0.027902877 -0.09916338 0.28217673 -0.006540223
-0.13067576 0.53379595 -0.19016705 -0.007689137 -0.34077942 0.04525253 -0.09422221 0.3184567
00000000: 8045 b33e 556f 76bd 6164 c6be 99fd 903e
00000010: 67fc d8bc 00da 303e 032a 103f 535f de3e
00000020: ba06 0fbf 4cbd dbbd 705e 62be 8e31 ed3d
00000030: 0924 6fbe 36c5 663e 2d11 1ebf 3268 91be
00000040: 3032 833d e905 093e 17ca 9e3e 11e7 d8be
00000050: 435d a1bc 7bcb b3be f3c5 4ebe 749d 6ebe
00000060: 23a9 003c a523 a33c b857 b53d 3ae0 70be
00000070: d255 633e db2c 44be 2cfc 86be 2bba babe
00000080: dd5b 353e 3603 ebbe ec9f ee3e 6853 3cbf
00000090: d0d7 4cbe ca32 81be 9f2f 97bd fa78 87be
000000a0: 0aab c03d 2525 a23d b46d 41bc 50c9 8bbd
000000b0: c6fc 74be 724a 44be deb7 1fbd 7130 f73e
000000c0: 0c3a babd 9b5e 423e 32f8 d7be dc78 553d
000000d0: 5777 8fbe 0db6 a03d 7c75 d73d 1cf6 933d
000000e0: 3f7a 2ebe 8934 d7be 85c6 123d 581b 8cbd
000000f0: 4612 40be b85f d6bc c960 ebbd fcff d13d
00000100: 2cbe 5dbe 6707 e03e 6afa 23be 8a3a 4c3e
00000110: 8fc6 523e 2cd0 82bd acdf ca3e 148e db3c
00000120: 3c3b 0e3e f560 3abe e997 493f 4543 543e
00000130: 7f1b 6dbe 49a6 f73d 54a9 edbc 3983 223f
00000140: e3d5 a1be 422d f03e 3ae0 bcbe f16a 8abd
00000150: a357 41be 824c 4a3f 57cc 8f3c ca22 0f3e
00000160: b8a0 96bc d84e 77bd b5af 9d3e aca7 98be
00000170: 989d 53bd d1b5 d2be b133 fdbd 6263 d4bd
00000180: e58d ca3e 5330 d43e 9727 ee3d 9e04 693e
00000190: d1fb 0cbe fd94 c4bd 40f9 473e 7847 3a3c
000001a0: 6a6e a2be afd8 92be 70d5 623e 6b07 d0be
000001b0: cfb0 9abe de09 0dbe c230 01bf b3cf adbc
000001c0: 5db9 613d 73d1 a93d f58e 13bf a02e 95be
000001d0: ff9a 873d a9e1 0d3b 2fa5 bebd 2464 babe
000001e0: 9376 003f a36a 953d d61c 5d3e ca72 9fbe
000001f0: 29f4 adbc 0ecb 653d 2532 1ebe efc0 043f
00000200: dc81 283e c61a d33e 2ef2 daba 691e 39be
00000210: cedc 2cbe e78b a3be 8103 99be 56bb 893e
00000220: 1ea7 08be 5c44 943d a664 763e 821a 4d3d
00000230: 29f9 fd3d 7cff 07be c6e0 a5be 0c53 583d
00000240: 71b1 e83e 691f 2b3d d8fa 363e d94a 183d
00000250: 45db 613e a965 83bb 9a53 a6bd ed6e 733d
00000260: d7f8 c4be a3ae 223e 1391 0ebf e68a b2bd
00000270: 1c22 ae3e 5b86 ef3e c671 27bd c3d8 193e
00000280: 2a67 b83e 379a 253d abc5 b5be 62c8 0a3e
00000290: 8ec0 90be c6c6 fd3e f354 643e 0604 113e
000002a0: 61fd 96bd 02dc 033e b9a5 d73d bb80 8cbd
000002b0: 7c18 0dbe 1ec1 29bb 6023 1b3f e415 2ebd
000002c0: c7a1 8cbe bccc 8d3e 5b1d 933e 0f10 143f
000002d0: 5276 86be afed f7bd b9b7 113e 8f3a 593e
000002e0: 8392 83be fa1c 033e d5f6 e53e f7d9 833e
000002f0: c98a fbbd 0c02 9abe 1f89 e6be a36b b03d
00000300: c6de ffbe e3e1 70bd f862 72bc 10db 26be
00000310: a905 dd3d 8517 8dbe dc8f 16be be84 73bd
00000320: a2c0 cabd a01c 803e 3718 1cbf 5b82 16be
00000330: fa06 473c 8f61 f43e 8124 163e 5512 993d
00000340: 01d3 233e 737a 103f 3f37 bb3e 5ff0 76be
00000350: 1a4b 77be c2d1 22be 1fbe 5c3e 340f 473d
00000360: cbe4 8cbd 992f 2bbe 1c0a 303f 1ec3 e0be
00000370: 52dc 323d 188c 793d cd04 70bd 0ac3 ee3e
00000380: 54a6 46bd f3be 263f 0562 013e 30dc 123e
00000390: fa87 9f3b 687a b23e 90f3 ebbe 1991 74bd
000003a0: c139 f9bd d46c 9abd 2b48 793e 9b3a 4e3e
000003b0: 5c74 873e 4b69 b03d 8202 e33e fb71 693e
000003c0: 0442 a43c 9f09 b8be 4679 a43e e46e debd
000003d0: 9394 e43c 2c16 cbbd 7879 903e 5e4f d6bb
000003e0: decf 05be daa6 083f 27bb 42be 28f5 fbbb
000003f0: a47a aebe b85a 393d 93f7 c0bd c20c a33e

affine_layers.0.bias f4 [64]
-0.4295062 -0.0050487304 0.31841794 0.12057025 0.17808613 0.06187849 0.2992097 -0.034405235
-0.15964833 -0.2296136 -0.1496242 -0.27970532 0.2853241 0.1634506 -0.19625278 0.030921753
-0.2249547 -0.22862592 -0.15480185 -0.3104145 0.09011636 -0.22225593 0.06165159 0.28027868
-0.39812768 -0.01886822 -0.28434053 0.32685885 0.018245768 -0.55630165 -0.099994436 0.41148132
-0.074064046 -0.13603866 0.14615484 0.26015955 -0.03662561 -0.19578904 0.13629474 0.20969842
-0.20842563 0.1034503 0.17525023 -0.22981323 -0.35809767 0.22891645 0.37235954 0.094886586
-0.28651586 0.15184553 0.38586876 -0.2953133 0.1769593 0.14323197 -0.046940032 0.115681
0.5377842 0.22649005 -0.021971652 -0.13105738 -0.21060169 -0.0959228 -0.039430283 -0.024669599
00000000: 3de8 dbbe d26f a5bb ad07 a33e 89ed f63d
00000010: 365c 363e 4d74 7d3d 0432 993e 81ec 0cbd
00000020: da7a 23be d41f 6bbe 1637 19be 8935 8fbe
00000030: 0016 923e 985f 273e 7df6 48be 9e4f fd3c
00000040: 865a 66be ea1c 6abe 6084 1ebe a6ee 9ebe
00000050: ed8e b83d 0f97 63be 6186 7c3d b080 8f3e
00000060: 64d7 cbbe 8691 9abc 1595 91be 0b5a a73e
00000070: 2678 953c c969 0ebf e2c9 ccbd aead d23e
00000080: e4ae 97bd b84d 0bbe 9da9 153e a233 853e
00000090: bc04 16bd ec7c 48be d990 0b3e 2fbb 563e
000000a0: 876d 55be c0dd d33d cc74 333e 2954 6bbe
000000b0: 9458 b7be 1369 6a3e e9a5 be3e e653 c23d
000000c0: 35b2 92be 657d 1b3e 9790 c53e 4e33 97be
000000d0: d234 353e 67ab 123e 3144 40bd 29ea ec3d
000000e0: 3aac 093f 02ed 673e e5fd b3bc e833 06be
000000f0: f8a7 57be 2c73 c4bd a681 21bd e617 cabc

affine_layers.1.weight f4 [64, 64]
-0.06889802 0.005616826 0.15830848 -0.5546187 0.21107157 -0.24852657 -0.017561875 0.526451
0.1790932 -0.118212074 0.10663622 -0.09360531 0.26228905 -0.13615248 -0.13178444 -0.057604227
-0.10056754 0.17629951 0.25825408 0.092693225 0.2822162 0.14304233 -0.53319293 -0.11686325
0.60919654 -0.11513465 0.054240704 -0.05608068 0.18581925 -0.08299884 0.31450424 -0.11817974
-0.3482107 -0.2356279 -0.33469543 -0.026790904 0.19513592 0.05995745 0.14975336 0.55904263
-0.24972932 -0.20476654 0.21876305 0.29043362 0.18987632 0.35276416 0.28135532 -0.12802716
-0.076083 0.7392802 -0.15816897 -0.12692852 0.056135412 -0.26017925 -0.45460913 0.25259748
-0.036814347 -0.0017503297 0.11526495 0.12840524 -0.33664072 -0.21205652 0.29435688 0.051559526
0.5066756 -0.54922676 -0.47715524 -0.47034118 0.12159384 -0.028470678 0.09295555 0.20441543
-0.09759094 -0.12592866 0.60507935 -0.06978522 0.12312957 0.42456946 0.4557955 0.16119571
-0.2546826 -0.029905032 -0.3058141 -0.17789508 -0.09762819 0.20551854 0.23008211 -0.16183357
-0.38119018 -0.12745497 0.26169887 -0.15986471 0.2742744 -0.13562894 -0.06739405 0.09529724
-0.26491925 -0.68011904 -0.03554412 0.33186424 0.39671674 -0.018393388 -0.31928262 0.23984484
-0.36326393 -0.18785994 0.13391039 0.21064956 0.4550523 0.12238301 0.07136649 0.23972394
0.06970128 -0.1733696 -0.19632572 -0.39647472 0.15109046 -0.240286 -0.23752236 -0.24424392
0.19809307 0.0037781186 -0.29343268 -0.25665143 0.0717736 -0.022649884 -0.12946789 0.12948003
0.43024242 -0.5378904 -0.075337544 0.38253474 -0.4602526 0.11071219 -0.45405906 -0.0019127781
-0.08249331 0.51277447 0.10389814 -0.14023376 -0.13582341 0.041365318 -0.52669513 -0.1467667
-0.008481159 0.08155546 0.0109759085 0.0141541865 -0.21515831 0.16905752 0.09219785 -0.19847204
0.29857522 0.26301146 -0.15095061 -0.33299202 -0.11074199 0.23836462 -0.47959548 0.10271893
0.16167134 0.022209644 0.07518262 -0.26329097 -0.105803035 0.15213034 -0.112120196 -0.06471082
0.7343283 0.17444402 -0.30282688 -0.29808828 0.7919681 -0.20042372 -0.2505104 0.16459982
-0.18401779 -0.7100662 -0.38104585 0.17077222 -0.11047475 -0.08666541 0.20288114 -0.09825387
-0.31309664 -0.017382706 -0.28386873 -0.16089177 -0.038812198 0.40943038 0.11865373 -0.19902667
-0.3926392 0.0791443 -0.39119193 -0.08297696 -0.30578402 -0.2224368 0.284927 -0.030470189
-0.07127859 0.37148672 0.24151777 0.35123715 0.32474235 -0.05977473 0.021969642 -0.035443302
0.46382487 0.16692518 -0.08506546 0.10053261 -0.36329374 0.18027757 0.17752476 -0.08575122
0.1316982 0.34280184 -0.28493592 0.23147652 0.38208482 0.42573613 -0.2855113 -0.15498456
0.21104592 0.2910358 0.08379397 0.36972192 0.10466081 -0.09538122 -0.16559792 -0.24962305
-0.09044504 -0.035720173 -0.26293278 0.3111301 -0.43833125 -0.14736423 0.028118959 -0.16575718
0.03198885 -0.28015125 0.36016575 0.31448644 -0.3414064 0.025539547 -0.009099302 0.09644338
-0.26720122 -0.015745888 -0.30478978 0.0016277988 0.0317714 0.47098416 0.6232872 -0.44792452
00000000: 681a 8dbd 5a0d b83b 9e1b 223e 7efb 0dbf
00000010: 2523 583e c07d 7ebe ecdd 8fbc 7ec5 063f
00000020: 3564 373e 2c19 f2bd 1764 da3d 24b4 bfbd
00000030: c04a 863e 8e6b 0bbe 80f2 06be 69f2 6bbd
00000040: 5bf6 cdbd dc87 343e e139 843e f2d5 bd3d
00000050: a47e 903e b079 123e 557f 08bf 0056 efbd
00000060: 4ef4 1b3f b7cb ebbd 802b 5e3d dbb4 65bd
00000070: 6747 3e3e 4cfb a9bd b306 a13e 3808 f2bd
00000080: ac48 b2be 7148 71be 335d abbe 9978 dbbc
00000090: b6d1 473e f195 753d f258 193e 6b1d 0f3f
000000a0: 0bb9 7fbe 52ae 51be 6c03 603e b7b3 943e
000000b0: f06e 423e 819d b43e ce0d 903e 8d19 03be
000000c0: 67d1 9bbd 7841 3d3f 0cf7 21be 8df9 01be
000000d0: 3fee 653d 3736 85be 87c2 e8be 7554 813e
000000e0: a4ca 16bd 526b e5ba 0810 ec3d aa7c 033e
000000f0: 2c5c acbe 5825 59be f2b5 963e 1530 533d
00000100: 7eb5 013f 209a 0cbf b14d f4be 8fd0 f0be
00000110: 3106 f93d 573b e9bc 7b5f be3d 4752 513e
00000120: c2dd c7bd 71f3 00be 7be6 1a3f 8eeb 8ebd
00000130: 5b2b fc3d 2b61 d93e 075e e93e 7d10 253e
00000140: c265 82be 66fb f4bc aa93 9cbe 212a 36be
00000150: 4af1 c7bd 7473 523e a59a 6b3e b3b7 25be
00000160: 5c2b c3be 8e83 02be 65fd 853e 93b3 23be
00000170: b26d 8c3e 50e2 0abe e405 8abd 332b c33d
00000180: 7fa3 87be 481c 2ebf b696 11bd 1cea a93e
00000190: 751e cb3e bbad 96bc 0379 a3be e399 753e
000001a0: bbfd b9be 5b5e 40be ce1f 093e 85b4 573e
000001b0: 9dfc e83e f2a3 fa3d 9828 923d 317a 753e
000001c0: 8bbf 8e3d cd87 31be 9c09 49be bcfe cabe
000001d0: 75b7 1a3e 880d 76be 1039 73be 141b 7abe
000001e0: e9d8 4a3e 509a 773b cf3c 96be d167 83be
000001f0: 0afe 923d 408c b9bc 3b93 04be 6a96 043e
00000200: bc48 dc3e 2fb3 09bf 924a 9abd 98db c33e
00000210: 3ba6 ebbe 13bd e23d 6e7a e8be 2fb6 faba
00000220: 41f2 a8bd 3045 033f 8cc8 d43d 7099 0fbe
00000230: 4b15 0bbe ae6e 293d 7ed5 06bf 034a 16be
00000240: 8ff4 0abc 8d06 a73d 4cd4 333c f6e6 673c
00000250: 7652 5cbe 6a1d 2d3e 3ad2 bc3d 413c 4bbe
00000260: dade 983e 70a9 863e cc92 1abe ee7d aabe
00000270: b2cc e2bd db15 743e 8a8d f5be 4d5e d23d
00000280: 2c8d 253e 00f1 b53c 58f9 993d 13ce 86be
00000290: 43af d8bd 0ec8 1b3e 469f e5bd 1b87 84bd
000002a0: f1fc 3b3f 74a1 323e 200c 9bbe 079f 98be
000002b0: 6cbe 4a3f e03b 4dbe e642 80be db8c 283e
000002c0: 296f 3cbe e6c6 35bf 7118 c3be eade 2e3e
000002d0: 9640 e2bd a27d b1bd 13c0 4f3e 5339 c9bd
000002e0: 344e a0be 2d66 8ebc 3e57 91be d0c0 24be
000002f0: 8af9 1ebd dca0 d13e ba00 f33d a6cd 4bbe
00000300: 0108 c9be 6816 a23d 4f4a c8be d3ef a9bd
00000310: b98f 9cbe 79c6 63be f4e1 913e 9e9c f9bc
00000320: 82fa 91bd 8233 be3e 6f50 773e 5bd5 b33e
00000330: a144 a63e 59d6 74bd aef9 b33c ff2c 11bd
00000340: 747a ed3e 6fee 2a3e cd36 aebd 0be4 cd3d
00000350: a301 babe af9a 383e 0dc9 353e 569e afbd
00000360: e5db 063e b983 af3e 1fe3 91be 2e08 6d3e
00000370: 9fa0 c33e 16fa d93e 8a2e 92be 46b4 1ebe
00000380: 6c1c 583e a502 953e 2c9c ab3d 314c bd3e
00000390: 6858 d63d 3b57 c3bd 8092 29be 2f9d 7fbe
000003a0: 403b b9bd 514f 12bd 209f 86be 724c 9f3e
000003b0: f46c e0be a6e6 16be bb59 e63c 40bc 29be
000003c0: be06 033d fc6f 8fbe a567 b83e 5e04 a13e
000003d0: d2cc aebe 5038 d13c 3d15 15bc 1b84 c53d
000003e0: 99ce 88be 85fd 80bc 680d 9cbe dd5b d53a
000003f0: ba22 023d d624 f13e c08f 1f3f 5d56 e5be

affine_layers.1.bias f4 [64]
0.0074866354 -0.0070315734 -0.25110126 -0.095415965 0.31880856 0.04259394 0.2809448 -0.08886777
-0.020561047 -0.16205658 0.3294678 0.24395216 0.24433151 0.017713413 0.17477939 -0.047096193
-0.071095 0.28097346 0.08877749 -0.3396316 -0.42023343 0.32382962 -0.21442312 0.3940565
-0.020990679 0.48578718 -0.3393733 0.21248937 0.18762189 0.1513426 0.07221172 -0.13447095
-0.010842443 -0.13700491 -0.23972876 0.13485971 0.31329432 0.068988636 -0.1579979 0.026480714
0.28941312 -0.13024615 -0.18871392 -0.28687152 -0.17550653 -0.124661356 0.34076422 -0.21092981
-0.3449469 0.050191246 0.102579325 -0.16096413 -0.067438945 0.18819962 -0.07167212 -0.30628285
-0.10242366 -0.09314889 0.05043329 0.1491699 -0.1292481 -0.4085054 -0.019683959 0.035892554
00000000: 7352 f53b 1d69 e6bb 5890 80be 7269 c3bd
00000010: e03a a33e fc76 2e3d ffd7 8f3e 4e00 b6bd
00000020: a46f a8bc 29f2 25be 01b0 a83e 98ce 793e
00000030: 0a32 7a3e b81b 913c 5ef9 323e f0e7 40bd
00000040: 419a 91bd c1db 8f3e f9d0 b53d 31e4 adbe
00000050: d628 d7be ffcc a53e bc91 5bbe c6c1 c93e
00000060: a5f4 abbc 19b9 f83e 56c2 adbe d096 593e
00000070: f41f 403e 8ef9 1a3e bde3 933d c1b2 09be
00000080: 81a4 31bc 044b 0cbe 757b 75be aa18 0a3e
00000090: 1d68 a03e ea49 8d3d 34ca 21be 15ee d83c
000000a0: f52d 943e 3f5f 05be 393e 41be d3e0 92be
000000b0: fcb7 33be 744e ffbd a678 ae3e fcfd 57be
000000c0: e19c b0be 5695 4d3d 1c15 d23d c8d3 24be
000000d0: 6e1d 8abd 67b7 403e d5c8 92bd 1bd1 9cbe
000000e0: 7fc3 d1bd d8c4 bebd 2393 4e3d ffbf 183e
000000f0: 9d59 04be 9f27 d1be 4140 a1bc 1204 133d

final_mean.weight f4 [6, 64]
0.05820301 -0.07306356 0.12239674 -0.12728706 -0.10335003 0.1018865 0.2900909 0.11185847
-0.05396096 -0.024760837 0.11908598 -0.026960624 -0.02424988 0.1460513 0.15613036 -0.049861353
0.13897152 0.064877875 -0.09239367 -0.16423796 -0.08775258 -0.054553725 -0.060663696 0.022191511
-0.066639155 0.23397355 -0.04784917 0.3454052 0.25800845 0.13895418 -0.10646477 0.11374077
0.0059815384 -0.18096009 0.061537754 -0.08300362 0.2483698 0.058592137 -0.20708483 0.07189825
0.01824353 0.17830254 -0.046983242 -0.0730587 -0.10158048 0.011127476 0.21191305 -0.11938131
-0.01297772 -0.13108964 -0.09036743 -0.051929183 0.056373075 0.15614823 -0.088885754 -0.20808354
0.16787197 -0.21376266 0.046095576 0.23025852 -0.056161385 -0.12493741 0.044448793 0.09778091
0.18627316 -0.0724225 -0.19888756 -0.0013661985 0.0033455784 0.16339816 0.060958013 -0.08243876
-0.3341996 0.07418291 -0.0170719 0.14846322 -0.10364352 -0.06917074 -0.10782522 -0.07013741
-0.2662693 0.09981526 0.12912704 -0.062223725 -0.020481262 -0.15076637 0.24884662 -0.06987492
-0.18500735 0.16047665 -0.10381331 0.07278288 0.14886515 0.2097014 -0.0149500305 -0.16601382
-0.16264476 0.075425446 0.19214562 0.06724821 -0.012616467 0.1765231 -0.20240119 -0.010096493
0.06723923 0.017009404 -0.26343924 0.05763885 -0.10329967 -0.2666876 -0.0073614004 0.10086281
-0.06003658 -0.04592089 0.11037875 -0.071253866 0.1318997 -0.15729807 0.20166776 -0.067873895
-0.11585644 0.09085846 -0.21192119 0.031008273 0.0037927402 -0.185513 0.08906812 0.16516241
-0.04844376 0.008456396 -0.11426302 -0.15542334 0.0078294305 0.16874512 0.042893127 -0.3147239
-0.0039989036 -0.03582876 0.11984377 -0.02554484 0.17790487 -0.07622607 0.064186886 0.19415408
-0.14751829 -0.11034535 0.17170998 -0.02234312 -0.0602003 -0.02129764 0.09470104 -0.050408207
-0.06061255 0.004316538 0.054642506 -0.12941894 -0.22436285 -0.31379983 -0.035780404 -0.2934304
-0.002204959 0.20521203 -0.19898961 -0.09059016 0.011303184 -0.2708503 -0.25759766 0.19051626
-0.11812071 -0.10368427 0.12822777 -0.1617454 0.033354543 -0.18839191 -0.043313257 -0.33758768
0.11707794 -0.026012214 -0.19578288 -0.2261585 0.09812296 0.11231886 0.16872332 -0.03785271
0.012128071 0.14628436 0.20006162 -0.046135694 0.22738291 0.041471686 0.30779588 0.27936274
0.031290248 -0.12362623 -0.16870248 0.03766877 0.14582822 -0.06753513 -0.18584788 -0.09557228
0.06399802 -0.17597568 0.19491038 -0.123531975 0.04778763 -0.1427655 0.20860238 0.14636785
-0.023587346 0.04092005 0.048253957 -0.077463895 -0.13125736 0.15506317 -0.038213752 0.1843015
-0.0856992 0.06909948 -0.17148444 0.07190249 -0.13960339 0.27913603 0.16365197 0.08977532
0.19144954 0.012103595 -0.077319 0.1766041 -0.029803727 0.00848286 0.06925699 -0.032883305
0.1355992 -0.1700105 -0.011903832 0.1660262 -0.16342871 -0.02620759 0.020993859 0.17560975
-0.176336 0.049951244 0.15101925 -0.11314997 -0.22659941 0.07400067 0.11094704 -0.13446733
0.0663595 0.13004312 -0.04888852 -0.1126323 0.05516174 -0.13876773 0.010342216 -0.0423457
00000000: 4866 6e3d 59a2 95bd 24ab fa3d 8a57 02be
00000010: 2ea9 d3bd dfa9 d03d cb86 943e 0e16 e53d
00000020: 2b06 5dbd 3dd7 cabc 5ae3 f33d 87dc dcbc
00000030: afa7 c6bc 798e 153e a3e0 1f3e 6b3b 4cbd
00000040: 8d4e 0e3e b1de 843d e438 bdbd ff2d 28be
00000050: a0b7 b3bd ba73 5fbd 7f7a 78bd f9ca b53c
00000060: 1c7a 88bd c396 6f3e 7efd 43bd f3d8 b03e
00000070: af19 843e 014a 0e3e 340a dabd ecf0 e83d
00000080: c800 c43b 9a4d 39be 030f 7c3d cdfd a9bd
00000090: a754 7e3e 4ffe 6f3d 0c0e 54be 643f 933d
000000a0: 7573 953c f194 363e 8071 40bd cd9f 95bd
000000b0: 6d09 d0bd 0450 363c bcff 583e 307e f4bd
000000c0: 81a0 54bc 5d3c 06be 8f12 b9bd b2b3 54bd
000000d0: 74e7 663d 52e5 1f3e bc09 b6bd da13 55be
000000e0: a1e6 2b3e 99e4 5abe b7ce 3c3d e4c8 6b3e
000000f0: 7b09 66bd 2fdf ffbd f00f 363d 5c41 c83d
00000100: 64be 3e3e 3f52 94bd 2ea9 4bbe 0412 b3ba
00000110: 7e41 5b3b d951 273e 1caf 793d a7d5 a8bd
00000120: 361c abbe 36ed 973d 5fda 8bbc be06 183e
00000130: 0e43 d4bd 64a9 8dbd 78d3 dcbd 34a4 8fbd
00000140: 7354 88be f16b cc3d e139 043e 4ede 7ebd
00000150: 52c8 a7bc 8062 1abe a6d1 7e3e 951a 8fbd
00000160: 9172 3dbe fe53 243e 139c d4bd 310f 953d
00000170: 1b70 183e f7bb 563e f9f0 74bc 87ff 29be
00000180: 598c 26be a878 9a3d d2c1 443e 6eb9 893d
00000190: 4cb5 4ebc 79c2 343e 4242 4fbe c36b 25bc
000001a0: b9b4 893d 4e57 8b3c 82e1 86be b716 6c3d
000001b0: c78e d3bd 478b 88be e737 f1bb 2991 ce3d
000001c0: ebe8 75bd 8b17 3cbd 410e e23d 8ced 91bd
000001d0: b710 073e bf12 21be fe81 4e3e 7801 8bbd
000001e0: 2446 edbd 0014 ba3d de01 59be 1005 fe3c
000001f0: 9f8f 783b 1ff7 3dbe 5969 b63d 5620 293e
00000200: f76c 46bd b28c 0a3c bb02 eabd 4c27 1fbe
00000210: 0347 003c 85cb 2c3e b4b0 2f3d 7e23 a1be
00000220: 3c09 83bb 2ec1 12bd a770 f53d 6a43 d1bc
00000230: b22c 363e 6a1c 9cbd 6a74 833d 54d0 463e
00000240: 090f 17be befc e1bd bed4 2f3e eb08 b7bc
00000250: 9794 76bd 6378 aebc 9ef2 c13d d678 4ebd
00000260: dd44 78bd bf71 8d3b d2d0 5f3d 6686 04be
00000270: 60bf 65be 5faa a0be 798e 12bd 823c 96be
00000280: 1381 10bb 1a23 523e efc3 4bbe 5587 b9bd
00000290: fd30 393c e4ac 8abe d7e3 83be b216 433e
000002a0: 45e9 f1bd 6b58 d4bd 244e 033e 96a0 25be
000002b0: c69e 083d cfe9 40be 3e69 31bd 4bd8 acbe
000002c0: 8fc6 ef3d 9117 d5bc 4f7b 48be 1896 67be
000002d0: b1f4 c83d 6e07 e63d cec5 2c3e 710b 1bbd
000002e0: d1b4 463c 91cb 153e f4dc 4c3e c8f8 3cbd
000002f0: 11d7 683e 37de 293d 6c97 9d3e a208 8f3e
00000300: 342a 003d c02f fdbd 58c0 2cbe 914a 1a3d
00000310: fe53 153e dc4f 8abd e84e 3ebe 66bb c3bd
00000320: 6511 833d f832 34be 9696 473e 55fe fcbd
00000330: f6bc 433d 1f31 12be dd9b 553e 74e1 153e
00000340: 403a c1bc c89b 273d f1a5 453d 64a5 9ebd
00000350: 5468 06be e1c8 1e3e 0686 1cbd 88b9 3c3e
00000360: 1083 afbd 0784 8d3d 9e99 2fbe 9d41 933d
00000370: 31f4 0ebe ebea 8e3e 6294 273e 1fdc b73d
00000380: 590b 443e 284e 463c 6d59 9ebd b5d7 343e
00000390: f226 f4bc b2fb 0a3c 9cd6 8d3d a5b0 06bd
000003a0: 84da 0a3e 3c17 2ebe 4a08 43bc c602 2a3e
000003b0: db59 27be 4db1 d6bc 50fb ab3c 0bd3 333e
000003c0: 6d91 34be ad99 4c3d caa4 1a3e 2cbb e7bd
000003d0: ad09 68be aa8d 973d 3438 e33d ceb1 09be
000003e0: 7de7 873d 062a 053e 543f 48bd c3ab e6bd
000003f0: 47f1 613d 2119 0ebe 6672 293c af72 2dbd

final_mean.bias f4 [6]
0.26522216 0.17090842 0.045352455 0.17178874 0.05695867 -0.07580645
00000000: 33cb 873e 9e02 2f3e 7fc3 393d 63e9 2f3e
00000010: 7f4d 693d 6940 9bbd

exp_avg f4 [64, 17]
0.0021796047 0.00041162135 0.0018896908 0.0015212178 0.0018649334 -0.002164101 0.0011833443 -0.002017556
0.0010249957 0.0011793294 -0.0012751354 -0.0005661818 -0.0012266228 -0.0014141459 -1.9202627e-05 -8.138723e-05
0.002248927 -0.0007599245 -0.0009260909 -0.0007776394 -0.000109581015 -0.0006569567 0.00033015368 -0.0006763462
0.00027007086 0.00025926327 -0.00010788662 0.001115446 0.00068186555 0.0011823816 0.0010670595 -0.0002553835
0.00010672452 -0.0009922774 0.00082794856 0.000910167 0.0020668618 0.0013741023 0.0018424243 -0.0016398659
0.0010243754 -0.0010175181 -0.0015996407 0.0008753172 -0.002946444 -0.0015440423 -0.0019542223 -0.0026310831
-0.0007337649 -0.00041543526 0.0014556254 2.9375953e-05 0.0002189308 -0.000114566734 0.0010236488 0.00078895607
-0.00017125305 -0.00012306581 -0.0007879356 0.0010625378 0.0006450953 0.0011740695 0.0013828097 0.0010418973
0.0009689652 -8.1227096e-05 0.0005316229 -0.00018274055 0.0009038975 -9.526776e-05 0.0022137417 0.0014480117
0.0013851039 -0.0025217456 0.0012832158 -0.0007405401 -0.0020077743 0.0002284593 -0.0035368896 -0.0024399357
-0.0025455835 -0.0034312876 -0.00022806667 -0.00093021797 0.0022516444 0.0002813957 -4.3853966e-06 -3.5834673e-05
-0.0007310617 -0.00013009619 0.0012718809 -3.236152e-05 0.0010302668 -0.00066477625 -0.00016800434 0.00017627842
-0.0006479743 -0.00039766476 -6.707232e-05 0.0010049483 -0.00035806256 2.3913266e-05 -0.00037945967 0.00018604886
-0.0002425669 2.7942648e-05 -4.061584e-05 0.0007064692 -4.2443637e-05 0.00053280266 -0.0009192924 -0.00012555343
2.1209866e-05 -7.327751e-05 0.00010511529 0.00015836135 0.00040456193 -0.0002013814 -6.408048e-05 0.00041420807
-0.0003810227 5.5981494e-05 0.00029289353 -0.00034393236 -0.00075549807 0.00021898988 -0.0006076249 7.222632e-06
0.00035143647 -0.0011002737 -0.00033041343 -0.00033265736 -0.00025198542 -0.00048207905 -0.0002763201 5.3463635e-05
-0.00021614583 -0.0004090416 0.000999268 0.00040071062 0.00071052846 -0.00029759973 0.0002565111 0.00028414163
-0.001187537 0.00012180808 -0.0010846972 -0.00067755417 -0.0008493369 -0.0008804456 -0.0006174817 -1.8687391e-05
-0.00029335002 0.00076563074 -2.7755688e-05 0.0018955852 0.0010712164 0.0014052439 -0.0020372192 0.0010344147
-0.00063891645 -0.0011892883 0.00021056482 -0.00227968 -0.0012459046 -0.0017863372 -0.0024265414 -0.00056935294
-0.00018199634 0.0015284648 0.0005290032 -0.000107008986 0.0019216628 0.0021146503 0.002031542 -0.0016843724
0.00033326942 -0.00094324833 0.00049320917 0.00078976236 0.00022963651 0.0009359404 -0.00025007658 -0.00041342987
-0.00029803932 0.00068983657 0.0009422788 0.00019729845 6.153903e-05 0.00027756675 -0.0007250869 -0.00012250253
0.00073694217 0.00030571024 0.0004051504 -0.00048898207 2.255283e-05 -0.00072962674 -0.00073574064 -0.0006168407
-0.00025451998 0.00027669844 -0.00036965212 0.0002323117 -0.0023738595 -0.0006824415 -0.0024748568 -0.0012629151
-0.001367688 0.0026771375 -0.0013419425 0.0017154102 0.0013144818 -0.0007513044 0.004697048 0.0036425914
0.0031550562 0.003913651 0.00037742662 0.0007749414 -0.0024339207 -0.00048165396 -0.00021530043 -0.0008673325
-0.0001136654 -0.0005003893 0.00085102196 -0.00049435283 0.0004169936 0.0015145078 -0.00023584317 0.0025415227
0.0018448159 0.0015536868 0.0018442192 0.00052321993 0.0006286626 -0.0009258718 0.0006325697 -0.00021094037
-0.0004453335 -0.00018706318 -0.0001033596 0.00059285184 0.00010368523 0.00012922371 0.0015373346 6.238542e-05
0.0020823495 0.001756097 0.0007323807 0.0015866241 0.0010447181 0.00028911006 0.00018826907 0.00043971252
00000000: b3d7 0e3b e2ce d739 80af f73a 9963 c73a
00000010: c870 f43a 97d3 0dbb 721a 9b3a f938 04bb
00000020: 2659 863a ba93 9a3a 7222 a7ba d16b 14ba
00000030: a2c6 a0ba dd5a b9ba 5415 a1b7 70ae aab8
00000040: bc62 133b ab35 47ba e9c4 72ba 7fda 4bba
00000050: dcce e5b8 9e37 2cba 7a18 ad39 d34c 31ba
00000060: 4c98 8d39 baed 8739 3041 e2b8 2834 923a
00000070: 39bf 323a 25fa 9a3a 93dc 8b3a fee4 85b9
00000080: 4ad1 df38 4e0f 82ba b00a 593a 4698 6e3a
00000090: 3074 073b 391b b43a 807d f13a c5f0 d6ba
000000a0: 5644 863a 3e5e 85ba 09ab d1ba 8b75 653a
000000b0: 2119 41bb 7661 caba 6912 00bb 406e 2cbb
000000c0: 215a 40ba c7ce d9b9 afca be3a 616c f637
000000d0: ca90 6539 8c43 f0b8 f42b 863a f2d1 4e3a
000000e0: 6492 33b9 3a0b 01b9 778d 4eba da44 8b3a
000000f0: 9d1b 293a 3ce3 993a 653f b53a 4690 883a
00000100: 2702 7e3a 7758 aab8 9c5c 0b3a 0b9e 3fb9
00000110: 89f3 6c3a 7dca c7b8 6c14 113b 36cb bd3a
00000120: 608c b53a df43 25bb 9431 a83a ce20 42ba
00000130: dd94 03bb 948e 6f39 29cb 67bb 54e7 1fbb
00000140: ced3 26bb 74df 60bb 2e25 6fb9 dfd9 73ba
00000150: 5390 133b 4b88 9339 4526 93b6 304d 16b8
00000160: b8a4 3fba 6e6a 08b9 3eb5 a63a ebbb 07b8
00000170: 040a 873a 6144 2eba 522a 30b9 61d7 3839
00000180: d2dc 29ba a97d d0b9 2da9 8cb8 78b8 833a
00000190: 58ba bbb9 5999 c837 37f2 c6b9 1c16 4339
000001a0: 8e59 7eb9 6166 ea37 ed5a 2ab8 5832 393a
000001b0: 8205 32b8 c8ab 0b3a abfc 70ba fea6 03b9
000001c0: d7eb b137 90ac 99b8 5771 dc38 cd0d 2639
000001d0: 621b d439 e829 53b9 f262 86b8 112a d939
000001e0: 00c4 c7b9 accd 6a38 818f 9939 d251 b4b9
000001f0: 9e0c 46ba a6a0 6539 0449 1fba f059 f236
00000200: 0141 b839 0f37 90ba 573b adb9 8468 aeb9
00000210: e91c 84b9 8ebf fcb9 0edf 90b9 243e 6038
00000220: 34a5 62b9 a274 d6b9 dff9 823a 7816 d239
00000230: c242 3a3a 2907 9cb9 567c 8639 d8f8 9439
00000240: 21a7 9bba 3773 ff38 662c 8eba e49d 31ba
00000250: 09a6 5eba b4cd 66ba 7fde 21ba dec2 9cb7
00000260: c6cc 99b9 9cb4 483a e3d4 e8b7 4975 f83a
00000270: 0f68 8c3a 2930 b83a de82 05bb 3395 873a
00000280: f57c 27ba e5e1 9bba 10cb 5c39 af66 15bb
00000290: 9f4d a3ba 8823 eaba 9c06 1fbb a140 15ba
000002a0: 45d6 3eb9 c556 c83a ceac 0a3a 036a e0b8
000002b0: 4ee0 fb3a f295 0a3b 9e23 053b 29c6 dcba
000002c0: aaba ae39 5344 77ba b54a 013a 0e08 4f3a
000002d0: 95ca 7039 e659 753a b61c 83b9 9ec1 d8b9
000002e0: 2942 9cb9 26d6 343a 4303 773a e6e1 4e39
000002f0: 840e 8138 6186 9139 c213 3eba 0674 00b9
00000300: 5a2f 413a bc47 a039 5e6a d439 082f 00ba
00000310: d52f bd37 6c44 3fba b8de 40ba 7bb3 21ba
00000320: 1871 85b9 d611 9139 decd c1b9 b298 7339
00000330: c192 1bbb e0e5 32ba 3531 22bb 6688 a5ba
00000340: fe43 b3ba ea72 2f3b 1ee4 afba 9dd7 e03a
00000350: b14a ac3a 2ff3 44ba b2e9 993b 8bb8 6e3b
00000360: 0fc5 4e3b 163e 803b 58e1 c539 7025 4b3a
00000370: 6a82 1fbb 8086 fcb9 45c2 61b9 b35d 63ba
00000380: a65f eeb8 8f2c 03ba 1e17 5f3a 7597 01ba
00000390: ef9f da39 7382 c63a ab4c 77b9 ad8f 263b
000003a0: c0cd f13a 14a5 cb3a bab9 f13a b228 093a
000003b0: d5cc 243a 34b6 72ba 09d3 253a e02f 5db9
000003c0: a77b e9b9 6426 44b9 c3c2 d8b8 9d69 1b3a
000003d0: 9671 d938 3a80 0739 6480 c93a ebd4 8238
000003e0: 0778 083b d62c e63a 3dfd 3f3a 45f6 cf3a
000003f0: ecee 883a b293 9739 186a 4539 3789 e639
