src/collect_models/rluc/halfcheetah_rluc_best.model (torch, 157646 bytes, 36 tensors)

affine_layers.0.weight f4 [64, 17]
000000 c7 8c dd 3d 63 a4 ec 3e 95 8b 12 3e fc 3e 86 bc
       0.10817867 0.46219167 0.14311059 -0.016387455
000010 07 a6 55 bc dd 2b 08 3e 7b c0 2f 3e 11 c2 57 3d
       -0.013040072 0.13297983 0.17163269 0.05267531
000020 3c 65 d4 3d 7b 69 1e 3e cb 8b 5f bd 50 fd 36 3c
       0.103708714 0.15469925 -0.054576676 0.011168793
000030 d3 f6 e4 3d b3 e6 f1 3c b7 b3 05 be ff 9f 02 be
       0.111798905 0.029528951 -0.13056837 -0.12756346
000040 30 ff 08 bd 1e 04 9f 3e 9d 7f 11 3f 2d 18 82 3d
       -0.03344649 0.3105783 0.5683535 0.063522674
000050 1c b3 32 3e d8 3c 63 3d c7 84 a2 3e 1e b3 9a 3e
       0.17451137 0.055477947 0.31741926 0.3021478
000060 d6 23 8d 3d 75 1f 8a bd 70 0c 13 3d 3f 54 b3 3d
       0.06891601 -0.06744281 0.035900533 0.08756303
000070 e2 c0 42 3e 17 ac 82 bd c8 04 7a 3d 06 c2 6b 3d
       0.19018891 -0.0638048 0.061039716 0.057558082
000080 14 ad 4c bc 82 5e 80 3d 65 66 a2 3c 12 7f dd 3d
       -0.012492437 0.06268026 0.019824216 0.10815252
000090 4c 7c fb bd 9d 95 74 bd 72 7b 85 3d 7d 8c 65 bd
       -0.12279567 -0.059712995 0.06517686 -0.056042183
0000a0 25 a5 23 3e db a1 07 3d 16 e9 ad bd 0e c2 15 bf
       0.15980966 0.03311334 -0.08491723 -0.5849923
0000b0 55 77 1f 3d 9e 9b a5 3e f7 8a c3 bd c4 44 de 3c
       0.038932163 0.3234529 -0.0954799 0.0271324
0000c0 9a 91 ac 3d 7c 75 83 3d e3 a4 68 3d ff 95 db ba
       0.08426209 0.06418893 0.056797873 -0.0016753076
0000d0 c0 e8 fe 3d 61 44 c9 bd 67 d0 34 bd 1c 4d 62 3d
       0.12446737 -0.09827495 -0.04414406 0.05524932
0000e0 f2 17 85 bb 77 2c b9 3d 68 88 dc 3d 6f 93 b4 3e
       -0.0040616924 0.09041684 0.10768205 0.35268733
0000f0 16 6f bf 3e 61 4f 1e be 51 2c 00 be c9 10 04 bc
       0.3738944 -0.15459968 -0.12516905 -0.0080606425
000100 06 ba 0e be 2b a3 61 3a f0 c0 96 bd 0d 68 ca bb
       -0.1393815 0.0008607383 -0.07361019 -0.0061769546
000110 dd 6e ab 3e c5 60 ca 3e f0 9b 24 3d e0 32 31 3d
       0.3348302 0.39526954 0.040187776 0.04326141
000120 04 d2 74 3d 9d ab db 3e 6a 00 1c 3e e4 47 5c 3c
       0.0597706 0.42904368 0.15234533 0.013444874
000130 f2 82 c6 3d 73 3b e2 3d ca 00 75 bc e8 78 bc bd
       0.096929446 0.11046495 -0.014953801 -0.092027485
000140 09 6e 92 bd a5 f9 ce 3d 66 fc 31 3e fe 64 06 be
       -0.07149894 0.1010621 0.17381439 -0.13124463
000150 e7 2e b0 bd ab 14 80 3e 98 7a ae 3d b8 a8 4a bd
       -0.08602696 0.25015768 0.08519477 -0.04947731
000160 a4 04 dc 3d a8 a9 8f bd be 69 b5 be d8 89 2c 3c
       0.10743073 -0.07014781 -0.35432237 0.010530911
000170 e3 24 9e bd af 37 5f bd 5c c6 58 3e af 65 bb bd
       -0.07721879 -0.054496463 0.21169418 -0.09150254
000180 f0 47 76 3e 8c ac a9 bd d2 2f 54 ba 79 c1 17 be
       0.2405088 -0.08284864 -0.0008094284 -0.14819898
000190 be bd e5 3d 02 dc d7 3c 23 c4 5d be 8f 55 01 3e
       0.11217831 0.026350025 -0.21656851 0.12630294
0001a0 8d 07 a6 be ef 6b e3 bd 61 b7 85 be cf 7d ff 3d
       -0.32427636 -0.11104571 -0.2611647 0.12475168
0001b0 b7 bc a0 3e 36 c2 35 3e 67 2b 0c be 0e f8 21 bd
       0.31393978 0.17749867 -0.13688432 -0.039543204
0001c0 2b 6b 5c 3d 2f 0c 02 3e 36 17 2f be c6 0e 5f 3d
       0.05381314 0.1269996 -0.17098698 0.05445745
0001d0 47 23 a6 3e 4d 40 99 3e f6 bf ec 3c bb 32 df be
       0.3244879 0.2993187 0.028900128 -0.43593392
0001e0 4b 0c e8 3e 8c 6c 52 bd 1b c5 20 bd ea da 33 3d
       0.4532188 -0.05137305 -0.039250474 0.043909945
0001f0 bf ab 0c be 48 80 60 bd b1 93 6e bd 17 23 1a be
       -0.13737391 -0.05480984 -0.05824632 -0.15052448
000200 62 0f 04 bf 2f 6c 30 3e 17 79 de 3d a3 64 07 3d
       -0.5158597 0.17228769 0.1086294 0.03305496
000210 c5 29 80 3d 97 11 61 3e b8 8c 11 3e df 2a da 3d
       0.06257967 0.21979366 0.14213836 0.10652708
000220 f4 60 bd 3e e5 f9 02 3f 82 a4 f6 3c e6 8a b5 3d
       0.36988032 0.5116256 0.03010774 0.088643834
000230 4d 6c 81 3d 39 43 3a be 82 2a 39 3d ff 89 9b bd
       0.06319485 -0.18189706 0.045206554 -0.0759468
000240 27 7c 85 3e 4c 8d b0 bb 6a fe 77 3e 77 c7 ee bd
       0.26071283 -0.0053879377 0.24218145 -0.11659139
000250 b9 be f1 bc 67 8f af 3c 73 0e 8c 3e 98 3b 87 3e
       -0.029509889 0.021430684 0.27354774 0.26412654
000260 50 7f 98 3d f4 f1 96 be 7a 5d 83 3e f4 0c d1 3d
       0.07446158 -0.2948147 0.25657254 0.10207549
000270 05 c1 26 be ee e1 8c 3c 25 6f 02 be 97 ce 95 3d
       -0.16284569 0.017197575 -0.12737711 0.073147945
000280 ba 47 8f 3d 54 ba 2f be fb f4 cd bd 11 df b6 bd
       0.06996103 -0.17160922 -0.10056492 -0.08929265
000290 c3 e8 ff 3d bc 9c ba bd d2 66 ea 3c af 8c de bd
       0.12495568 -0.09111926 0.028613482 -0.10866677
0002a0 71 16 34 3e f3 da 1f 3d 64 78 c3 be f8 8a b7 be
       0.17586686 0.039027166 -0.38177788 -0.35848212
0002b0 24 97 9e 3d 33 f9 44 bd fc bc 10 be fc b6 d1 3a
       0.077436715 -0.048089217 -0.14134592 0.0015999968
0002c0 f3 f6 28 3b 81 70 76 3c 30 8d ba 3e 89 db e4 bc
       0.0025781959 0.015041471 0.36435843 -0.027936714
0002d0 e6 cf 86 3d c6 63 a0 bd cb 32 f1 3d fd a1 37 3d
       0.06582622 -0.0783153 0.11777266 0.04483222
0002e0 04 10 15 3e 43 7a a2 bd 11 84 86 bb dd 53 04 3e
       0.1455689 -0.07933476 -0.004105099 0.12922616
0002f0 96 cf 99 be 42 4f 54 be 6e a5 90 3d 14 44 e8 bd
       -0.30041188 -0.2073336 0.07062803 -0.1134111
000300 18 21 09 be 45 7e d0 bd 09 f5 39 be 07 6e 32 3e
       -0.1339153 -0.10180334 -0.1815988 0.17424785
000310 8f cd a5 be e8 48 ba bd d6 69 4a be 19 7d 8b 39
       -0.3238339 -0.09095937 -0.19766936 0.0002660535
000320 2c 0d a1 bc b4 9a 7f be a2 9a 9b bb fc c1 24 3b
       -0.019659601 -0.24961358 -0.0047486583 0.0025140038
000330 16 53 81 3e f0 a9 9a be 69 bb e2 bb 8a 65 dd bd
       0.25258702 -0.30207777 -0.0069193137 -0.10810383
000340 c9 f4 26 bc 60 73 00 be fd a3 06 3e bc 07 49 3e
       -0.010190197 -0.12544012 0.13148494 0.19631857
000350 0e 1f 87 3c 7e 6a 53 bd 89 1e 19 bd 98 09 17 3e
       0.0164943 -0.05161523 -0.037382636 0.14749753
000360 0c ba 93 3d 38 f8 81 bd 76 cb 7e 3e da c7 5c 3e
       0.0721322 -0.06346172 0.24882302 0.21560612
000370 36 ae 07 3e 28 19 51 bf a1 53 b6 3e 29 f1 1d be
       0.1325005 -0.8167901 0.3561068 -0.15424027
000380 61 9f da 3b d2 54 74 bd 4a 3c c6 be dc 2e 82 be
       0.0066718315 -0.059651203 -0.38717872 -0.25426376
000390 2a 66 fa bd ba 25 e3 3c f5 b2 1e be b1 a2 72 3e
       -0.122265175 0.02772795 -0.15497954 0.23694874
0003a0 61 3a 52 3d e3 54 95 3d e1 ab 76 3c 6d 7e 93 be
       0.051325206 0.072915815 0.015055628 -0.28807393
0003b0 6b b1 3b bd 49 4a a4 3c dc 76 9e be 38 4f e4 3e
       -0.045823496 0.020054953 -0.30950058 0.4459169
0003c0 c6 64 ea 3d 1c cd 60 3e 08 6f e1 3d cc df 10 be
       0.11445002 0.21953243 0.11007506 -0.14147872
0003d0 93 a2 38 bc 9f a6 4e 3c 74 fc a0 3b 50 63 cf 3d
       -0.011269229 0.012612968 0.0049129073 0.10126364
0003e0 f8 fa 4a 3e 68 46 f0 3d da 9e 0b 3e 67 b3 d6 3c
       0.198223 0.11732179 0.13634816 0.026208593
0003f0 f1 3d 5d 3e 20 79 b8 3e 98 d8 ca 3d 6c c0 4e be
       0.2160566 0.3602991 0.09904593 -0.2019059

affine_layers.0.bias f4 [64]
000000 de b2 71 3e 6b db 9a 3e ca 29 56 3d f4 3e 1a bf
       0.23603389 0.30245528 0.052285947 -0.6025231
000010 92 a5 93 3d a5 2a a8 3e aa f3 34 be 01 9e c5 3e
       0.072093144 0.32845035 -0.17671075 0.3859711
000020 90 cd 11 bf ec 49 22 bf 72 6c 95 3e 22 57 87 3e
       -0.5695429 -0.63394046 0.291843 0.26433665
000030 e4 16 f6 bd 67 1c 8b be c9 f0 b9 3e 79 b7 b1 3e
       -0.12016085 -0.27170107 0.36316517 0.3471029
000040 b0 1f 87 3e 9c 47 91 3e f9 2f 56 be 2a 28 a6 be
       0.26391363 0.28374946 -0.20916738 -0.32452518
000050 dd 1a 08 bf df 82 2a bf 9c b7 6e 3c 99 17 ba bc
       -0.5316599 -0.66605943 0.014570143 -0.02271633
000060 e7 15 71 be df d6 8d 3e bd 1c 89 3e 9e 8b ae be
       -0.23543511 0.27702996 0.26779738 -0.34090894
000070 c9 9e bc 3d 9c f9 eb 3e 2a 25 86 be e7 f2 89 3e
       0.09209973 0.46088874 -0.2620023 0.26943132
000080 66 cd 38 be 45 b6 00 bf ae 9a dd 3e 1a ee 20 3f
       -0.18047103 -0.5027812 0.43282074 0.62863314
000090 54 01 fd be 49 72 4a bf 87 07 88 3e b4 5e 55 bf
       -0.49415076 -0.79080635 0.26568243 -0.8334763
0000a0 d4 ae 35 3e 48 c0 5a 3d 2a a7 89 3e 6e ac 84 3e
       0.17742473 0.05340603 0.2688535 0.25912803
0000b0 9f 4a 23 3f d5 4e eb be 9d 36 54 3e 91 0a 0d bf
       0.6378574 -0.45958582 0.20723958 -0.5509425
0000c0 68 6c e7 3e 00 de 99 3e 3a 93 27 bf 5d 3c bd 3e
       0.45199895 0.30052185 -0.65459025 0.36960116
0000d0 d2 51 a3 be 52 be 89 be 22 5e f9 3c ec 63 35 3f
       -0.3189836 -0.26903015 0.030440394 0.70855594
0000e0 d9 97 47 3f 97 17 cb bd 5a 55 27 bf f4 90 4a 3f
       0.77966076 -0.09916609 -0.6536461 0.7912743
0000f0 36 ec c3 be 8e ca 0f bd a3 ca e8 3e 4a cc c1 3d
       -0.38266152 -0.03510528 0.454671 0.09462793

affine_layers.1.weight f4 [64, 64]
000000 92 31 e0 bd e8 89 04 be 58 fd e2 3d 86 86 00 be
       -0.10946955 -0.12943232 0.11083478 -0.12551317
000010 a9 54 a2 3e ef d0 06 be f2 28 09 3e 0d 0f c2 3d
       0.31705216 -0.1316564 0.13394526 0.09475527
000020 a6 30 7f 3e d2 eb 07 3d 47 fa fc bd 31 07 39 3d
       0.24920902 0.03318388 -0.12352424 0.045172874
000030 30 58 09 3e 03 5b 36 be 71 8e 24 be 66 bc 37 3e
       0.13412547 -0.17808156 -0.16069962 0.17942962
000040 de d0 d3 bc 41 e2 e6 3d 2d 9b 70 3d 74 f0 4c be
       -0.025856432 0.11273623 0.058741737 -0.200136
000050 bb 3d 20 be a1 28 4a 3d 6d 75 86 3e 6b ee e7 3b
       -0.15648548 0.049355153 0.26261464 0.007077982
000060 d9 fd 10 3e eb 3f 45 be 95 65 a9 bc ea 09 27 bd
       0.14159335 -0.19262664 -0.02067832 -0.04078094
000070 9c 1b 00 3e b5 51 b9 3e 5e 43 16 3d 56 40 38 be
       0.12510532 0.3619515 0.03668534 -0.17993292
000080 47 d1 e9 3d c8 34 ec 3d 8e 1e 47 be 7d 79 65 be
       0.114168696 0.11533505 -0.1944525 -0.22409625
000090 81 49 8a 3e 0d f0 33 3e 8a d8 f1 bd 87 b5 bd bd
       0.27009204 0.17572041 -0.1180888 -0.09263139
0000a0 36 99 e3 bd 9c 8a 57 be 89 06 c1 3e d8 5c e3 3d
       -0.11113207 -0.21048969 0.37700298 0.11101693
0000b0 68 e9 aa 3d 44 cd eb 3e 97 de 98 be dc b4 55 bd
       0.083453 0.46055043 -0.29857323 -0.052174434
0000c0 4e 46 7a be 92 65 6b bd c6 47 0f be 47 e7 ff bd
       -0.24440882 -0.057469912 -0.13992223 -0.124952845
0000d0 41 f7 7b 3c 6c 7e d2 bd 12 9d fb 3d b7 88 4a 3e
       0.015378774 -0.10278019 0.12285818 0.19778715
0000e0 77 cc 4e be 92 30 be 3e 5f 4c 3f be db 6b 21 3d
       -0.20195185 0.3714643 -0.18681477 0.0394095
0000f0 ad bf 94 be c8 2c 75 3e d7 98 da bd 93 94 08 3e
       -0.29052487 0.23942864 -0.10673683 0.13337927
000100 11 50 ba be 65 5f cb be 73 1c 7b be 57 6e 1e 3e
       -0.3638921 -0.39721218 -0.24522571 0.15471779
000110 6b aa 86 be f7 36 97 3e 26 96 60 bd c5 e8 46 be
       -0.26301894 0.29534122 -0.054830693 -0.19424732
000120 ff 80 5d be 5a d8 a0 be ad 1e 28 3e de 34 6f bd
       -0.2163124 -0.31415063 0.16417952 -0.058400027
000130 3b 93 c5 3d 44 89 ad be 37 cf 1e 3e b2 69 53 3c
       0.096472226 -0.33893788 0.15508734 0.012903618
000140 17 fd 2a 3f 8a 11 58 3e 70 bd 7a 3e f3 07 3a be
       0.66792434 0.2110044 0.24486327 -0.18167095
000150 5c 0b a6 3d e0 00 c0 3d f0 90 ac bc 0a 4b b0 bd
       0.081076354 0.09375167 -0.021065205 -0.086080626
000160 f9 95 1c be 1a d1 36 3d cb e4 6b bd 6a ed 70 be
       -0.15291585 0.04463301 -0.05759124 -0.23528066
000170 56 25 09 3e 66 4f 89 be 4d a1 a3 bd 83 0d 16 3f
       0.13393149 -0.2681839 -0.0798975 0.5861437
000180 f0 48 83 3e 0d 70 e2 be 76 95 9e 3e 3d 76 11 bd
       0.25641584 -0.44226113 0.30973405 -0.03551315
000190 8e f6 af 3e ac 26 a2 3c ab f8 09 be 9e 87 d4 3d
       0.34367794 0.01979383 -0.13473766 0.103774294
0001a0 8a b5 3f 3e f3 44 b7 be 04 00 bc 3c 42 44 88 3d
       0.18721595 -0.35794792 0.022949226 0.06653644
0001b0 df 93 c9 3e 0b 25 2a 3e 1c 24 1f be b2 4e 35 3e
       0.3937063 0.16615693 -0.15541118 0.17705801
0001c0 18 d3 61 be e8 2c 1d 3e 80 77 f0 be 7c a0 01 3e
       -0.22053182 0.15349162 -0.4696617 0.12658876
0001d0 cf 19 77 be 33 92 cd be 49 f2 00 3e 54 50 9d be
       -0.24130939 -0.40150604 0.12592424 -0.30725348
0001e0 17 5f 77 3e 85 3f a3 be e6 ec 99 3a e1 d8 80 3e
       0.24157368 -0.318844 0.0011743575 0.25165465
0001f0 c7 72 b5 be 03 de de bd bc 31 ca 3e 19 ce 6a 3d
       -0.3543913 -0.10882189 0.3949107 0.057325456
000200 9c 18 9e 3e 4c 60 c0 be ad 18 f6 bc e2 5b 40 3e
       0.3087815 -0.3757347 -0.030041063 0.1878505
000210 ef 11 5b 3d 52 0c ec bd cd cc 7d be 30 c6 95 be
       0.0534839 -0.115257874 -0.24785157 -0.29252768
000220 af 06 93 3e 02 3a 37 be 0d a1 20 3d 08 12 73 3e
       0.28716037 -0.17893222 0.03921609 0.23737347
000230 8f eb 44 be a3 23 c4 3e c7 b4 4e be 57 21 7b 3e
       -0.19230483 0.3830844 -0.20186149 0.24524437
000240 db c7 cb 3e 07 ec 71 bd 0e d7 83 bd c2 a7 fb bd
       0.39800915 -0.059062984 -0.06437503 -0.12287857
000250 3c 81 0b 3d 27 a5 bf 3c 77 56 f6 be cb b5 77 3e
       0.034058794 0.02339418 -0.48112842 0.24190442
000260 a6 ec 2e be 9b 56 00 bd 83 ad be be f4 fc 2e 3e
       -0.17082462 -0.031332593 -0.37241754 0.17088681
000270 87 10 1c be d5 3d 9c bf d6 f1 1c 3e 01 14 fe bd
       -0.1524068 -1.220637 0.15326628 -0.12406159
000280 eb 89 1d be 38 bb fc 3c da 09 99 be 22 38 17 3d
       -0.15384643 0.030850992 -0.2989033 0.036918767
000290 cc 71 f0 3c c3 00 8c 3c 4e d2 0d bd 5a 1b 52 3e
       0.029351138 0.017090207 -0.03462439 0.20518246
0002a0 a6 7e 31 be d5 75 ff 3e 89 75 8e 3e 5c 53 4a 3d
       -0.17333469 0.49894586 0.27824047 0.049395904
0002b0 79 9e 46 3d 89 78 dd bd 98 6a 3c be 2f 0d 81 3d
       0.048490975 -0.10814006 -0.18400037 0.06301343
0002c0 ca a4 a4 3d 66 57 78 3e eb b9 37 bd 61 51 7b be
       0.080392435 0.2425209 -0.04485504 -0.24542762
0002d0 4c 1f 26 3d cf 98 3f 3f 72 2e b3 3d 21 ec 00 be
       0.04055719 0.7484254 0.08749093 -0.12590076
0002e0 39 e9 51 bd 1a b8 20 be 54 5a df 3e e4 5a de bd
       -0.05124781 -0.15695229 0.43623602 -0.1085718
0002f0 12 75 9a bd c9 ee 32 be a0 87 94 bc ba 01 a6 3d
       -0.07541861 -0.17473902 -0.018131077 0.08105798
000300 f4 51 e7 3c 5c 83 8d 3d b2 f0 9d bd 66 ea 12 be
       0.02823732 0.069098204 -0.077119246 -0.14347228
000310 9c f3 09 be 95 b5 aa bd 81 00 0f be fd 83 57 3d
       -0.13471836 -0.08335415 -0.13965036 0.05261611
000320 06 4e 56 be 47 0b d5 be 29 58 96 bc 63 f2 6f be
       -0.20928201 -0.41610166 -0.018352585 -0.23432307
000330 f6 a0 a9 3e 7e 89 00 3c 9b 26 93 bd 8d 44 c6 bd
       0.33130616 0.007845281 -0.07185098 -0.09681044
000340 cd 6c bb 3d 99 7b 14 3f 45 fd d0 3d fa ef c5 bc
       0.091516115 0.58001095 0.10204557 -0.024162281
000350 d4 06 3d be d7 09 41 bb 4e f3 92 bd 9a f1 9c bd
       -0.18459636 -0.0029455328 -0.07175313 -0.07663269
000360 7d 27 9d bc e8 8f fa 3d 1f ed d5 bc a0 ed 9e 3e
       -0.019183869 0.12234479 -0.026114045 0.31040668
000370 9e eb 96 bd 68 6c 92 3c 84 c7 2f be f5 3c 53 bd
       -0.07369159 0.017873958 -0.17165953 -0.051571805
000380 86 b5 53 3d 19 7b a1 be 0a 8a d8 be 97 8a 69 bd
       0.051686786 -0.3153923 -0.42292815 -0.057016935
000390 b5 fe 19 be 4d e2 97 bd 59 86 c7 bd ce 15 28 be
       -0.1503857 -0.0741621 -0.09742422 -0.16414568
0003a0 b1 9d f2 bc 1c a2 4d 3d 14 9e 26 3c ab 05 96 bd
       -0.029616209 0.050203428 0.010169525 -0.073253
0003b0 8e 47 3d be 78 2c a4 be 3e 0f 25 3d f6 82 2b be
       -0.18484327 -0.32065177 0.04029774 -0.16749176
0003c0 24 6a 96 3b f3 14 0f be d4 e0 5e be 26 df 44 3d
       0.0045902897 -0.13972835 -0.21765453 0.048064373
0003d0 1d 8c bc be 17 d7 67 3e 2e 03 45 be 21 32 8f 3e
       -0.36825648 0.22640644 -0.19239494 0.27967933
0003e0 b0 97 b0 3d 74 8b 2c bc d3 27 28 3c 52 56 f8 bd
       0.08622682 -0.010531295 0.010263401 -0.12125839
0003f0 1a 99 01 bd c6 c2 02 bd 3f a6 29 3d 13 04 7f be
       -0.03164015 -0.03192403 0.04141831 -0.24903898

affine_layers.1.bias f4 [64]
000000 72 d5 67 be b0 80 2a be 6f bb cf 3d c3 ca bc 3e
       -0.22640017 -0.16650653 0.10143172 0.36873445
000010 bd bd b6 3e 10 b4 df bd d1 9e 05 be 97 90 e6 bd
       0.35691634 -0.10923016 -0.13048865 -0.11258047
000020 80 18 81 3e ff 41 a0 be 0f c6 d8 bd 95 c7 f1 bd
       0.25214005 -0.3130035 -0.10584652 -0.118056454
000030 c1 80 89 3e 8d 38 ef be 59 02 e0 3d 21 7f a3 be
       0.26856044 -0.46722832 0.10937948 -0.3193293
000040 69 f6 92 bd c7 30 55 be eb bc 3a be 02 04 9e 3d
       -0.07175905 -0.20819388 -0.18236129 0.07715608
000050 ca 79 8a 3e 73 d3 d6 3d b3 fa b4 be bc 4b 76 be
       0.27046043 0.104895495 -0.35347518 -0.24052328
000060 48 56 a1 be 7e 13 92 be 34 36 51 3e f6 f5 6d 3e
       -0.3151114 -0.28530496 0.20430833 0.23238358
000070 2d 72 8c 3e 3e 30 d3 3e a9 a7 93 be 7e 6b ec 3d
       0.2743086 0.41247743 -0.28838852 0.1154394
000080 6c 88 90 3e 0f dd 58 3e b3 d0 91 3e 42 16 1d be
       0.28229082 0.21178077 0.28479537 -0.15340522
000090 ef aa 8d be 73 6f 16 3e 4c d5 06 3e 42 e5 74 3e
       -0.27669474 0.14690952 0.13167304 0.2391558
0000a0 a2 fd 1a be bf 0c b6 bd 68 ea cc be 13 46 87 3b
       -0.15135816 -0.0888915 -0.40022588 0.0041282265
0000b0 67 04 a8 be e5 c2 84 3e 8f 3c 40 be f2 d1 b3 bd
       -0.3281586 0.25929943 -0.18773101 -0.08780278
0000c0 5b 54 f9 bc c8 4b 24 3e 6a 77 87 3e 38 46 fc 3d
       -0.030435732 0.16044533 0.26458293 0.12318081
0000d0 a3 b6 6d be 98 2b 60 bd 08 ba 72 bd 7b 71 cf be
       -0.23214202 -0.054729074 -0.059259444 -0.40516266
0000e0 d0 f2 01 bf a8 d7 1e 3e 58 a0 3d 3e ec d6 9b 3d
       -0.5076113 0.15511954 0.18518198 0.076093525
0000f0 b1 33 14 3e b4 22 78 bd 87 b8 4a be 52 d1 6c 3d
       0.14472844 -0.06057997 -0.19796954 0.05781681

final.weight f4 [1, 64]
000000 93 6a bc bd 76 e9 59 be 93 3a 0f 3d a1 4f f2 3d
       -0.09200015 -0.21280465 0.03496797 0.11831594
000010 ce 11 78 3e b1 b2 fb bc 4e ed db bd e5 9c 80 bd
       0.24225542 -0.030724855 -0.10738622 -0.06279925
000020 dd 34 b8 3d 82 d7 32 bd 21 b1 8a 3c be f2 3a bd
       0.08994458 -0.043662556 0.016930165 -0.045641653
000030 e1 f2 3d 3e c8 1a 63 be 18 2e 70 3d 97 42 0e be
       0.18549682 -0.22178185 0.05863771 -0.1389259
000040 2d d7 a0 bc c8 69 91 bc e1 bc 94 bd 28 3b da 3d
       -0.019633854 -0.017750636 -0.07262588 0.106558144
000050 53 f5 78 3d 4f da ed bc a7 fe fb bd 6f 94 01 be
       0.060780834 -0.029034762 -0.123044305 -0.12654279
000060 90 10 0a be 36 be 53 bd 88 c8 65 3d 34 42 38 3d
       -0.1348288 -0.05169507 0.056099445 0.04498501
000070 0a 10 79 3d 40 e4 81 3e 53 93 2a be d1 19 d1 3d
       0.06080631 0.25369453 -0.16657762 0.10210002
000080 86 26 9c 3d c3 d4 b4 3d 60 f2 ec 3d 32 ce ab bd
       0.07624535 0.088296436 0.11569667 -0.08388938
000090 49 f7 89 bd fa 44 fb 3d b6 53 98 3b 90 90 53 3d
       -0.06736619 0.122690156 0.004648651 0.051651537
0000a0 b8 27 30 be a1 c7 1e be 30 14 96 be a6 7b a4 3c
       -0.17202652 -0.1550584 -0.29312277 0.020078491
0000b0 d7 ba 52 be 44 c7 f5 3d b6 af a5 bd ab 0d b8 bd
       -0.20579086 0.120008975 -0.08090155 -0.08986982
0000c0 47 66 e4 bc 63 e1 c7 3d af 22 2b 3e 7b 58 90 bc
       -0.0278808 0.09759786 0.1671245 -0.017620316
0000d0 4c 53 92 bd 3e 85 4c 3e 41 83 0d be f8 3e 73 be
       -0.07144794 0.19972703 -0.138196 -0.2375449
0000e0 d7 4a 0d bf aa 4a 22 3d 74 09 0d 3d 9a 42 97 3d
       -0.5519232 0.039621986 0.034432843 0.0738575
0000f0 be ce a0 3d 5d d3 6e be eb 06 4b be 1d 2d ff bd
       0.07851933 -0.23322816 -0.19826858 -0.124597766

log_stdev f4 [6]
000000 f2 23 ba bf ee bf b7 bf 98 5c b4 bf 00 a7 d4 bf
       -1.454222 -1.4355447 -1.4090757 -1.6613464
000010 d7 e8 e7 bf 95 66 96 bf
       -1.8117932 -1.1750056

affine_layers.0.weight f4 [64, 17]
000000 63 4d 3a bc 04 65 37 bc 58 ae 3c 3c f8 23 bf 3c
       -0.0113709895 -0.011193518 0.011516176 0.02333258
000010 6c 47 37 bb 89 9d 2b 3c 81 07 9c 3c 5b 6c 14 3d
       -0.0027966155 0.010474571 0.019046547 0.03623615
000020 6e f9 c4 3c 58 02 0f bd 6d 89 a7 3c 4d 45 ae bb
       0.024044719 -0.034914345 0.020451272 -0.00531832
000030 70 dd 3a bb 9b 20 76 bc 1f b9 53 bb 7c 0c 66 3c
       -0.0028513335 -0.015022422 -0.0032306386 0.014041062
000040 28 b0 15 bb fc 7c 43 bc 6d 97 85 3c a2 bf c6 39
       -0.0022840593 -0.011931654 0.016307557 0.0003790828
000050 3d d0 47 bb 68 97 97 bc 1f 92 a9 3c 2f bd e7 ba
       -0.003048911 -0.018504813 0.020699559 -0.0017680282
000060 6a 24 c1 3c 20 00 a3 bc 6b 78 6c 3c a9 fb 24 3d
       0.023576934 -0.01989752 0.014433007 0.040279064
000070 e5 94 21 bb 85 2e 5a bc e0 7d b1 bb 42 c2 e3 bb
       -0.0024655398 -0.013316755 -0.005416617 -0.0069506476
000080 22 e6 a9 3a f8 53 a0 bc 48 21 a5 bd 48 04 4b be
       0.0012962262 -0.01957129 -0.080629885 -0.19825852
000090 06 64 40 c0 d3 f0 b6 3f 0d fc b9 be f5 6d e5 bf
       -3.006105 1.4292244 -0.36325112 -1.7924181
0000a0 a2 e1 88 3f eb 2d 03 3e 7d 6e a2 be 09 38 3d be
       1.0693858 0.12810485 -0.3172492 -0.18478407
0000b0 26 9c 92 be 26 16 74 bf d8 a4 ed 3e 78 c6 b5 be
       -0.28634757 -0.95346296 0.46414828 -0.35502982
0000c0 58 4e 26 bf 31 13 c6 3e 62 fe ae 3d 48 19 6d 3c
       -0.64963293 0.38686517 0.085446134 0.01447136
0000d0 1d fb 13 bc ed 42 47 ba 09 42 46 3b b9 24 f9 bc
       -0.009032038 -0.000760122 0.0030251762 -0.030413019
0000e0 81 7a 8b 3b d2 59 87 bc 64 b7 7f 3c f9 27 28 bc
       0.004256547 -0.016522322 0.015607689 -0.0102634365
0000f0 c1 01 a4 b9 6d 42 7e 3d 72 eb 86 bc ea e4 2e bc
       -0.00031281824 0.062075067 -0.016469691 -0.010674695
000100 75 6e 9b bc 58 66 7b 3c 00 65 49 bc b0 79 f9 bb
       -0.018973568 0.015344225 -0.012292147 -0.0076133832
000110 2b 66 ec 3c 2e 97 d4 3e fa e1 de 3b e0 f4 83 bd
       0.028857311 0.4152159 0.006801841 -0.064431906
000120 fe 9f 99 3c 9e e0 6c 3d 4a a3 17 3c 70 ce 67 3c
       0.018753048 0.0578314 0.00925524 0.01414834
000130 8e d5 82 bd 1e bb ce bd b8 65 37 bc 18 32 3c 3c
       -0.063883886 -0.100942835 -0.011193685 0.011486553
000140 08 11 c8 bc 54 ed 9e bc d3 1d 7b bd 63 44 8b bc
       -0.024422184 -0.019400276 -0.06130774 -0.017000383
000150 89 f1 33 bc a4 0b 3f 3d c8 32 44 bb 3c bb be 3b
       -0.010982879 0.04664196 -0.0029937495 0.00582066
000160 8b 10 4c bb 11 29 91 ba ca e9 ac 3b e8 e8 23 3b
       -0.003113779 -0.0011074861 0.0052768933 0.002501065
000170 5e d2 38 3c 3e d6 25 bd 11 f1 64 3c 3a 73 16 3d
       0.011280624 -0.04048752 0.01397349 0.036730982
000180 d2 fb c4 ba ee 94 bc 3b 6f 67 ab 3b 78 11 3f ba
       -0.0015028662 0.0057550585 0.005230836 -0.0007288675
000190 94 ea 1e bd 8b c4 30 bc 63 19 9b b9 cd 5e b7 3b
       -0.03879793 -0.010789047 -0.00029582818 0.005596018
0001a0 b0 ee d3 bb 2e bd 8e 3b 56 07 1c bc 7c ef 88 3c
       -0.0064676628 0.004356048 -0.009523233 0.016715758
0001b0 8c 4e bf bb 52 46 eb bb 41 b5 4a 3c 41 0a 05 bd
       -0.005838221 -0.0071800137 0.012372316 -0.032480482
0001c0 a1 aa d3 bb 70 3a 0b b8 76 e1 70 bb 49 ee c7 39
       -0.0064595495 -3.3194607e-05 -0.003675548 0.00038133774
0001d0 0a 25 91 bc 5d 00 bd 3a 2c af 9e bc b6 26 56 39
       -0.017717857 0.0014419664 -0.019370638 0.00020423051
0001e0 42 a3 b7 bc 4a fb 79 3c 96 7b 52 3b 89 45 41 3c
       -0.022416715 0.015257666 0.003211712 0.011796364
0001f0 c3 de 94 bb a2 0e 77 3b 39 b8 d0 3c d2 74 d2 bc
       -0.004543157 0.003769793 0.02547847 -0.02569047
000200 f2 10 d8 3c f0 a0 82 bc f5 0b 5b 3c 4e d1 72 bc
       0.026375268 -0.015945882 0.01336955 -0.01482041
000210 19 c2 9d bb 47 d8 ae bc 23 d3 f2 3a 3d a5 09 bc
       -0.004814398 -0.021343363 0.0018526058 -0.008401212
000220 47 d6 69 bd 13 eb 90 3c 16 72 b9 ba 70 07 0f bb
       -0.057089116 0.017690217 -0.001414838 -0.0021824501
000230 e5 73 8c 3b 3d 1b 5c 3b 7f 05 97 3c 72 d1 11 3d
       0.0042862766 0.0033585571 0.018435238 0.035600133
000240 e9 18 4d 3d 41 6c 8c bd c5 db 5c bc 78 6b 0f bb
       0.050072584 -0.06856585 -0.0134801315 -0.0021884125
000250 2f a4 e5 3b ec 4e 96 bc 76 29 21 3c fd f1 d6 3b
       0.0070080976 -0.01834818 0.009836545 0.006559609
000260 6b b1 73 3a f5 f8 5a be 78 f0 4a 3e 46 f7 2d c0
       0.00092961517 -0.21384032 0.19818294 -2.7182174
000270 25 a6 24 3f ed 7a 11 3e 05 c4 97 bf 7b da 14 3e
       0.64316016 0.14207049 -1.1856695 0.14536469
000280 60 87 f9 bd ad 11 eb be 5e ec 7f be e0 80 f9 3d
       -0.12184024 -0.45911923 -0.2499251 0.12182784
000290 e2 d4 05 40 52 d5 00 c0 a7 dd 9d 3f 02 ee a8 bd
       2.0911183 -2.01302 1.2333268 -0.082485214
0002a0 6b f4 1f c0 b7 c6 49 bf 7e db 9b bd 4c d8 63 bd
       -2.499293 -0.7881884 -0.07610224 -0.0556262
0002b0 47 98 06 3d 60 6c cc bc f1 d2 41 3d e8 9f c4 bb
       0.032860067 -0.024954021 0.04732031 -0.0060005076
0002c0 c7 9d 93 bd b9 3d 37 bd 24 be e1 3d cd ea 24 be
       -0.07207828 -0.044736598 0.110225946 -0.16105194
0002d0 12 60 93 bd df 41 06 bc 66 52 cd bc f1 d5 af bc
       -0.07196058 -0.008194416 -0.025063705 -0.02146432
0002e0 a3 c6 a6 3c 79 9d 85 ba 15 20 ad bc 8d d8 0c bc
       0.02035839 -0.0010194025 -0.021133462 -0.008596552
0002f0 19 f3 5d ba 6d 1d 29 3b 8a f0 d5 3b ec 1b 8c 3c
       -0.00084667053 0.0025804893 0.0065289186 0.017103158
000300 27 5b 14 3a f1 44 e6 3b 4a 31 f6 3c cb 2b 5a bb
       0.0005659335 0.0070272614 0.0300528 -0.0033290263
000310 b0 e5 de 3b 9e 46 61 bc fd 92 06 3c 02 52 07 3b
       0.006802283 -0.013749747 0.008213756 0.0020648246
000320 a2 9e 3a bb 00 d1 2b b9 1c d0 29 bc c1 81 b5 bb
       -0.00284759 -0.0001638569 -0.010364559 -0.0055391495
000330 d5 ca 87 bc 7c 47 9b 3c e1 21 d8 3b f9 36 10 bc
       -0.01657621 0.018954985 0.0065958356 -0.008802169
000340 1f 9c 7f bc 86 37 79 39 1d e2 8f bc 66 5a c1 3b
       -0.015601187 0.00023767175 -0.017563874 0.005900669
000350 d3 74 94 3b 93 02 32 bc 4d a9 e7 3a 43 96 b3 bb
       0.004530528 -0.010864872 0.0017674357 -0.005480559
000360 c3 92 3f bc e6 90 12 3c a8 d6 8d bc 0f f1 fd 39
       -0.011692706 0.008945679 -0.01731427 0.00048435523
000370 c3 d4 b6 bc 2c 16 8b bd 5e 0d 0b 3a 54 d9 71 3c
       -0.02231825 -0.06791338 0.0005304421 0.014761288
000380 11 4b 93 bc 5f 46 4c 3c 52 1f 5e 3c cd 0c b3 bb
       -0.01798013 0.01246795 0.013557272 -0.0054641725
000390 fa e1 ac 3a 9f 28 81 3d 7d e8 05 bd de 78 88 bc
       0.0013189905 0.06306576 -0.03269242 -0.016659196
0003a0 e6 68 13 3c c1 71 42 bb 0a 41 6e ba d6 2e 85 bc
       0.008997178 -0.0029669853 -0.0009088671 -0.016257685
0003b0 2f ee 19 3b c8 6b 3c bc 22 bd d4 3c 6d d9 1c bb
       0.0023487916 -0.011500306 0.025969092 -0.0023933307
0003c0 d7 e8 9d bc b0 19 68 3c 6c f9 77 3c 0c 91 6e bc
       -0.019276066 0.014166281 0.01513515 -0.014560949
0003d0 3b b0 77 3c 67 9b 15 b9 de e4 02 bd eb f4 3f bc
       0.0151177 -0.00014267639 -0.031956546 -0.011716108
0003e0 d9 9a 30 bc 06 26 1d 3c a2 7d 36 bc 39 5a 52 bc
       -0.010779106 0.009591585 -0.011138352 -0.012838894
0003f0 17 3b 6a bb d0 06 f9 3b 67 47 b0 3a da 0a cf bd
       -0.0035740787 0.007599689 0.0013449014 -0.10109492

affine_layers.0.bias f4 [64]
000000 10 18 4e 3b e6 65 4e 3c 6d 75 9e 3f 65 7d bf 3c
       0.0031447448 0.012597537 1.2379586 0.023375222
000010 a3 3c 9a bf 14 0c f5 3b ca e6 38 bc 19 b0 0a 3d
       -1.2049755 0.0074782465 -0.011285493 0.033859346
000020 67 95 46 3c 9b d5 bf 3f 1a 65 43 3f d5 0e b5 3c
       0.012120581 1.4987062 0.76326144 0.022101799
000030 b0 1f bb 3a 4a 8a 19 bd 90 f3 da 3c d8 82 94 be
       0.0014276411 -0.0374854 0.026727468 -0.29006076
000040 7d 63 27 3c 22 a0 d6 bc cd 52 d4 3c 4b 2b b3 bc
       0.010216591 -0.026199404 0.025918389 -0.02187123
000050 2a 7a 33 bc 60 c2 c1 3c b7 f8 a3 bd 20 d6 3c bd
       -0.010954419 0.023652256 -0.08006423 -0.046102643
000060 b1 fa 85 3d 6b 2c 05 bd 37 45 a1 bc 6a c6 16 bb
       0.06541956 -0.032513063 -0.019686325 -0.0023006448
000070 26 6b f1 3b 7b 76 90 bc 05 db 21 bf f6 ee 28 bd
       0.0073675094 -0.01763462 -0.6322482 -0.041243516
000080 e9 38 12 b9 52 06 06 bf f6 7d 01 bd ef eb dd 3c
       -0.00013944846 -0.52353394 -0.031614266 0.027090041
000090 73 61 de 3b e3 aa 07 bc db d8 b5 3c f0 d0 8d be
       0.006786519 -0.008280489 0.022198131 -0.2769847
0000a0 48 f6 32 3e fc 40 02 3d c9 ff c2 3c 73 67 89 bf
       0.17476761 0.031800255 0.023803608 -1.0734695
0000b0 54 b7 20 3d e3 cc 31 bd 76 af c0 3c 1d a8 41 3e
       0.039237335 -0.043408286 0.023521166 0.18911786
0000c0 98 70 90 bc 5f 04 2f bc d9 f5 00 bd 81 00 1a bd
       -0.017631814 -0.0106821945 -0.03148446 -0.037598137
0000d0 c1 c8 63 3c c2 7e b1 be 63 1b a4 3c 11 1a 18 bb
       0.013902844 -0.3466702 0.02003259 -0.0023208896
0000e0 a8 98 bf 3c 7c 9e 90 3d 09 2e 01 3b d8 2e 52 3c
       0.023388222 0.070614785 0.0019711277 0.012828551
0000f0 9a f2 4e 3c 1a d7 b1 3c 28 56 d6 be 15 4b 95 3b
       0.012631083 0.021709014 -0.41862607 0.0045560696

affine_layers.1.weight f4 [64, 64]
000000 e1 b2 17 3d 40 39 a2 3d 1d 6a 8a bc 7c 57 a4 bc
       0.037035827 0.07921076 -0.016896302 -0.020061247
000010 b0 5b 2a be 47 43 5e be 8f 27 90 bb 9a eb 42 3d
       -0.16636539 -0.21705352 -0.004399247 0.04758797
000020 cb 83 e7 3d f9 43 69 3c 44 0b 5a be 6f 9a 3b 3d
       0.113044344 0.014237397 -0.2129336 0.045801576
000030 04 ba 96 3c 25 bd 85 3d 03 0e 43 bc 6a 8a 35 bd
       0.018399246 0.06530217 -0.011905196 -0.044321455
000040 2b f3 5b bc 84 db ae bd 5e d8 b3 bd 93 f6 13 bc
       -0.013424675 -0.08537963 -0.08781503 -0.009030956
000050 cd 03 19 3c 7d 26 80 bd 25 09 39 be 6d ba eb bd
       0.009339285 -0.06257341 -0.18069895 -0.11510167
000060 7a cf 6f be b1 f7 0c 3d 7e 56 92 bd b0 12 59 3e
       -0.2341899 0.034415904 -0.07145403 0.21198535
000070 a7 08 88 3e 52 86 e0 3c b6 57 7e bc 57 51 d7 bc
       0.265691 0.027407799 -0.015523842 -0.026283903
000080 f3 20 3b 3d e0 36 1b bd 72 e6 6d 3d ef aa 93 bd
       0.04568572 -0.03789413 0.058081098 -0.07210337
000090 08 16 32 3e af 11 cc bd 14 65 3a 3e 2c 49 04 bd
       0.17391217 -0.099643104 0.1820262 -0.032296345
0000a0 ff b0 2d bd 73 b8 1f 3d 5a 54 93 bd bb 78 9b 3c
       -0.042405125 0.038994264 -0.07193823 0.018978467
0000b0 2e 7c 03 3e e5 60 60 3c 2b 70 91 3d 83 c3 a4 3c
       0.1284034 0.013694976 0.071014725 0.020112759
0000c0 04 3b 42 3e 5a ff 1d be ad f2 25 bd f0 e7 f2 3b
       0.18967825 -0.1542944 -0.040514637 0.007412903
0000d0 aa fc 85 3b c6 8c 30 3e d9 7f 5d bd 89 9d df bc
       0.004088958 0.17241201 -0.054077003 -0.027296798
0000e0 eb 2f 05 be 1c 9c 78 be d4 6f a3 bd d3 a3 00 3e
       -0.1300656 -0.24278301 -0.07980314 0.12562494
0000f0 80 5c 29 be 47 0d ae bd f3 c4 e4 bb 54 43 17 bc
       -0.16539192 -0.08498626 -0.006981486 -0.009232361
000100 9f a5 b5 bd cc 60 f8 3d ad 36 32 3b 7f d9 87 3d
       -0.0886948 0.121278375 0.0027193234 0.06633281
000110 3e 0a cc bb 23 26 db 3c ef 53 3a bd bd 50 c5 bd
       -0.006226807 0.026751583 -0.0454902 -0.0963454
000120 8e 86 a0 3a ee b4 85 ba 4d e8 4e bd e3 03 89 bd
       0.0012247132 -0.0010201016 -0.050514508 -0.066901945
000130 46 ab bd bd 65 3e de 3c 69 39 03 bd 99 2e e7 bb
       -0.092611834 0.027129361 -0.032037172 -0.0070551154
000140 a3 46 3b bc 85 c6 68 bc 25 31 76 bc c1 65 f2 bd
       -0.011430415 -0.014207487 -0.015026365 -0.11835814
000150 2a b8 12 3d bb e3 01 be 78 99 18 bc d9 0d 72 3d
       0.035820164 -0.12684529 -0.009313934 0.059095237
000160 28 17 27 be ba 88 3f 3d ce 88 96 3a 0a c9 70 3d
       -0.16317427 0.046761252 0.0011484863 0.058785476
000170 ac ed 08 3d ad 18 16 3d e0 1e dc bc 49 37 9a 38
       0.033429787 0.036644626 -0.026870191 7.35359e-05
000180 89 11 af 3d 87 63 2b bd 2c 85 41 3d d3 a0 83 3d
       0.085482664 -0.041842964 0.047246143 0.06427159
000190 25 7e 0c bd 08 20 33 3d a4 95 ab bc d3 32 c3 bc
       -0.03429999 0.04373172 -0.020945378 -0.023827946
0001a0 ed f4 81 3d 80 f6 81 bc ef 8c 6d bd d9 1e 17 bc
       0.06345544 -0.01586461 -0.057995733 -0.009223663
0001b0 60 b9 9f 3d 10 07 01 be 57 80 e8 bd 4c b8 9b 3d
       0.07799029 -0.1260035 -0.11352604 0.07603511
0001c0 2a a7 37 bc f2 7d cb bb 7f 93 a6 3d 6f c6 e0 bb
       -0.011209289 -0.006210082 0.081336014 -0.0068595926
0001d0 72 43 4e bd 49 29 bc 3d a0 89 70 bd 1d c9 90 bd
       -0.05035729 0.09187562 -0.058725 -0.07069609
0001e0 ab 08 23 3d dd bd a0 bc 39 aa f6 3d db bd 91 3d
       0.03980319 -0.019621784 0.12044186 0.0711629
0001f0 95 a7 a3 3d bb 7b f9 3d 0c ca 43 ba 36 56 dc 3b
       0.07990948 0.12181803 -0.0007468767 0.0067241443
000200 28 5d b8 bc e7 7c 5b 3a 48 61 a6 3e f8 24 0e be
       -0.022505358 0.0008372799 0.32496095 -0.1388129
000210 64 8d 90 bd 14 2e 9b bd e8 77 96 ba 79 31 18 3d
       -0.07058218 -0.07577148 -0.0011479827 0.037156556
000220 04 a3 07 be b6 6c ec bd dd 53 26 bc e3 ee 0f be
       -0.1324578 -0.115441725 -0.0101518305 -0.14055972
000230 37 43 bf 3c 37 4c 7b 3d e5 f8 7a bd e4 91 f6 bd
       0.02334748 0.06135198 -0.06127252 -0.12039545
000240 ed aa 0f bd a0 09 79 3d 29 26 78 3d 8a 51 34 bd
       -0.035075117 0.060800195 0.060583267 -0.044023074
000250 a6 4f b0 bc a6 6c b2 3c 93 de 84 bc e2 16 4f bd
       -0.021522354 0.021780323 -0.016219413 -0.050558932
000260 e5 80 ab bb 36 b6 ff 3c c7 41 c5 bd a5 47 3f 3e
       -0.0052338713 0.031214815 -0.09631687 0.18679674
000270 d9 f1 03 bd cb be 03 3e cb fd 7c 3d 21 b5 87 3e
       -0.032213066 0.1286575 0.061765473 0.26505378
000280 1e 9b 85 be 1b 43 55 3d d7 41 cb 3d 37 fc a6 bd
       -0.26094908 0.05206595 0.09924667 -0.08153575
000290 cf 41 ef bd 34 0e ac 3d b9 13 4c 3d 8c 2e 14 3d
       -0.11682474 0.084011465 0.049823496 0.036177203
0002a0 f1 35 99 bc d4 53 83 3d e8 57 7c bd a8 7d 3c 3c
       -0.01870248 0.06412473 -0.06160727 0.011504568
0002b0 19 2a fc 3c d8 c5 b7 3e ae a1 7c 3d 3f 11 96 3d
       0.030781792 0.3589313 0.061677627 0.07327508
0002c0 b0 24 43 bd 8b 1e 8d be 21 a6 c9 bd 9a e5 10 be
       -0.04764241 -0.27562365 -0.0984614 -0.14150086
0002d0 12 54 79 3e 67 f4 1c bd 4e 31 4e 3e 83 4d 93 3d
       0.24348477 -0.038319018 0.20135996 0.071925186
0002e0 08 48 89 3c fc 3c ed 3c cd 2b 25 bd 5e 84 7a bd
       0.01675798 0.028959744 -0.040324975 -0.06116139
0002f0 ec 58 28 be fb 41 97 be d5 8e b2 bc c6 34 de bd
       -0.16440171 -0.29542527 -0.021796623 -0.108499095
000300 16 2b d3 bc ec fb 57 3c 7c 00 f3 3a 94 b4 d5 3d
       -0.02577738 0.013182621 0.0018539573 0.10434833
000310 15 5e 99 3d 20 4c a1 bc e1 25 a8 3c 09 27 dc bd
       0.07488648 -0.01968962 0.020525875 -0.10749633
000320 32 43 23 3e 81 0b 4a bb 0e 9b 92 3c 9d cd 94 3a
       0.15943602 -0.003082961 0.017896201 0.0011352781
000330 03 45 b2 bd c5 55 f3 bc 28 b3 f1 bc ae 9f 3a bd
       -0.08704569 -0.029703984 -0.029504374 -0.04556244
000340 40 90 69 3c f0 6a c5 bc 18 56 34 bd e6 4a 0b bd
       0.014255583 -0.024098843 -0.044027418 -0.034006976
000350 34 17 10 bc 90 2e 0e 3e 53 49 0c 3d d7 3e f5 bd
       -0.008794595 0.1388495 0.034249615 -0.119748764
000360 22 c3 32 bc 5f cf 03 bc 89 f3 91 3d ec ec 1e bd
       -0.010910781 -0.008045047 0.07126529 -0.038800165
000370 a9 85 01 bd 01 ce 08 bc 92 4b 8c bd e3 79 22 3c
       -0.03162161 -0.008349896 -0.068503514 0.009916755
000380 da 0c 71 bc 51 e2 29 bd b8 01 48 3d 39 61 37 bd
       -0.014712537 -0.041475598 0.048829764 -0.044770453
000390 99 db 15 3e fa 19 49 bd e9 20 a6 3d 98 18 12 bd
       0.14634551 -0.04909704 0.08111746 -0.035667986
0003a0 27 45 91 bc a4 eb e9 bd 49 ff 98 bc 98 15 19 bd
       -0.01773317 -0.11421898 -0.018676417 -0.03737411
0003b0 41 99 95 bd f4 7e 02 be 95 83 04 3e 9c cf e7 bc
       -0.073046215 -0.12743741 0.1294082 -0.028297238
0003c0 38 c0 1e 3d 61 c3 0a be 0f e8 b3 3d 76 e7 50 3d
       0.038757533 -0.13551094 0.08784496 0.05100199
0003d0 94 31 8a bd 1e 38 c9 3d 7c 1c 1d bc f9 04 84 bd
       -0.067477375 0.09825157 -0.009589311 -0.06446261
0003e0 ce 5d 00 bd f0 28 1b 3e 78 3f 12 3d 23 fb 52 3d
       -0.03133946 0.15152335 0.03570506 0.051509034
0003f0 85 ce 91 3b 5d 2d 86 bd b6 ad 35 bb 53 38 02 be
       0.004449668 -0.06551621 -0.0027721948 -0.12716798

affine_layers.1.bias f4 [64]
000000 20 4d f2 3c 22 08 81 3b 4f b8 89 bc 1d 65 a7 bc
       0.029577792 0.003937737 -0.016811518 -0.020433957
000010 78 9b d1 bd 8b 8a 4a 3e fd 33 c8 3d 0f 43 4d be
       -0.102347314 0.19779412 0.09775541 -0.20045112
000020 85 8c b3 3e 8f 8d 48 bd 68 67 1a be 83 e7 94 3d
       0.35068145 -0.048963126 -0.15078509 0.0727072
000030 a3 64 f3 3d dd 67 39 be c6 eb ed 3c ca 63 96 3e
       0.11884429 -0.18106027 0.02904309 0.29373008
000040 11 24 3e be 5d a9 81 bd 57 a7 7d 3d 2e 13 df bd
       -0.18568446 -0.063311316 0.061927166 -0.1089233
000050 b6 8b c0 3e 21 da 03 bd 7d 6c 28 bd e7 c4 03 be
       0.3760659 -0.032190446 -0.041119087 -0.12868081
000060 f6 8f c5 39 2a 84 a2 bd f6 72 28 3d b4 54 a8 3c
       0.00037682027 -0.079353645 0.04112526 0.020548202
000070 9f e8 86 be f2 d4 60 3e ff 32 90 3c 58 27 fb bd
       -0.2634935 0.21956232 0.017602442 -0.122633636
000080 98 b6 8b bc 10 d6 99 be a2 65 cc b9 e3 67 bc 3d
       -0.01705484 -0.3004613 -0.00038985634 0.09199502
000090 37 60 bc 3e 18 e9 f3 3b 71 fc 96 be bb 79 c7 3c
       0.36792156 0.0074435584 -0.29489473 0.024350038
0000a0 c6 2e 80 3c e9 0d b5 3c 4a 5d 06 be d8 74 9c bd
       0.015647303 0.02210136 -0.13121524 -0.07639474
0000b0 f9 dc 97 3d 7e b8 db 3e 0d 56 80 bd 1a 79 19 be
       0.07415194 0.42914194 -0.06266413 -0.14987603
0000c0 86 ad 64 be 4a 2d 80 3d d1 fa 78 be 8d 14 a7 bc
       -0.22331819 0.06258638 -0.24314429 -0.020395542
0000d0 03 4e fe 3c 8a 31 9c 3d 26 07 d9 bd e9 cc 9b 3c
       0.031043058 0.07626636 -0.105970666 0.019018607
0000e0 e2 16 e6 bd 74 80 39 be ee 63 ae 3d 84 f5 88 3d
       -0.11234833 -0.18115407 0.08515154 0.066874534
0000f0 cd 4e 15 3d 32 10 ca 3c cd 67 17 3c d8 21 e9 bb
       0.036452103 0.024665926 0.009241057 -0.00711463

final_mean.weight f4 [6, 64]
000000 49 78 86 3c 19 c7 03 bb f8 94 1c bd 2d c5 15 bc
       0.016414778 -0.0020107685 -0.038228005 -0.009141249
000010 29 cb 91 3b 1d 5d cc 3c bb 26 a5 bd f6 06 f8 3c
       0.0044492674 0.024946744 -0.08064028 0.030276757
000020 67 6a 86 3e 4d 43 14 3c b6 7a 97 be cc 95 1a bc
       0.26253054 0.009049249 -0.2958581 -0.009435128
000030 09 5f 2f be a8 a8 2d be a6 ae 17 3a de e4 f3 3e
       -0.17126097 -0.16958869 0.00057862175 0.4763555
000040 15 cd 06 3e 64 3a 1e 3d f4 73 2d 3b 10 4b 26 3c
       0.1316417 0.038629904 0.0026466819 0.010149732
000050 c5 f0 fd bd 47 b4 5d ba 17 62 fe 3b 2d 5e 37 ba
       -0.12399439 -0.00084573444 0.007763158 -0.0006994929
000060 8e 53 11 3a 86 81 46 bb a9 7e 85 bc be 9e 8c bb
       0.00055437617 -0.0030289604 -0.016295748 -0.0042913845
000070 ed 30 15 be 11 25 dd be 99 24 a5 3c 5d 3e 35 3c
       -0.14569445 -0.43192342 0.020159053 0.011062232
000080 d2 59 8f 3c 4b 79 9a bd 83 0d ad 3b ea fb c7 bd
       0.017498884 -0.07542666 0.0052811517 -0.09764846
000090 44 96 65 3e d5 6a 6e bc c5 a6 3e 3e e9 3b 1c 3c
       0.22420603 -0.014551838 0.18618305 0.009535768
0000a0 47 b2 74 3d a9 c7 f0 bb e2 b0 53 bd 07 fa fe ba
       0.05974033 -0.00734802 -0.05168236 -0.0019453176
0000b0 4c 02 f1 3e 8f 76 2a 3f 20 e9 48 3b 11 61 76 3b
       0.47072065 0.66587156 0.0030656531 0.0037594477
0000c0 1d d8 51 bc aa 5d a9 3b 18 f3 b4 3e 81 cc 4d bc
       -0.012807873 0.0051686363 0.35341716 -0.012560965
0000d0 16 eb 18 bc 15 98 b7 3b e6 d4 8e 38 e9 c6 7e be
       -0.009333393 0.0056028464 6.810743e-05 -0.24880566
0000e0 75 e6 3c bd 80 f2 9a 3e e5 93 99 3e 36 cd 1e 3b
       -0.04611822 0.30263138 0.29995647 0.0024231202
0000f0 2d 19 2a 3c d8 1e 9d 39 6e df 02 3c eb 4f 77 3b
       0.010381979 0.00029968354 0.00798784 0.0037736844
000100 5a 8e 15 3c cf bd a2 3a 9e af b0 3d e9 82 77 3b
       0.009128178 0.0012416187 0.08627246 0.0037767238
000110 40 d7 4d 3c 11 63 df bd 08 6c 7f 3c 92 00 5d 3e
       0.012563527 -0.10907567 0.0155897215 0.21582249
000120 48 74 ed bd 18 75 d9 3b 18 4b 03 be 3d fb 1a bc
       -0.115944445 0.006636273 -0.12821615 -0.009459314
000130 ba 83 f2 3e 6e e6 fd bd 47 d1 81 bb 44 16 37 be
       0.47366124 -0.123974666 -0.0039617154 -0.17879587
000140 d7 1e 41 3e 5f c2 86 3e 72 ca 5a 3c eb af cd 39
       0.1885942 0.26320168 0.013353931 0.00039231716
000150 53 e1 81 3e 1f 44 03 3c 27 39 34 3b 10 96 23 bd
       0.2536722 0.008011847 0.0027499886 -0.039938033
000160 2f b1 d9 3a fb ab 54 bc 27 b3 94 3d 1d 1c ab 3a
       0.0016608591 -0.012980456 0.07260733 0.0013054643
000170 89 64 26 3e 1a 0c a6 bc 90 7c 01 3b a2 31 04 3c
       0.16249289 -0.020269442 0.0019758083 0.008068474
000180 90 bf 93 3c a5 31 1b 3d 43 38 a0 3a be cc 18 bf
       0.01803568 0.03788914 0.0012223799 -0.5968741
000190 ed dc be 3d 02 4d 92 3b 4e cc 23 3e 04 c3 0c 3c
       0.09319482 0.0044647465 0.15995905 0.008591417
0001a0 e8 2e 90 3e ea 51 f7 bb ee 35 2b 3e f0 9f 1f bb
       0.28160787 -0.0075476067 0.16719791 -0.0024356805
0001b0 a7 06 db bd a4 68 0d 3e 16 c1 94 3b 03 43 6b 3c
       -0.10694628 0.13809448 0.004539619 0.014359239
0001c0 61 96 01 3d ec 5b 0b bb 02 f8 a6 3e 87 2c 9c 3a
       0.031637553 -0.0021264507 0.3261109 0.0011915126
0001d0 43 2a 13 ba 9b bf 7e 3b b5 c4 89 ba f8 a8 6e 3e
       -0.00056139025 0.003887153 -0.0010510894 0.23306644
0001e0 2d 5d dc bb 95 f2 34 be 2b 8f 09 be 8e 28 57 ba
       -0.0067249746 -0.17670663 -0.1343352 -0.0008207642
0001f0 65 d3 59 3a d2 c6 33 bb 74 8c 39 bb fd 2f 54 bb
       0.00083093933 -0.0027431739 -0.0028312476 -0.0032377236
000200 65 fc 06 bc c4 01 a2 bb 33 69 99 3e c9 02 8e bb
       -0.0082388865 -0.004944058 0.29963073 -0.004333828
000210 e2 37 03 3c de 48 99 3c a3 8a 9c bc b5 5f 88 bd
       0.008008929 0.018711504 -0.019109076 -0.0665888
000220 7a 98 9a 3e 41 c8 16 3b 61 f5 56 3d 6d a4 4e bc
       0.30194455 0.0023007544 0.052480105 -0.012612444
000230 b7 85 41 3e b9 81 1b 3c 63 d4 95 3b 5e 42 8f 3d
       0.18898664 0.0094913775 0.0045724376 0.069950804
000240 95 25 ec 3d 10 76 64 3e 8b 2e f9 3b ec 33 29 3c
       0.11530606 0.22310662 0.0076044253 0.010327321
000250 47 66 5c be 8b c3 c0 ba 0d 56 9c b8 28 1b 3c 3c
       -0.2152339 -0.0014706714 -7.454688e-05 0.011481084
000260 f6 1e 82 bb 25 ae 33 bb b1 96 9a bc 3a 50 0b 3b
       -0.003970976 -0.002741703 -0.018870683 0.0021257536
000270 0b 94 11 be d4 55 8a 3d 7b a2 5c bb 5a d0 dd bd
       -0.1421663 0.06754652 -0.0033666182 -0.108307555
000280 0f 23 85 3b 91 97 cc 3c 86 a6 2a b9 f4 dd 8e 3d
       0.004063017 0.024974616 -0.00016274498 0.06975928
000290 57 68 a4 be fc 3d 86 ba f1 ae e5 bd 41 bc c6 3b
       -0.32110855 -0.0010241861 -0.11215008 0.006064922
0002a0 2b 2b 08 3d 78 d2 b1 bb fe 5c 81 bd 1d 39 dc 39
       0.033244293 -0.005426701 -0.06316565 0.00042004223
0002b0 b2 47 00 3e 9a 4e 49 3d 47 8c 33 3b f3 1f f0 bb
       0.1252735 0.049147226 0.0027396844 -0.0073280274
0002c0 c9 30 ce bc 4f 01 c4 3b 45 f6 bf 3c 24 8b 87 bb
       -0.025169747 0.0059816013 0.02343286 -0.00413646
0002d0 87 5d ff bb 37 87 10 ba 09 f4 6c 3b 58 5f eb 3d
       -0.0077931318 -0.00055133126 0.0036156198 0.11492795
0002e0 d2 23 0c be 1a e9 1f be 1b 19 cc 3e e3 be 83 3a
       -0.1368554 -0.15616265 0.39862904 0.0010051396
0002f0 ef dd 22 bb 40 c2 24 39 e5 0d 85 3b cd 66 97 39
       -0.002485152 0.00015712623 0.0040604942 0.00028877557
000300 0e 6f 6a bc 9b fe 66 3a 09 8c 2d bc 84 66 d4 3b
       -0.014308704 0.0008811743 -0.010592469 0.0064819474
000310 ac 69 87 bb 40 ad b2 3c 57 ae ff 3d 88 bf 92 3d
       -0.00413247 0.021811128 0.124844246 0.07165438
000320 86 b6 20 be ed f2 16 bc 6d 35 0f 3e 39 df 9f 3a
       -0.15694627 -0.009213191 0.13985224 0.0012197263
000330 7e f6 09 bf 5a ab a7 3e 31 ae f3 ba 7c 03 1f 3f
       -0.5389174 0.32747918 -0.0018591342 0.6211469
000340 b1 8d bf 3b 14 cc 1d be 76 20 66 3a ac 35 e5 bb
       0.0058457484 -0.15409881 0.0008778641 -0.0069949236
000350 7c 26 44 bd 30 67 97 3a f3 a0 e4 bb 1a 00 fc bb
       -0.047888264 0.0011551138 -0.0069771945 -0.007690442
000360 70 2a 02 3b e6 f9 99 bb ed dd 07 3e dc 7f 39 bb
       0.001986172 -0.0046989797 0.13268252 -0.002830497
000370 62 8f e8 bd e0 ec 11 be 0a d4 ac bc 64 ae 2c 3d
       -0.11355473 -0.14250517 -0.021097202 0.0421585
000380 f2 f0 31 bc 2f 31 8f 3c 25 b1 ac bb 7b 1f 99 bd
       -0.0108606685 0.017479507 -0.0052701407 -0.074767075
000390 51 ba 39 3e a4 5b 72 3c 82 26 0a 3e e9 8d c0 bb
       0.1813748 0.014792357 0.13491252 -0.005876292
0003a0 91 14 c3 bc 74 7e 57 3b bb a8 17 3c e7 83 a7 39
       -0.023813518 0.0032881768 0.009256537 0.00031950997
0003b0 4a b8 26 3e b1 67 46 3f 60 55 e2 ba 1a 0a dd bb
       0.16281238 0.7750197 -0.0017267875 -0.006745589
0003c0 57 d0 31 bc e0 6e fb bb d4 8f 17 be 8e 4f c2 3b
       -0.010852895 -0.0076731294 -0.1480096 0.005929894
0003d0 b1 4a 85 3b 92 84 b3 ba 06 40 b8 b8 9a 24 29 3d
       0.004067742 -0.0013696125 -8.785729e-05 0.04129467
0003e0 54 98 5e 3b 35 7e 80 3e 73 c1 09 3b 10 2a c9 ba
       0.0033965306 0.25096288 0.0021019846 -0.0015347619
0003f0 36 44 1d bc b5 4c 87 ba 2f 2c ff bb 14 be 70 bb
       -0.009598782 -0.0010322543 -0.0077872495 -0.003673439

final_mean.bias f4 [6]
000000 5c e7 7f 3d d6 a5 24 bd bf 0e 94 bd 24 74 98 3c
       0.0624765 -0.040197216 -0.07229375 0.018610068
000010 93 65 ab bd fa b3 00 3e
       -0.08368983 0.12568656
