src/collect_models/rluc/hopper_rluc_best.model (torch, 136398 bytes, 36 tensors)

affine_layers.0.weight f4 [64, 11]
0.23295327 0.09036288 -0.5094851 -0.29331848 -0.182078 -0.25058886 0.004729786 0.22272806
-0.31066167 -0.22737244 -0.029499134 -0.051865283 0.5261164 -1.1634424 -0.46638733 0.12586102
0.3713025 0.23274112 -0.06499221 0.07406958 -0.015097364 0.028996916 -0.4470509 0.34599593
-0.28831363 -0.486899 0.36464703 -0.54911256 0.05869733 0.010060979 0.09480975 -0.10035769
0.20208786 0.030752577 0.0035101846 0.63763434 0.34573087 0.41245818 -0.67228657 0.26208484
0.061717317 0.1199441 0.02595105 -0.22241047 0.37722534 -0.17396268 0.12785248 -0.008472
-0.10190599 -0.7204612 0.37558332 0.23534274 -0.36740193 0.07636095 -0.00467137 -0.17973094
0.2372661 -0.12019477 -0.20388795 0.21930087 -0.01049634 -0.041068636 -0.080635265 0.19045322
-0.045173123 0.13337101 0.031958435 0.20813 -0.26972488 -0.010762595 -0.045664113 0.30306295
-0.11181396 0.050972484 -0.060603376 -0.029572012 0.32602668 -0.17901927 0.17855704 -0.20903125
-0.24217716 -0.02828913 -0.46729043 -0.017676279 0.03326566 -0.02935168 0.11236404 0.037913922
-0.01592358 -0.09240014 0.43225342 0.11548775 -0.063527346 -0.6325725 0.07439666 0.08898277
-0.10075153 0.061668646 0.06399739 -0.12071569 0.03862928 -0.14562711 -0.027520938 -0.1315453
-0.82618034 0.36123648 0.041397598 0.09750008 0.35401526 0.34853974 0.21219668 0.14490803
-0.29814532 -0.19054538 -0.2404195 -0.35760957 -0.12870625 0.091785215 -0.13717768 -0.09868572
-0.22486646 0.17954016 0.22581142 -0.3640116 -0.24480547 0.53170913 0.33527347 0.16929772
0.00051945774 -0.08921165 -0.07638793 -0.07009327 -0.39442658 0.011647562 0.13890265 -0.15006949
-0.29539388 0.22184692 -0.22999887 0.04581445 -0.0194258 0.017309569 0.27063683 -0.3573559
0.23368195 0.21917394 0.00092315645 -0.04709437 -0.2691359 0.33886105 0.06568288 0.008954851
0.08857673 -0.074422106 -0.36241853 0.0097998725 0.104861945 0.21936698 -0.2203325 -0.011087717
-0.40646693 0.042133816 0.024684902 -0.033171825 0.32190353 0.083058506 -0.2783896 0.70549285
0.14612418 -0.073891975 -0.5848524 0.10520105 -0.12404749 0.26491064 0.28812334 0.030747188
0.2625945 -0.01587995 0.601857 0.38125876 0.3209864 -0.5663258 0.35148212 0.14939308
-0.10657931 0.06945643 -0.044240423 0.17724967 -0.05104801 -0.73857003 -0.21885017 0.3372321
-0.5206598 0.06255421 -0.007995072 -0.03495742 0.1951195 0.17893717 0.37465116 0.35368258
-1.0504566 -0.28558987 -0.1320923 0.19010293 0.28855005 -0.06367987 0.1553512 -0.15672068
-0.16219991 -0.050698806 -0.21302079 0.23112659 -0.04618003 -0.11206344 -0.07213612 -0.03274233
-0.20699474 0.30132797 0.28525114 0.18818566 0.22416633 0.1164486 -0.46098933 0.009752571
-0.0069891172 -0.32182634 0.010746347 0.20145592 -0.27823836 0.049750026 0.09517342 1.049144
0.022511957 -0.15968037 -0.01041768 -0.19962655 0.48666155 -0.22678313 -0.04690042 -0.055096496
0.035533987 0.16923296 -0.0053530904 0.032072175 -0.016899807 0.06511893 0.3890091 0.1549201
0.21513443 -0.18733916 0.36916575 0.20725885 0.050266694 0.087134436 -0.3089046 0.6434447
00000000: 4d8b 6e3e 2c10 b93d 9e6d 02bf d72d 96be
00000010: a872 3abe 2f4d 80be 52fc 9a3b d312 643e
00000020: 0c0f 9fbe 52d4 68be 2ba8 f1bc b170 54bd
00000030: 90af 063f aeeb 94bf 52ca eebe b6e1 003e
00000040: 5c1b be3e b053 6e3e a31a 85bd cbb1 973d
00000050: ef5a 77bc f18a ed3c dbe3 e4be 6126 b13e
00000060: d89d 93be d34a f9be 04b3 ba3e a492 0cbf
00000070: 9d6c 703d ced6 243c 9d2b c23d 5588 cdbd
00000080: 1ff0 4e3e d4ec fb3c 200b 663b 013c 233f
00000090: a303 b13e b82d d33e f91a 2cbf fc2f 863e
000000a0: 4ccb 7c3d 41a5 f53d 4c97 d43c 92bf 63be
000000b0: ae23 c13e 4623 32be c3eb 023e 25ce 0abc
000000c0: 16b4 d0bd 2570 38bf 754c c03e b0fd 703e
000000d0: 1b1c bcbe 2163 9c3d 4b12 99bb 630b 38be
000000e0: e2f5 723e ad28 f6bd 01c8 50be 6890 603e
000000f0: d7f8 2bbc 9637 28bd 1a24 a5bd 2b06 433e
00000100: 7407 39bd 6992 083e d9e6 023d 0820 553e
00000110: 6119 8abe 9855 30bc 4b0a 3bbd 112b 9b3e
00000120: b8fe e4bd 86c8 503d 3f3b 78bd 0141 f2bc
00000130: f8ec a63e d450 37be a8d7 363e 4a0c 56be
00000140: 4afd 77be 9bbe e7bc b140 efbe d8cd 90bc
00000150: 9341 083d ef72 f0bc 1e1f e63d a14b 1b3d
00000160: 2b72 82bc 493c bdbd 5250 dd3e d784 ec3d
00000170: a01a 82bd 45f0 21bf 475d 983d 993c b63d
00000180: d156 cebd 4398 7c3d 1011 833d ca39 f7bd
00000190: bc39 1e3d 461f 15be 9773 e1bc d0b3 06be
000001a0: 8e80 53bf fdf3 b83e 8790 293d 1fae c73d
000001b0: 7d41 b53e cd73 b23e 164a 593e c562 143e
000001c0: 81a6 98be 541e 43be 8830 76be 9a18 b7be
000001d0: 92cb 03be e3f9 bb3d 4e78 0cbe bd1b cabd
000001e0: 6543 66be 60d9 373e 1c3b 673e ba5f babe
000001f0: 49ae 7abe 171e 083f f7a8 ab3e 625c 2d3e
00000200: 382c 083a 99b4 b6bd 4671 9cbd 0f8d 8fbd
00000210: 48f2 c9be 6ad5 3e3c 7f3c 0e3e d1ab 19be
00000220: de3d 97be d72b 633e d384 6bbe efa7 3b3d
00000230: db22 9fbc cccc 8d3c e990 8a3e 5af7 b6be
00000240: 524a 6f3e 226f 603e fbff 713a 07e6 40bd
00000250: 2ecc 89be 327f ad3e bf84 863d 5eb7 123c
00000260: b767 b53d 9e6a 98bd ec8e b9be a58f 203c
00000270: dcc1 d63d bda1 603e d89e 61be 41a9 35bc
00000280: 6f1c d0be 8294 2c3d fe37 ca3c 2edf 07bd
00000290: 8ad0 a43e 941a aa3d 1589 8ebe 2e9b 343f
000002a0: 94a1 153e ad54 97bd e3b8 15bf a673 d73d
000002b0: 9c0c febd 5ea2 873e e784 933e 87e1 fb3c
000002c0: c972 863e ab16 82bc 4d13 1a3f 5934 c33e
000002d0: 5458 a43e bafa 10bf 77f5 b33e 80fa 183e
000002e0: 4146 dabd 2c3f 8e3d 7235 35bd f080 353e
000002f0: b817 51bd ed12 3dbf 421a 60be b0a9 ac3e
00000300: f649 05bf 6c1c 803d c3fd 02bc 832f 0fbd
00000310: 68cd 473e 4e3b 373e 47d2 bf3e e215 b53e
00000320: 5d75 86bf d638 92be 3443 07be 58aa 423e
00000330: d5bc 933e 976a 82bd 6314 1f3e 637b 20be
00000340: bc17 26be 8da9 4fbd 1f22 5abe 73ac 6c3e
00000350: 4527 3dbd 8481 e5bd 1abc 93bd d21c 06bd
00000360: 6ef6 53be a947 9a3e 700c 923e beb3 403e
00000370: dc8b 653e 9b7c ee3d cb06 ecbe 3fc9 1f3c
00000380: f704 e5bb 6cc6 a4be 7211 303c 764a 4e3e
00000390: 4275 8ebe afc6 4b3d 48ea c23d 5a4a 863f
000003a0: ff6a b83c 4083 23be ebae 2abc e76a 4cbe
000003b0: b42b f93e d639 68be a81a 40bd ddac 61bd
000003c0: 168c 113d 684b 2d3e fa68 afbb 1d5e 033d
000003d0: 7771 8abc 135d 853d 332c c73e 60a3 1e3e
000003e0: 334c 5c3e d6d5 3fbe 4b03 bd3e aa3b 543e
000003f0: 73e4 4d3d 8a73 b23d be28 9ebe cbb8 243f

affine_layers.0.bias f4 [64]
-0.28753203 -0.0076703024 -0.20918436 0.1568223 0.37548107 0.37891516 -0.24471743 0.5233062
-0.30149612 -0.15678322 -0.28326455 0.29379714 0.48611945 0.3923425 -0.661744 0.7016821
0.38189265 0.52983814 -0.20528497 -0.8350894 0.5462416 0.29274353 0.33641043 -0.08799657
-0.7849596 0.4364903 -0.53590375 0.5170621 0.7070953 0.42322522 0.38037992 -0.51753527
0.42766732 -0.6679383 0.5620015 -0.92958665 -0.48879927 0.39682737 0.11065371 -0.05892852
-0.15753347 -0.8429046 0.6703738 0.49797654 0.45646563 1.0904945 -0.9110172 0.09968082
-0.3842811 0.06341449 -0.670891 0.48147002 -0.36613292 -0.017007003 0.3149342 -0.30413353
-0.11319199 0.39526987 0.020451311 0.3278604 -0.31790116 -0.24269372 -0.60494924 0.43323976
00000000: 6637 93be 2957 fbbb 6d34 56be 0696 203e
00000010: 0e3f c03e 2b01 c23e 3597 7abe 65f7 053f
00000020: b35d 9abe c88b 20be 0d08 91be 946c 963e
00000030: a6e4 f83e 1ee1 c83e 0e68 29bf 70a1 333f
00000040: 6f87 c33e 79a3 073f 3936 52be 6bc8 55bf
00000050: 7dd6 0b3f 7be2 953e fd3d ac3e 8c37 b4bd
00000060: 1df3 48bf a87b df3e fd30 09bf 2f5e 043f
00000070: 3304 353f fab0 d83e 28c1 c23e 317d 04bf
00000080: 36f7 da3e 01fe 2abf 55df 0f3f 64f9 6dbf
00000090: e643 fabe f52c cb3e 6a9e e23d 085f 71bd
000000a0: 7450 21be 99c8 57bf 9e9d 2b3f c8f6 fe3e
000000b0: ddb5 e93e 5395 8b3f 6c38 69bf 7525 cc3d
000000c0: 7ec0 c4be 75df 813d 83bf 2bbf 3d83 f63e
000000d0: c675 bbbe 4552 8bbc 0e3f a13e 64b7 9bbe
000000e0: 34d1 e7bd d060 ca3e 8289 a73c 51dd a73e
000000f0: f1c3 a2be b484 78be f4dd 1abf 9ad1 dd3e

affine_layers.1.weight f4 [64, 64]
-0.3628832 0.14501071 0.14716879 0.048487447 -0.12925743 0.061533496 -0.025711829 0.017337719
-0.02670155 0.5217504 0.3135639 0.17640963 0.10781325 0.28770143 -0.038781546 -0.0008395151
-0.07372496 0.11877521 -0.21433108 0.019100176 0.47620937 0.34079722 0.30296597 -0.17307392
-0.060027823 0.26618376 0.29700372 0.17748429 -0.22032036 -0.4177806 -0.102895714 0.46603528
0.05285059 0.16583958 0.2658687 0.26853007 0.048496906 -0.2998899 0.114746764 -0.5547678
-0.30051035 0.1856812 0.054904066 0.19422549 0.048965953 0.018783988 0.2334092 0.1307039
0.10304196 0.02984782 0.30469152 -0.53892833 -0.023594594 0.36318228 -0.04338629 -0.07591095
-0.03063589 -0.1960975 -0.012547698 -0.102919534 -0.27257589 0.1258586 -0.16806987 -0.13827305
-0.54249114 -0.206593 -0.2402783 0.5972247 -0.2593834 0.047206335 -0.046852153 -0.461525
-0.032151554 -0.32456464 -0.21754797 0.04145414 -0.45220813 -0.030392049 0.11732456 -0.078345396
-0.24493924 -0.2202192 -0.29692963 0.044442676 -0.42595237 -0.026518727 0.24551368 0.13535298
0.34660566 0.23674574 -0.11992118 0.22075403 -0.011086515 0.046162333 -0.43964157 -0.4355959
0.22503008 -0.080297284 -0.2479994 0.17268291 -0.006027997 -0.30845398 -0.14905713 0.21580495
-0.031877276 0.39337805 -0.17620558 -0.1508103 -0.3536984 -0.14249313 0.25487027 0.53575873
0.13709518 -0.11782148 0.26887783 0.1480901 -0.6532302 -0.09221629 -0.20205577 -0.12501213
-0.08761761 -0.012792911 -0.1150078 -0.39804196 -0.0492647 0.051425964 0.570805 -0.2259915
-0.37465742 -0.28575176 0.24299942 -0.13192633 -0.15990418 0.14187889 -0.037411656 -0.32627624
0.13470258 -0.13566753 -0.66011554 -0.10203065 0.61995244 -0.124952376 0.08110021 0.27974164
0.21648355 0.07158733 -0.5250473 -0.1395713 -0.3420728 -0.44645104 -0.13411859 0.024520844
-0.4316061 -0.3452931 0.2615815 0.1275172 0.2582889 0.08235734 0.012135266 0.08666487
0.16692643 -0.0033433023 0.25844175 0.30749607 0.08789359 -0.39224827 0.032377888 -0.14261585
-0.37336943 -0.2010195 -0.05923719 0.4061511 0.06928012 0.08842843 -0.089838006 0.40260923
-0.03954457 -0.051338386 -0.6718972 0.027994618 -0.3327195 0.11682571 -0.21015304 -0.24316089
0.07627355 -0.24826556 0.27741957 0.21006858 -0.11542175 0.23907624 -0.15127833 0.072536424
-0.30219644 0.1030691 0.38678932 -0.08803256 -0.19048509 -0.008016837 0.37674457 0.19946681
-0.11900472 -0.093896694 -0.23706071 0.036674272 0.33875477 -0.02329499 0.45031855 -0.12140527
-0.30101675 -0.09915335 0.102137126 -0.26332524 -0.4332628 -0.4451008 0.08739562 -0.09092088
-0.19620647 -0.27228934 -0.24607359 0.26129022 -0.11471814 -0.16510211 -0.12785372 0.08952445
-0.052839234 0.15801692 -0.42725542 -0.19608246 0.07256592 0.027327774 0.033251286 0.10056687
-0.15761037 -0.09513507 -0.3158883 -0.17331603 -0.0147325 0.13237609 0.26021 -0.10180831
0.19730094 -0.42276454 0.10184308 -0.29348764 0.1328509 0.109768994 0.12795995 -0.20437774
0.04896287 -0.44019923 0.2851246 -0.21815988 -0.001500327 0.101320095 -0.02448515 0.0841409
00000000: d4cb b9be b07d 143e 6ab3 163e c69a 463d
00000010: 0f5c 04be 8c0a 7c3d 9da1 d2bc d507 8e3c
00000020: 36bd dabc 6f91 053f 738b a03e baa4 343e
00000030: 31cd dc3d 9a4d 933e 66d9 1ebd e812 5cba
00000040: 1dfd 96bd 6b40 f33d 9b79 5bbe f977 9c3c
00000050: b7d1 f33e f97c ae3e 5b1e 9b3e 4a3a 31be
00000060: bcdf 75bd 3d49 883e df10 983e 71be 353e
00000070: a99b 61be 57e7 d5be fdba d2bd 2d9c ee3e
00000080: dc79 583d dad1 293e f11f 883e c67c 893e
00000090: b1a4 463d 2b8b 99be 5a00 eb3d 4305 0ebf
000000a0: 7edc 99be 3623 3e3e 16e3 603d 0ce3 463e
000000b0: 8690 483d e1e0 993c d202 6f3e 3ed7 053e
000000c0: aa07 d33d 6a83 f43c 8700 9c3e 35f7 09bf
000000d0: 7349 c1bc 07f3 b93e d3b5 31bd 3377 9bbd
000000e0: 1ef8 fabc c8cd 48be dc94 4dbc 7ac7 d2bd
000000f0: 118f 8bbe 14e1 003e 821a 2cbe 7397 0dbe
00000100: b3e0 0abf 1e8d 53be 840b 76be b8e3 183f
00000110: e7cd 84be 6e5b 413d 0be8 3fbd 014d ecbe
00000120: 59b1 03bd 562d a6be e5c4 5ebe d1cb 293d
00000130: d387 e7be bff8 f8bc dc47 f03d 8d73 a0bd
00000140: 5ad1 7abe 2481 61be 2907 98be 8609 363d
00000150: 6e16 dabe cd3d d9bc f067 7b3e f999 0a3e
00000160: 4c76 b13e 7a6d 723e 3c99 f5bd 580d 623e
00000170: 37a4 35bc b714 3d3d b318 e1be 6d06 dfbe
00000180: 496e 663e e772 a4bd 8ef3 7dbe cad3 303e
00000190: 8186 c5bb aeed 9dbe 6fa2 18be f9fb 5c3e
000001a0: bf91 02bd d968 c93e 3c6f 34be 046e 1abe
000001b0: f517 b5be b8e9 11be 5b7e 823e 7c27 093f
000001c0: ae62 0c3e 634c f1bd 5baa 893e eea4 173e
000001d0: 183a 27bf e5db bcbd b5e7 4ebe 2e03 00be
000001e0: dd70 b3bd 5c99 51bc 3689 ebbd 28cc cbbe
000001f0: c8c9 49bd 08a4 523d 4720 123f 516a 67be
00000200: 19d3 bfbe 0e4e 92be d7d4 783e b217 07be
00000210: ecbd 23be b348 113e f73c 19bd ae0d a7be
00000220: 79ef 093e 6eec 0abe 55fd 28bf 72f5 d0bd
00000230: 34b5 1e3f 08e7 ffbd de17 a63d 4c3a 8f3e
00000240: ddad 5d3e 619c 923d 8069 06bf c7eb 0ebe
00000250: 2b24 afbe 3b95 e4be 6256 09be f0df c83c
00000260: 7afb dcbe 42ca b0be 03ee 853e de93 023e
00000270: 713e 843e f7aa a83d ffd2 463c 5a7d b13d
00000280: c3ee 2a3e 4e1b 5bbb 7a52 843e 2070 9d3e
00000290: 8e01 b43d c4d4 c8be ad9e 043d e409 12be
000002a0: 472a bfbe 0ed8 4dbe b2a2 72bd 09f3 cf3e
000002b0: bce2 8d3d f719 b53d fdfc b7bd cc22 ce3e
000002c0: 7df9 21bd 3348 52bd 7401 2cbf f854 e53c
000002d0: 365a aabe 5142 ef3d 5c32 57be 2bff 78be
000002e0: 4f35 9c3d 5439 7ebe f009 8e3e 381c 573e
000002f0: 3d62 ecbd 67d0 743e b5e8 1abe fa8d 943d
00000300: 7eb9 9abe e415 d33d 4009 c63e 6a4a b4bd
00000310: 860e 43be 0d59 03bc aae4 c03e 0741 4c3e
00000320: bfb8 f3bd e94c c0bd 0bc0 72be c337 163d
00000330: 4471 ad3e 23d5 bebc 2790 e63e 54a3 f8bd
00000340: de1e 9abe e910 cbbd 452d d13d 91d2 86be
00000350: 9fd4 ddbe 41e4 e3be 7afc b23d ba34 babd
00000360: 59ea 48be 8269 8bbe b7fa 7bbe d5c7 853e
00000370: 58f1 eabd 8710 29be 16ec 02be 9858 b73d
00000380: f46d 58bd 30cf 213e 39c1 dabe d7c9 48be
00000390: 719d 943d 7fde df3c 8032 083d 01f6 cd3d
000003a0: 9d64 21be 2dd6 c2bd 1cbc a1be c279 31be
000003b0: 9560 71bc 998d 073e 3f3a 853e e080 d0bd
000003c0: 4209 4a3e 9874 d8be 1b93 d03d 0344 96be
000003d0: 110a 083e 91ce e03d ef07 033e 6648 51be
000003e0: 4a8d 483d cb61 e1be dafb 913e 4e65 5fbe
000003f0: 9fa6 c4ba e980 cf3d 1595 c8bc 1052 ac3d

affine_layers.1.bias f4 [64]
0.15135755 -0.26223487 -0.0784322 0.16545711 -0.10564261 -0.021858927 -0.13091001 0.02721391
0.11909429 -0.10862962 0.14474137 -0.00033900715 0.17765181 -0.2247989 0.03132399 0.1464539
0.04761267 -0.18938406 0.12601547 0.23948427 0.1397872 0.10655362 -0.0016822367 0.2998662
0.20831425 -0.08721053 -0.35277322 -0.14535251 0.23992717 0.011414403 -0.15963154 -0.16816084
0.24610694 0.25165936 -0.23427773 0.18681231 0.49061766 0.25871617 -0.25025454 -0.085365556
-0.009045146 0.15382193 -0.15582506 -0.20384362 0.16067138 -0.24128023 -0.41838545 -0.18418454
0.0962043 0.12251031 -0.2648746 0.2285412 -0.3081809 0.31610933 0.06949969 0.31041875
0.23514245 -0.17326389 0.057684965 -0.19856225 -0.070787214 -0.088508844 0.20740256 -0.042475674
00000000: 79fd 1a3e a643 86be 10a1 a0bd 976d 293e
00000010: 275b d8bd 7e11 b3bc 460d 06be b5ef de3c
00000020: b5e7 f33d 3579 debd 1537 143e c5bc b1b9
00000030: 5bea 353e af31 66be 964d 003d 03f8 153e
00000040: 8105 433d e5ed 41be 330a 013e 5d3b 753e
00000050: 6024 0f3e c938 da3d 7f7e dcba 1088 993e
00000060: 5550 553e 6f9b b2bd b19e b4be 4ad7 14be
00000070: 78af 753e 7a03 3b3c 7376 23be 5b32 2cbe
00000080: 7503 7c3e 7fd9 803e 80e6 6fbe ba4b 3f3e
00000090: 3d32 fb3e 7276 843e 5d21 80be 23d4 aebd
000000a0: 1832 14bc 7f83 1d3e 9b90 1fbe 62bc 50be
000000b0: 0a87 243e 2a12 77be 9e36 d6be df9a 3cbe
000000c0: c306 c53d afe6 fa3d a59d 87be b406 6a3e
000000d0: e3c9 9dbe 15d9 a13e da55 8e3d 35ef 9e3e
000000e0: 2fc9 703e 176c 31be 1247 6c3d e753 4bbe
000000f0: e3f8 90bd 2044 b5bd 5661 543e f9fa 2dbd

final.weight f4 [1, 64]
0.08148746 -0.051507127 -0.098518185 0.13637207 -0.03833213 -0.17011061 -0.047049142 0.21988466
0.070909455 -0.103345916 0.10222434 -0.22150588 0.07291067 -0.14750013 0.009999924 0.0753108
0.1424449 -0.107534744 0.14642566 0.24667467 0.14641552 0.1434831 0.28450772 0.16875459
0.03881081 -0.11903825 -0.14514415 -0.09953748 0.07074641 0.16141392 -0.11308083 -0.12427738
0.17944422 0.12013686 -0.21580583 0.073345065 0.23781511 0.0601101 -0.42221174 -0.15081704
0.060541857 0.13375229 -0.058212265 -0.030356247 -0.10786662 -0.322858 -0.20744471 -0.072446175
0.031700917 0.12704341 -0.18346784 0.27414078 -0.21706036 0.30013672 0.07103888 0.62634915
0.18859805 -0.07793506 0.09403585 -0.08850117 -0.15056059 -0.08244612 0.08673447 -0.21427885
00000000: e6e2 a63d 23f9 52bd e7c3 c9bd 1fa5 0b3e
00000010: 2702 1dbd 7a31 2ebe 9ab6 40bd 7229 613e
00000020: fa38 913d 06a7 d3bd ff5a d13d 70d2 62be
00000030: 3052 953d 460a 17be b9d6 233c 8c3c 9a3d
00000040: 13dd 113e 2d3b dcbd 9cf0 153e 4998 7c3e
00000050: f3ed 153e 3ced 123e ffaa 913e 01ce 2c3e
00000060: 15f8 1e3d 53ca f3bd aba0 14be 4eda cbbd
00000070: 7ee3 903d b149 253e ec96 e7bd 2485 febd
00000080: 3ac0 373e 500a f63d 34fc 5cbe f035 963d
00000090: ce85 733e 0236 763d 232c d8be c86f 1abe
000000a0: bdfa 773d 5cf6 083e fc6f 6ebd aaad f8bc
000000b0: 2de9 dcbd a54d a5be 636c 54be a95e 94bd
000000c0: d2d8 013d ab17 023e fede 3bbe 2e5c 8c3e
000000d0: 1245 5ebe 85ab 993e d57c 913d 6b58 203f
000000e0: d91f 413e 6b9c 9fbd de95 c03d 1a40 b5bd
000000f0: 8e2c 1abe 83d9 a8bd d8a1 b13d ea6b 5bbe

log_stdev f4 [3]
-0.17146704 -0.4344589 -0.46280038
00000000: 0e95 2fbe 6671 debe 2cf4 ecbe

affine_layers.0.weight f4 [64, 11]
0.10660844 -0.067202345 0.28483576 0.014875427 -0.0014115471 0.10086612 0.021880627 0.025990088
-0.10521103 0.04181322 0.040761005 -0.23645438 0.05610478 -0.03486018 0.039987948 0.01242649
-0.11283027 -0.08465071 0.028808532 -0.17964873 0.04532096 0.08243491 0.11728062 0.14939769
-0.016780378 -0.0954719 0.086523764 0.11337686 0.058190532 0.09946429 0.12232381 0.0284627
0.0228705 0.023176536 -0.043427076 -0.14563735 -0.16642824 0.009347014 -0.11441355 -0.01692625
-0.068386056 -0.116003364 0.0426909 0.034506958 0.027895138 0.08298752 -0.1505283 0.008073905
-0.027972188 -0.08715541 0.028704546 -0.11478883 0.0066949227 -0.0066688205 -0.0640759 0.124262
-0.07498691 0.037918 -0.048030805 0.035133634 0.045232244 0.042328242 -0.11003038 0.09623281
-0.08617492 -0.02507529 -0.012424694 0.056823224 0.065389544 -0.019434014 0.16859919 0.058012813
0.09719012 0.060345873 0.056780633 0.08044243 0.032477822 0.06856708 0.011896393 0.49992472
-0.1507667 -0.08138479 -0.100090824 -0.03455094 0.13673878 -0.016357372 0.09982985 -0.019925486
0.05631069 -0.06846196 0.026893897 0.00802495 -0.035139684 -0.08265902 0.11691437 -0.0048824144
0.08202848 -0.15974358 0.09543925 0.29137105 -0.13958655 0.005272904 -0.13456114 -0.034441788
-0.08306079 0.09928574 -0.14658976 0.059068646 -0.16765516 -0.0075085503 0.049314667 0.05428797
0.0453909 -0.24969934 0.05854178 0.06100188 0.043783706 -0.02400902 0.030697055 -0.05116819
0.014218968 0.17840452 -0.06695947 0.16102257 -0.026352366 0.06559687 0.075843856 0.037460472
-0.10599195 -0.05992568 0.07861587 0.1450674 0.14956065 0.1280911 -0.043033406 0.13108146
0.06064704 0.17748646 0.22506419 -0.20627397 0.19605203 -0.1646187 -0.40310037 -0.05518691
0.05941417 -0.16529448 -0.096483834 -0.16589646 -0.060709976 0.094843015 -0.046253778 0.14501682
-0.06282895 -0.058524538 0.059029616 0.09511159 0.03189574 -0.010653825 -0.10016183 -0.10724015
-0.18488704 -0.014343627 -0.050621107 -0.031227486 -0.07723346 -0.024332786 0.083316915 0.04709932
-0.0766497 0.006793258 -0.026893986 0.00582879 -0.1824469 -0.07362851 0.041767217 -0.10351501
-0.058544368 0.056391336 0.07381197 -0.09078633 0.09232632 -0.09936007 -0.013450409 -0.086539485
0.07265006 0.10316708 -0.0023384062 -0.07154921 -0.15431361 0.16710961 -0.24601522 -0.10371363
0.056310963 0.37400797 -0.024388116 0.0635032 -0.06357376 0.054584805 0.11177608 -0.025931546
-0.14469397 -0.42347807 -0.19829267 0.18585846 0.13155656 -0.035712875 -0.20013916 -0.008305842
0.07622002 0.083057925 -0.01746853 0.21229072 -0.119285576 0.051097717 -0.08110114 -0.021559985
0.10389346 -0.010492553 -0.08684909 -0.029885564 -0.1844413 0.014108682 -0.08433391 0.06790966
-0.012446519 0.2581763 -0.28311765 -0.13161494 -0.13220705 0.21460323 -0.16397434 0.048568465
0.23338677 -0.08284955 0.01892185 -0.11805985 0.17730613 0.120039135 -0.21760228 0.12706684
-0.10649461 -0.23249187 0.101643436 -0.18126717 0.04228072 0.25243765 0.17934181 0.0005790141
-0.063847095 0.090032026 -0.05481333 0.07221791 0.04788174 0.0020690556 0.034721058 0.04363775
00000000: 8755 da3d 62a1 89bd fed5 913e 10b8 733c
00000010: a903 b9ba e592 ce3d 003f b33c 2ae9 d43c
00000020: e178 d7bd 5744 2b3d 03f5 263d 1921 72be
00000030: 20ce 653d 8cc9 0ebd 67ca 233d 7a98 4b3c
00000040: 8e13 e7bd 5a5d adbd dfff eb3c d6f5 37be
00000050: 79a2 393d a2d3 a83d d230 f03d b5fb 183e
00000060: 0177 89bc c686 c3bd 5f33 b13d 2132 e83d
00000070: 3259 6e3d efb3 cb3d e884 fa3d 9c2a e93c
00000080: ea5a bb3c b8dc bd3c 97e0 31bd f521 15be
00000090: 2a6c 2abe 3824 193c a751 eabd eba8 8abc
000000a0: fd0d 8cbd 2c93 edbd a7dc 2e3d 2b57 0d3d
000000b0: 5884 e43c 5cf5 a93d 1724 1abe 6948 043c
000000c0: ee25 e5bc 897e b2bd cc25 eb3c 6816 ebbd
000000d0: 1561 db3b 1f86 dabb 3a3a 83bd 137d fe3d
000000e0: bd92 99bd e84f 1b3d f3bb 44bd 49e8 0f3d
000000f0: 7245 393d 6160 2d3d 9c57 e1bd b515 c53d
00000100: 7a7c b0bd b26a cdbc f290 4bbc 78bf 683d
00000110: f4ea 853d 1534 9fbc 44a5 2c3e d89e 6d3d
00000120: 9d0b c73d 3c2d 773d cf92 683d 00bf a43d
00000130: 7707 053d e66c 8c3d 17e9 423c 22f6 ff3e
00000140: 9662 1abe 12ad a6bd 6bfc ccbd 4985 0dbd
00000150: 4005 0c3e e5ff 85bc 9873 cc3d c63a a3bc
00000160: 0aa6 663d c935 8cbd 9750 dc3c 147b 033c
00000170: a1ee 0fbd 2249 a9bd cd70 ef3d a9fc 9fbb
00000180: 8cfe a73d d293 23be a775 c33d 962e 953e
00000190: c7ef 0ebe 53c8 ac3b 65ca 09be d512 0dbd
000001a0: c71b aabd 5256 cb3d a01b 16be f7f1 713d
000001b0: cbad 2bbe 490a f6bb 2dfe 493d 105d 5e3d
000001c0: cfeb 393d 2fb1 7fbe 81c9 6f3d 1bdd 793d
000001d0: 8b56 333d 90ae c4bc 6478 fb3c bc95 51bd
000001e0: adf6 683c adaf 363e 0c22 89bd 1ae3 243e
000001f0: ebe0 d7bc a757 863d 0654 9b3d 2770 193d
00000200: 4f12 d9bd a174 75bd 5b01 a13d 8c8c 143e
00000210: 6d26 193e 502a 033e cc43 30bd 383a 063e
00000220: 0869 783d 03bf 353e 3a77 663e 7c39 53be
00000230: ddc1 483e ce91 28be 2c63 cebe ab0b 62bd
00000240: 465c 733d f542 29be 5199 c5bd c3e0 29be
00000250: 06ab 78bd 0e3d c23d 9a74 3dbd 4a7f 143e
00000260: 77ac 80bd 6db7 6fbd 0ac9 713d dec9 c23d
00000270: 1ca5 023d 618d 2ebc a521 cdbd b9a0 dbbd
00000280: 0753 3dbe 8801 6bbc 1458 4fbd c9d0 ffbc
00000290: 942c 9ebd 8d55 c7bc 0fa2 aa3d 37eb 403d
000002a0: 85fa 9cbd fa99 de3b c750 dcbc 6fff be3b
000002b0: 5cd3 3abe 8bca 96bd 1a14 2b3d adff d3bd
000002c0: 38cc 6fbd 9afa 663d bb2a 973d 2fee b9bd
000002d0: 9515 bd3d 4b7d cbbd 1b5f 5cbc 9d3b b1bd
000002e0: 8ec9 943d 4349 d33d f23f 19bb 6488 92bd
000002f0: 6304 1ebe c81e 2b3e 6aeb 7bbe d067 d4bd
00000300: 53a6 663d f97d bf3e 96c9 c7bc f70d 823d
00000310: f632 82bd 5194 5f3d dcea e43d 656e d4bc
00000320: a82a 14be 1ed2 d8be 3c0d 4bbe ae51 3e3e
00000330: c3b6 063e aa47 12bd 48f1 4cbe 3a15 08bc
00000340: 3e19 9c3d 461a aa3d 2a1a 8fbc bd62 593e
00000350: ff4b f4bd d74b 513d 5b18 a6bd 919e b0bc
00000360: 18c6 d43d f5e8 2bbc f0dd b1bd 92d2 f4bc
00000370: 2ede 3cbe 1a28 673c 42b7 acbd 3814 8b3d
00000380: 7cec 4bbc af2f 843e ccf4 90be 11c6 06be
00000390: 4961 07be f3c0 5b3e e4e8 27be baef 463d
000003a0: f1fc 6e3e 06ad a9bd ff01 9b3c 5dc9 f1bd
000003b0: bd8f 353e 14d7 f53d 22d3 5ebe cf1d 023e
000003c0: d919 dabd 5912 6ebe 6f2a d03d 1a9e 39be
000003d0: 8c2e 2d3d 823f 813e 61a5 373e fac8 173a
000003e0: 44c2 82bd b662 b83d f183 60bd fce6 933d
000003f0: a51f 443d fe98 073b ab37 0e3d 7fbd 323d

affine_layers.0.bias f4 [64]
0.03850422 -0.11262933 -0.057241954 -0.04189266 0.2895138 0.19187897 0.22066742 0.46938923
0.11263866 0.2860143 -0.097981095 0.41824847 0.37723815 -0.37936983 0.24882333 0.6864089
-0.37186936 0.07661339 -0.38645574 0.28837264 0.36559153 0.48204616 0.6234108 0.031519722
0.2778074 -0.19135217 -0.3636578 0.35305792 0.4038092 0.017285334 -0.17179243 -0.004294644
0.26022878 0.103179224 -0.08551052 -0.063214526 0.22196245 -0.008778959 0.3661819 -0.4301898
-0.28269166 0.45699403 0.033020552 0.21204083 -0.28256714 -0.2751391 -0.4058689 -0.025799865
0.47318318 -0.2632146 0.32390627 0.044536114 0.17046802 -0.12526225 -0.26862124 0.117837995
0.3664923 -0.11872938 0.28864914 0.38021567 -0.090260684 0.05094401 0.0029314298 0.13635205
00000000: 9ab6 1d3d 35aa e6bd 8a76 6abd a397 2bbd
00000010: 273b 943e ec7b 443e a4f6 613e c953 f03e
00000020: 19af e63d 7770 923e 50aa c8bd aa24 d63e
00000030: 5c25 c13e c33c c2be 8bcb 7e3e 7eb8 2f3f
00000040: a965 bebe 7be7 9c3d 87dd c5be 94a5 933e
00000050: d02e bb3e c1ce f63e da97 1f3f d31a 013d
00000060: c63c 8e3e d3f1 43be 5b31 babe 02c4 b43e
00000070: 14c0 ce3e f999 8d3c 5bea 2fbe 16ba 8cbb
00000080: b53c 853e a14f d33d 2420 afbd 9e76 81bd
00000090: 204a 633e 9fd5 0fbc 327c bb3e d641 dcbe
000000a0: f6bc 90be 1ffb e93e 8f40 073d 3b21 593e
000000b0: a4ac 90be 08df 8cbe 0cce cfbe 3d5a d3bc
000000c0: 1145 f23e 10c4 86be 0bd7 a53e 806b 363d
000000d0: 2b8f 2e3e bf44 00be b988 89be 0c55 f13d
000000e0: e1a4 bb3e 6428 f3bd d2c9 933e a1ab c23e
000000f0: 98da b8bd abaa 503d 3b1d 403b df9f 0b3e

affine_layers.1.weight f4 [64, 64]
-0.12703747 0.14758955 -0.103996284 -0.04952425 0.06302939 -0.07871202 -0.160559 0.01783459
-0.063603505 -0.1757254 -0.08740813 -0.31212893 -0.12051586 0.016040321 0.14884578 -0.19996268
0.1501908 0.097173505 0.047062755 -0.06392408 0.008805163 0.29226127 0.17736006 -0.18254562
0.016989676 0.15703452 0.03501291 -0.21694027 -0.12253406 0.12896965 0.07080807 0.09053382
-0.07720215 -0.14866897 -0.048940916 -0.27562016 0.30763176 0.1294823 -0.11168972 0.27006555
-0.13714825 0.13371707 -0.05361928 0.08812876 -0.20419753 0.21685071 0.050115068 0.2512143
0.3420771 -0.19477452 -0.033779148 0.49080417 -0.14555703 -0.13439691 0.07211427 0.026138922
-0.35860574 0.21484189 0.18051486 0.0154228965 0.18680306 0.03493766 0.15576567 -0.0044013606
-0.18578182 -0.03573961 0.12882707 -0.13011682 0.018517403 -0.08064228 -0.029507909 0.25042054
0.07563353 -0.09565556 -0.117633864 0.1505563 -0.041258026 -0.13321316 0.102125406 0.1388515
-0.002677356 -0.06428351 -0.47672316 0.20451306 -0.036862053 -0.13646549 -0.11345103 -0.0016082943
-0.010607459 0.26445773 -0.17617084 0.0354856 -0.024849173 0.046409696 0.38531545 0.08373164
0.24291101 0.12103451 0.028388495 -0.37557545 -0.035359323 -0.006738194 0.20440552 0.47689334
0.10306275 -0.08206 0.23966333 0.13581774 -0.0984143 0.053840373 0.04020373 -0.2598295
0.42246893 -0.055183817 0.17547074 -0.25599235 0.3366493 0.029292157 0.012094146 -0.14624868
-0.10488244 0.108398184 0.25124738 0.2993464 -0.18991007 0.15954262 -0.08984605 0.42602736
0.19314748 -0.18374936 0.24233796 -0.02136407 -0.43233514 -0.23267469 -0.07313522 -0.26462558
-0.042234257 -0.029560376 0.06842707 -0.1648548 0.10943584 0.21960317 0.24660891 -0.052808918
0.19253539 -0.058482237 -0.029250257 0.009200707 0.052348766 -0.0655532 0.445701 0.028137442
-0.31024203 0.1396586 0.2584934 -0.22565454 0.1511135 0.13958822 -0.09180267 -0.09488703
-0.1804126 0.16915779 -0.053130787 0.19600695 0.041834377 0.048404876 -0.2835038 0.3119779
-0.10632095 0.060326803 0.0054554604 0.17980407 0.18318255 -0.113267764 0.18942373 0.28277254
-0.41874415 -0.063187554 0.026444394 0.0020618937 0.11968818 0.022749843 -0.010306428 0.287078
-0.023389656 0.11562417 -0.20902288 -0.15209621 -0.07841679 -0.089903474 -0.1296745 -0.13726528
0.11711584 0.1555125 -0.20738801 -0.01475621 0.041525 -0.06014395 -0.06887139 -0.20915462
0.14730807 -0.09547759 0.13356379 -0.10703866 0.30497256 0.09587771 -0.20620163 0.13417688
-0.03290373 0.4691048 -0.0029385362 0.1389471 0.17794211 -0.22289908 -0.28048623 -0.18112433
0.34013173 -0.21908453 0.01751909 -0.582647 0.15971325 -0.18703918 0.06395766 -0.23292361
0.10047295 0.27705714 0.056945622 0.2692348 -0.14531173 0.017136669 0.1339906 -0.63069135
-0.033830374 0.034000427 0.1751412 0.07846324 0.26053813 -0.39001435 0.031976398 -0.039070934
-0.30360442 -0.013311358 0.077715114 0.0009967162 -0.0074419947 0.13488618 0.18800043 -0.19415592
-0.14839858 0.2157269 0.36274254 0.119154535 0.049822517 0.33745468 -0.059485655 0.1644516
00000000: 1c16 02be b721 173e 01fc d4bd f1d9 4abd
00000010: 8e15 813d c433 a1bd 9469 24be d919 923c
00000020: 8e42 82bd 5cf1 33be 0903 b3bd 5dcf 9fbe
00000030: 05d1 f6bd fe66 833c 076b 183e 04c3 4cbe
00000040: 9ecb 193e e702 c73d e0c4 403d a1ea 82bd
00000050: 8843 103c 45a3 953e e09d 353e 3ded 3abe
00000060: ef2d 8b3c a8cd 203e b269 0f3d 9725 5ebe
00000070: 23f3 fabd 9f10 043e d203 913d cc69 b93d
00000080: 291c 9ebd ae3c 18be 4576 48bd 161e 8dbe
00000090: e981 9d3e 0297 043e 94bd e4bd 0846 8a3e
000000a0: 9770 0cbe 21ed 083e e49f 5bbd da7c b43d
000000b0: 2819 51be 1d0e 5e3e 7545 4d3d 299f 803e
000000c0: bb24 af3e f972 47be 015c 0abd af4a fb3e
000000d0: e70c 15be 589f 09be a5b0 933d 4b21 d63c
000000e0: 2c9b b7be 83ff 5b3e e3d8 383e 51b0 7c3c
000000f0: 4d49 3f3e cb1a 0f3d 0981 1f3e 4a39 90bb
00000100: 973d 3ebe b363 12bd 3eeb 033e 583d 05be
00000110: cfb1 973c c827 a5bd 92ba f1bc 1f37 803e
00000120: c1e5 9a3d 10e7 c3bd 06ea f0bd 6e2b 1a3e
00000130: 2dfe 28bd 0869 08be 2027 d13d 162f 0e3e
00000140: 9476 2fbb 13a7 83bd 0f15 f4be df6b 513e
00000150: aafc 16bd 9cbd 0bbe 0359 e8bd 67cd d2ba
00000160: e8ca 2dbc 0167 873e 2166 34be 5959 113d
00000170: 7e90 cbbc 1818 3e3d 1148 c53e 7e7b ab3d
00000180: aabd 783e f1e0 f73d fd8e e83c 6d4b c0be
00000190: f0d4 10bd 11cc dcbb ae4f 513e 5d2b f43e
000001a0: 9012 d33d 130f a8bd 4e6a 753e ce13 0b3e
000001b0: 708d c9bd b987 5c3d abac 243d 5f08 85be
000001c0: d94d d83e 6d08 62bd 9aae 333e 6e11 83be
000001d0: 4c5d ac3e 1bf6 ef3c 8626 463c 37c2 15be
000001e0: 9bcc d6bd deff dd3d 7fa3 803e ee43 993e
000001f0: c977 42be 245f 233e 3501 b8bd 4220 da3e
00000200: 74c8 453e cb28 3cbe 7127 783e b403 afbc
00000210: 085b ddbe 4642 6ebe ebc7 95bd 017d 87be
00000220: d4fd 2cbd 9a28 f2bc 7e23 8c3d b2cf 28be
00000230: e61f e03d a7df 603e 0c87 7c3e 2a4e 58bd
00000240: ff27 453e 128b 6fbd 3c9e efbc 90be 163c
00000250: a96b 563d c240 86bd ec32 e43e 7e80 e63c
00000260: 0bd8 9ebe aa02 0f3e 3f59 843e fc11 67be
00000270: 7fbd 1a3e 37f0 0e3e 0a03 bcbd 2254 c2bd
00000280: 15be 38be b337 2d3e ab9f 59bd 0cb6 483e
00000290: 865a 2b3d 3144 463d 6927 91be 91bb 9f3e
000002a0: ccbe d9bd 3d19 773d b8c3 b23b 8f1e 383e
000002b0: 3594 3b3e eef8 e7bd 4bf8 413e 90c7 903e
000002c0: a265 d6be 7a68 81bd eaa1 d83c d620 073b
000002d0: 141f f53d e15d ba3c 4bdc 28bc e3fb 923e
000002e0: aa9b bfbc 5dcc ec3d 180a 56be 1cbf 1bbe
000002f0: fb98 a0bd 501f b8bd 64c9 04be 458f 0cbe
00000300: 6eda ef3d ab3e 1f3e 865d 54be 08c4 71bc
00000310: 1e16 2a3d 8159 76bd 710c 8dbd a12c 56be
00000320: edd7 163e c189 c3bd f2c4 083e 1637 dbbd
00000330: 5d25 9c3e 885b c43d 8526 53be aa65 093e
00000340: 10c6 06bd 812e f03e 7594 40bb 2648 0e3e
00000350: 7536 363e a83f 64be e49b 8fbe a878 39be
00000360: bf25 ae3e b257 60be 3284 8f3c 5b28 15bf
00000370: df8b 233e 3387 3fbe 3cfc 823d 8783 6ebe
00000380: c3c4 cd3d 6fda 8d3e d03f 693d 25d9 893e
00000390: 99cc 14be 3362 8c3c d534 093e fd74 21bf
000003a0: b891 0abd 0844 0b3d 3758 333e 56b1 a03d
000003b0: 4165 853e f6af c7be aff9 023d d808 20bd
000003c0: 0a72 9bbe e217 5abc 1a29 9f3d 3fa4 823a
000003d0: fadb f3bb 9a1f 0a3e 2f83 403e cfd0 46be
000003e0: ccf5 17be 83e7 5c3e 64b9 b93e 4b07 f43d
000003f0: b212 4c3d dcc6 ac3e 3ba7 73bd 0066 283e

affine_layers.1.bias f4 [64]
-0.18158914 0.25132054 -0.44586667 0.047242176 -0.1116659 -0.27553865 0.19068976 0.16489722
-0.13398065 -0.21564016 0.069528244 -0.12399067 0.14171356 0.2828668 -0.31403875 -0.1705162
0.055661485 0.15985331 0.080149464 0.11696695 -0.120446496 -0.11172831 -0.24326606 0.27309906
0.12351975 -0.23083551 -0.108169965 -0.14698645 -0.09755898 0.071248025 0.34301913 -0.06553487
-0.047288045 -0.078238174 0.21870764 0.12533554 -0.0065233586 0.18221806 -0.21186192 0.28460005
-0.057073705 -0.23955074 -0.103293195 -0.30060288 -0.10506957 0.13754196 0.17550603 0.06309146
0.06308347 -0.013678005 0.13993406 -0.18728216 0.048691362 -0.033933066 0.18866391 0.08014218
-0.028839124 0.14213148 0.09043396 -0.10788424 -0.08663001 -0.23446032 0.0018301269 0.2466563
00000000: 81f2 39be 16ad 803e a348 e4be 0381 413d
00000010: 17b1 e4bd 6713 8dbe 2d44 433e d1da 283e
00000020: 3932 09be c6d0 5cbe d364 8e3d d2ee fdbd
00000030: 5c1d 113e ebd3 903e b0c9 a0be cc9b 2ebe
00000040: 4cfd 633d 96b0 233e 6725 a43d 5e8c ef3d
00000050: a7ac f6bd d0d1 e4bd bd1a 79be a4d3 8b3e
00000060: ecf7 fc3d 2560 6cbe 3788 ddbd 9e83 16be
00000070: 01cd c7bd 7cea 913d 34a0 af3e 2537 86bd
00000080: 1cb1 41bd 563b a0bd e5f4 5f3e f657 003e
00000090: e6c1 d5bb 5f97 3a3e 55f2 58be 19b7 913e
000000a0: 1ec6 69bd ca4c 75be 628b d3bd 9fe8 99be
000000b0: b72e d7bd cdd7 0c3e dab7 333e 1836 813d
000000c0: e831 813d b619 60bc e04a 0f3e e5c6 3fbe
000000d0: 9870 473d 66fd 0abd 1d31 413e 9521 a43d
000000e0: 0740 ecbc ea8a 113e 7135 b93d 6af2 dcbd
000000f0: 136b b1bd 5e16 70be dee0 ef3a 7893 7c3e

final_mean.weight f4 [3, 64]
-0.28223777 -0.24443264 -0.1411578 0.31778958 0.18234187 -0.05612092 -0.13303605 0.3772054
0.25537643 -0.35918593 0.10465128 -0.048657436 0.14833823 0.24227415 0.030892186 -0.32391894
0.12501107 0.20477822 -0.053543616 0.15841292 -0.35716116 0.0032179507 0.12120641 -0.2290085
-0.120703444 -0.41217566 -0.019245453 -0.09641664 -0.20787105 0.09826238 -0.17160161 0.3483048
0.31328297 -0.24078552 -0.08840016 0.19574778 0.28332123 -0.083168805 0.08251281 0.286483
-0.12534487 0.37197107 -0.14655994 0.06879937 0.31102067 -0.07214736 -0.03698454 -0.15173692
-0.17573795 0.052049026 -0.23824017 -0.09723474 0.26375982 -0.012872532 0.1708359 0.30358276
0.32203555 0.06317978 -0.04314267 0.25774673 -0.090746805 -0.3527209 0.12533882 -0.109786235
0.067735806 0.38955492 -0.10449939 0.09765244 -0.4317432 -0.1231006 -0.082599334 -0.19831482
-0.177061 0.25352323 0.45009792 0.04169362 -0.37929764 0.3119474 -0.18507637 -0.060953084
0.29464665 0.24196707 0.023833273 0.20723815 0.14044888 -0.049068153 -0.13642836 0.037611622
-0.016765065 0.13553494 -0.16940048 0.27184838 -0.21538284 0.34874296 -0.056153428 0.100575045
0.1584077 -0.17779857 -0.2824827 -0.36288884 0.3585717 0.34417012 -0.032425914 -0.26647115
0.47614217 0.14174001 0.21276125 0.29590642 -0.34657872 0.44580925 -0.12100529 -0.5245557
-0.28486 0.2452218 0.21317635 0.18015389 0.17444311 -0.1495036 -0.17123282 -0.08604218
-0.046816386 -0.19403633 -0.22278076 0.13363329 -0.2609628 -0.23056023 -0.3387841 0.018765505
-0.20430279 0.14860964 0.20031697 0.2507616 -0.21944025 0.3240242 0.2801865 -0.15190384
0.044751257 0.00586833 -0.3655831 0.27303946 -0.08453284 -0.13336733 -0.11019836 0.075234994
0.18064626 -0.24123523 0.20857367 0.01459373 0.0813532 -0.42107883 0.56197333 -0.21377586
0.27697867 0.1090977 0.09277998 -0.23652355 -0.10563807 0.08738615 -0.088891126 -0.018523818
0.43144482 -0.41882944 0.11620265 0.07875846 0.31306893 -0.18130039 0.6734606 0.35051173
-0.057769567 -0.31685388 0.3342477 0.040866394 -0.073823 0.0072894394 -0.15029523 0.018744407
-0.043280426 -0.04020266 0.20931008 -0.23996522 0.1630429 -0.22038378 -0.019174356 -0.28328782
-0.38169524 -0.29743937 -0.40439767 0.25424743 -0.11102866 0.03383479 0.35049847 0.0857888
00000000: 7881 90be 8d4c 7abe ac8b 10be 51b5 a23e
00000010: d4b7 3a3e 0ddf 65bd 9a3a 08be 1121 c13e
00000020: b3c0 823e 38e7 b7be 6953 d63d 054d 47bd
00000030: fae5 173e b716 783e 9c11 fd3c b4d8 a5be
00000040: e702 003e 62b1 513e 8d50 5bbd ff36 223e
00000050: d4dd b6be 41e4 523b 113b f83d 3481 6abe
00000060: 5e33 f7bd b008 d3be a4a8 9dbc 1676 c5bd
00000070: 26dc 54be c93d c93d 55b8 2fbe 0255 b23e
00000080: a066 a03e 7b90 76be 250b b5bd 1b72 483e
00000090: 7b0f 913e 6854 aabd 7afc a83d e6ad 923e
000000a0: 685a 00be fe72 be3e cf13 16be afe6 8c3d
000000b0: 1a3e 9f3e ffc1 93bd 1a7d 17bd ec60 1bbe
000000c0: a6f4 33be 5c31 553d 3bf5 73be 0223 c7bd
000000d0: 870b 873e 50e7 52bc 9bef 2e3e 336f 9b3e
000000e0: d8e1 a43e 6764 813d 5eb6 30bd 61f7 833e
000000f0: 76d9 b9bd d597 b4be d258 003e 9bd7 e0bd
00000100: 12b9 8a3d be73 c73e c703 d6bd 01fe c73d
00000110: 720d ddbe 2b1c fcbd d729 a9bd 0a13 4bbe
00000120: 7b4f 35be cccd 813e 3c73 e63e eec6 2a3d
00000130: 4d33 c2be 92b7 9f3e a984 3dbe f1a9 79bd
00000140: eddb 963e 37c6 773e ff3d c33c 3d36 543e
00000150: d5d1 0f3e b0fb 48bd e0b3 0bbe a50e 1a3d
00000160: e456 89bc acc9 0a3e 5277 2dbe b62f 8b3e
00000170: 528d 5cbe 708e b23e 2301 66bd 4afa cd3d
00000180: a135 223e d410 36be 93a1 90be 91cc b9be
00000190: b696 b73e 1137 b03e 09d1 04bd e86e 88be
000001a0: e8c8 f33e 4b24 113e 16de 593e 0c81 973e
000001b0: c472 b1be 1c41 e43e 9fd1 f7bd 4849 06bf
000001c0: 2bd9 91be 6c1b 7b3e e74a 5a3e 437a 383e
000001d0: 37a1 323e 7917 19be a857 2fbe e236 b0bd
000001e0: 8ac2 3fbd 76b1 46be a420 64be 2ad7 083e
000001f0: eb9c 85be fb17 6cbe 1c75 adbe 1eba 993c
00000200: c034 51be 202d 183e e41f 4d3e d363 803e
00000210: f2b4 60be 80e6 a53e 9b74 8f3e ae8c 1bbe
00000220: 184d 373d 1f4b c03b b52d bbbe d4cb 8b3e
00000230: 8e1f adbd 7291 08be aeaf e1bd ce14 9a3d
00000240: 55fb 383e 5e06 77be 5694 553e 8a1a 6f3c
00000250: 829c a63d a597 d7be 7cdd 0f3f 0fe8 5abe
00000260: 26d0 8d3e 9d6e df3d 6e03 be3d 3b33 72be
00000270: c658 d8bd 83f7 b23d 8d0c b6bd 43bf 97bc
00000280: 56e6 dc3e d070 d6be a8fb ed3d 1e4c a13d
00000290: 924a a03e cfa6 39be ea67 2c3f 4676 b33e
000002a0: c89f 6cbd ac3a a2be 8422 ab3e 8563 273d
000002b0: 8330 97bd 40dc ee3b fee6 19be df8d 993c
000002c0: d146 31bd 8bab 24bd 6255 563e 71b9 75be
000002d0: b8f4 263e 49ac 61be 8a13 9dbc 1a0b 91be
000002e0: 8f6d c3be f949 98be 360d cfbe b82c 823e
000002f0: fe62 e3bd 5996 0a3d 8974 b33e 0ab2 af3d

final_mean.bias f4 [3]
0.13634662 0.07769444 -0.015173481
00000000: 739e 0b3e 431e 9f3d 319a 78bc

exp_avg f4 [64, 11]
-0.0022816195 -0.0010179138 -0.0027012802 0.0018677226 -0.00071397395 -0.00069589313 0.0023211834 -0.0012785075
0.00047553863 -0.0008265272 -0.0018765293 0.000266495 -0.000380946 0.0007127378 -0.002179078 0.00088110106
-7.023573e-05 -0.00014541413 0.00060697313 -0.001005718 0.00097356335 0.0022127882 -0.0009518417 -0.001185121
-0.00082549447 0.0011257775 -2.60772e-05 -0.00086010987 0.0016260893 -0.0013525648 6.972094e-05 -0.0004754209
-0.0009864239 -3.0695292e-06 -0.0006642191 -0.000106757 0.0005886823 -0.0008278929 -0.0003028124 0.00080708857
-0.0008532645 0.0006027617 -0.0015324885 -0.00080277154 0.00012317338 0.00020051733 -0.00020222495 0.0015999384
-0.00036504806 -0.000989559 0.0006735174 -0.0008054431 0.00039228122 -0.0010580292 -0.0007067525 0.00047745224
-0.0006704005 0.00037672702 -0.00029551124 -0.00025438023 -0.00023908183 0.00026823164 0.0002105156 0.0011957318
-2.491158e-05 5.0628736e-05 -0.0014670332 -0.00039800716 -0.0018291238 -7.378093e-05 0.0010157464 0.000753044
9.0398615e-05 -0.00082989625 -0.0023350848 0.0013453754 -0.00021488486 -0.0010082722 0.0012165025 -0.001045579
0.0017105715 -9.860687e-05 -0.00010131686 0.00032052063 -0.0007651121 -0.00070531556 -0.0003321352 -0.0014943131
8.823974e-05 -0.00064233167 -4.1472304e-05 0.00045367013 0.00012857409 -0.0002546001 0.00032628817 -0.00035533507
8.21509e-05 -0.0007496957 -0.00026147807 0.0020722335 0.0015219563 0.0027307204 0.00032313258 0.00013573484
-0.00060169 -0.0019928725 0.0006520125 9.612932e-05 0.00039295325 0.00086092844 -0.0009159624 -0.000801547
-0.0012763772 0.0016339441 -0.001201718 -0.0012260162 0.0020875887 -0.00092958374 0.0018997404 -0.0025509738
-0.0014973265 0.0005983306 0.001123521 0.00089475734 -0.0012622239 5.6643945e-05 0.0005616927 -0.00074656645
0.0015973604 -0.0003233517 0.0009607095 0.0014001393 -0.00029046496 0.00255391 -0.0008545786 -8.942197e-05
0.00058814825 0.001482011 -0.00083636364 0.0022559501 -0.00033832996 0.0018797186 -0.00074748497 -0.00070805015
0.0022904268 -0.0015719102 0.0005830723 -0.0004325408 0.001517857 -0.0004646131 0.0005185322 -0.00041453145
0.0002792861 -0.0017502037 -0.0009103433 -0.0002133384 5.7136804e-05 0.00038575433 0.0018957834 -0.00052630965
-0.00017800153 -6.7855144e-05 -0.0023781953 0.0029813838 0.00073767867 -0.000907342 -0.0007741093 -0.0010195557
-0.00043618347 0.00015800586 0.00079268 0.0007225261 -0.0008923572 -0.00084039615 -0.0003902373 -0.00013936791
0.00032406583 -0.0010763713 0.00019962862 -0.0003690587 -0.00054972427 -0.00036098048 0.0006812855 -0.00020043875
0.0007723371 -0.0013039013 -2.0765692e-05 0.00042267976 -0.0005475625 -0.00021973856 0.00077842316 -0.00062971766
0.00039105964 0.00036393353 -0.00019400216 0.00045139526 -0.0010850017 -0.0005711828 3.310883e-05 -0.00026564006
0.0002160022 -0.0014673464 0.00020169702 0.00022485225 -1.3438439e-05 0.00045746737 -0.0007502509 0.0007314194
0.0013194553 0.000380904 -0.0010522117 0.0010714618 0.00071791187 -0.00013442672 -0.0013328722 -0.00017290548
-0.0013970247 0.00017127799 -0.000732514 -0.00011070215 4.0112518e-05 0.0012341717 -0.00022811223 0.0007161574
0.00014019528 0.0004353154 -0.00053346675 0.00033030735 -0.000688251 0.0010773112 -8.950414e-05 -0.0017306764
-0.0010690285 -0.0018071833 0.0003093743 0.00050107273 0.00049224537 0.00053234486 -0.00011698048 -0.0013187171
0.00014791591 -0.00028419885 0.00041529344 -0.0007980983 0.00039251847 -0.0009472145 9.070732e-05 0.00047568642
-0.00020493031 0.0006472259 0.0003225628 -0.00050444173 0.0005626246 0.0008805397 0.0009981387 0.0015471242
00000000: 3987 15bb 856b 85ba f607 31bb 5fce f43a
00000010: fb29 3bba 996c 36ba ff1e 183b 9893 a7ba
00000020: b751 f939 4dab 58ba e0f5 f5ba 5ab8 8b39
00000030: b5b9 c7b9 06d7 3a3a ddce 0ebb b1f9 663a
00000040: 854b 93b8 4f7a 18b9 471d 1f3a 4cd2 83ba
00000050: bb36 7f3a 6d04 113b 0485 79ba 1056 9bba
00000060: ff65 58ba d38e 933a 5cc0 dab7 ff78 61ba
00000070: 8122 d53a 8b48 b1ba 2537 9238 ea41 f9b9
00000080: e54a 81ba 1cfe 4db6 fd1e 2eba bae2 dfb8
00000090: cd51 1a3a f406 59ba cbc2 9eb9 cc92 533a
000000a0: 9cad 5fba a702 1e3a c8dd c8ba 1671 52ba
000000b0: 1a28 0139 f641 5239 590c 54b9 06b5 d13a
000000c0: ec63 bfb9 17b4 81ba fd8e 303a 5f24 53ba
000000d0: 18ab cd39 92ad 8aba 5b45 39ba 8e52 fa39
000000e0: d1bd 2fba 7283 c539 d9ee 9ab9 565e 85b9
000000f0: 0ab2 7ab9 71a1 8c39 dabd 5c39 1aba 9c3a
00000100: 36f9 d0b7 315a 5438 7749 c0ba 9eab d0b9
00000110: 36bf efba d6ba 9ab8 cb22 853a ed67 453a
00000120: 6394 bd38 658d 59ba 3908 19bb 4f57 b03a
00000130: b752 61b9 0028 84ba 0d73 9f3a cf0b 89ba
00000140: 4135 e03a 29cb ceb8 137a d4b8 8d0b a839
00000150: ce91 48ba ede4 38ba 6f22 aeb9 d4dc c3ba
00000160: 5a0d b938 2662 28ba 8cf2 2db8 93da ed39
00000170: d8d1 0639 d97b 85b9 a811 ab39 444c bab9
00000180: 6e48 ac38 3a87 44ba fe16 89b9 4fce 073b
00000190: 617c c73a e3f5 323b 1f6a a939 0b54 0e39
000001a0: bbba 1dba da9a 02bb d1eb 2a3a 0999 c938
000001b0: 4b05 ce39 eeaf 613a 321d 70ba e91e 52ba
000001c0: 1d4c a7ba 112a d63a f782 9dba 47b2 a0ba
000001d0: edcf 083b 4faf 73ba b600 f93a 3d2e 27bb
000001e0: f141 c4ba 49d9 1c3a 1c43 933a 268e 6a3a
000001f0: 3571 a5ba f994 6d38 8f3e 133a 3ab5 43ba
00000200: 855e d13a 8887 a9b9 20d8 7b3a e184 b73a
00000210: 8c49 98b9 805f 273b cd05 60ba 0e88 bbb8
00000220: f62d 1a3a 0a40 c23a 6a3f 5bba 90d8 133b
00000230: e161 b1b9 e460 f63a def2 43ba 719c 39ba
00000240: fc1a 163b 8e08 ceba 52d9 183a a5c6 e2b9
00000250: d4f2 c63a 5197 f3b9 1bee 073a 7855 d9b9
00000260: 256d 9239 1767 e5ba 1ba4 6eba 97b3 5fb9
00000270: 2da6 6f38 123f ca39 ef7b f83a 0bf8 09ba
00000280: eca5 3ab9 744d 8eb8 7fdb 1bbb 5263 433b
00000290: c760 413a b1da 6dba 99ed 4aba 9da2 85ba
000002a0: 8eaf e4b9 60ae 2539 dbcb 4f3a e867 3d3a
000002b0: 14ed 69ba 084e 5cba c498 ccb9 4a23 12b9
000002c0: 61e7 a939 0715 8dba 6653 5139 387e c1b9
000002d0: 5f1b 10ba fb41 bdb9 4c98 323a de2c 52b9
000002e0: aa76 4a3a abe7 aaba fc31 aeb7 1e9b dd39
000002f0: 4c8a 0fba 9f69 66b9 180f 4c3a a313 25ba
00000300: 2307 cd39 55ce be39 0f6d 4bb9 3fa9 ec39
00000310: 9e36 8eba 6ebb 15ba 56de 0a38 9b45 8bb9
00000320: a67e 6239 fa53 c0ba a27e 5339 51c6 6b39
00000330: a875 61b7 3bd8 ef39 7cac 44ba babc 3f3a
00000340: 93f1 ac3a 12b4 c739 5eea 89ba 4b70 8c3a
00000350: 4032 3c3a e6f4 0cb9 c5b3 aeba f64d 35b9
00000360: 5f1c b7ba 1699 3339 2f06 40ba c428 e8b8
00000370: 7d3e 2838 eec3 a13a 6931 6fb9 82bc 3b3a
00000380: 6201 1339 0b3b e439 59d8 0bba 1a2d ad39
00000390: be6b 34ba 9134 8d3a 2bb4 bbb8 ddd7 e2ba
000003a0: a51e 8cba 02df ecba 8433 a239 6c5a 033a
000003b0: 070a 013a 0f8d 0b3a 6b53 f5b8 ced8 acba
000003c0: e019 1b39 8600 95b9 bebb d939 7837 51ba
000003d0: f0ca cd39 7d4e 78ba 1f3a be38 8d65 f939
000003e0: 90e2 56b9 98aa 293a a51d a939 833c 04ba
000003f0: 197d 133a 05d4 663a fad3 823a e0c8 ca3a
