src/collect_models/rluc/humanoid_rluc_best.model (torch, 716558 bytes, 36 tensors)

affine_layers.0.weight f4 [64, 376]
-0.031113133 0.08058938 0.010450658 0.03296955 -0.05804761 -0.08383966 -0.009002325 0.058118384
-0.05788226 0.09064742 0.013734489 0.114452705 -0.08531909 0.05684158 -0.03729922 -0.04776307
-0.054079074 -0.09666703 0.07130763 0.0108316215 0.03449166 0.03650934 -0.23475105 0.047791224
0.07142969 -0.032439943 0.056633856 0.037562188 -0.017454676 0.062016696 0.005723485 0.068805866
-0.016145643 -0.15105292 0.088582456 0.01605254 0.053337388 0.1556743 0.011601562 0.06603209
0.0408846 -0.1160179 -0.0005168987 0.08349898 0.007106433 0.043463573 0.05131698 0.03877615
-0.08624215 -0.08666803 -0.009512295 0.004912123 0.029701041 0.041053772 0.0391676 0.0582767
0.079292595 -0.14005888 0.020188322 0.16795814 0.15686908 -0.11643435 -0.12816532 -0.021461619
0.00382947 -0.020789253 0.019812528 -0.10137734 0.00038462193 -0.049763344 0.11128477 -0.023745254
-0.055448122 -0.0059367586 -0.028301023 -0.037564643 -0.009247004 -0.04460059 -0.14052294 -0.03798272
0.04439412 0.016482232 -0.01980074 -0.14359215 0.017836206 0.049826514 -0.18573262 0.13380855
0.063456304 0.03172407 -0.053222053 -0.033740442 0.057161048 0.10566775 -0.0059203045 -0.060365397
0.047534928 -0.09290597 -0.01715175 -0.00855219 0.014576069 0.043688606 0.020465296 -0.072056584
-0.032512832 -0.047632895 -0.07403106 -0.20432763 -0.17190121 0.11572248 -0.014640616 0.19698572
-0.15108928 -0.068120405 -0.08825848 0.035179064 -0.15291893 -0.06536111 0.05822105 0.010230687
0.009200291 -0.028135292 0.0012690352 -0.006965421 0.080434576 -0.04214978 0.011264962 -0.17422405
0.036756698 0.13570623 -0.05948195 0.11615464 0.05442068 0.016465666 0.019769873 -0.04610161
-0.067114055 -0.0055819345 0.091810316 -0.07112908 -0.025525793 0.12555552 0.15061292 -0.07593289
0.018246576 -0.032508872 0.032832067 -0.038523734 -0.10217361 -0.030389126 -0.038592786 -0.1668648
-0.098259784 0.07888981 0.05820998 0.0132663585 -0.0017253326 0.024799284 -0.010861382 -0.121224284
0.00032305834 0.079939656 -0.004034419 -0.014706588 -0.01409023 0.02934755 -0.08718681 0.045581445
-0.060026806 0.056782372 -0.04111058 0.04952055 -0.05690455 -0.024389522 -0.023956638 -0.08196194
0.08847787 -0.0370538 0.010451839 -0.10316795 0.11057457 0.065629475 0.03084739 0.04808763
0.012994121 0.032411695 0.08611082 0.07303138 -0.055678777 0.07604784 0.1095444 -0.040435236
-0.04300117 0.056527253 0.0026280135 0.11329452 -0.0091036055 0.10791342 0.13438569 -0.016945792
0.022878116 -0.066734515 -0.05546744 0.0584657 -0.15799893 0.025826324 -0.00019514238 -0.10441477
-0.020458793 -0.006024047 0.087759405 -0.001983955 0.0024578196 -0.037502404 -0.03139393 -0.060998008
0.12203149 -0.12254287 0.011993052 -0.008020216 0.06290984 -0.01116671 -0.092478536 -0.009692061
-0.089411244 5.5743534e-05 -0.021156095 -0.02854476 -0.028994747 -0.015070207 -0.057066847 0.04676819
-0.049040638 0.03932707 -0.1109932 0.060597863 0.06374857 -0.05430011 0.053494863 -0.063119985
0.10058191 0.016420452 -0.05301669 0.027776843 0.019197794 0.24012011 -0.024963308 -0.046548277
0.004019565 -0.18524438 -0.054652736 -0.030024033 0.026783364 0.022167515 0.028324906 -0.06190899
00000000: f8e0 febc 0b0c a53d 3d39 2b3c 140b 073d
00000010: 55c3 6dbd 21b4 abbd 7d7e 13bc 8b0d 6e3d
00000020: f315 6dbd 5ba5 b93d 9f06 613c 2e66 ea3d
00000030: c6bb aebd b7d2 683d 11c7 18bd 35a3 43bd
00000040: 0582 5dbd 5df9 c5bd bc09 923d 1d77 313c
00000050: 2047 0d3d d18a 153d 9462 70be bbc0 433d
00000060: bb49 923d bfdf 04bd e7f8 673d cfda 193d
00000070: 1cfd 8ebc 3805 7e3d 128c bb3b 17ea 8c3d
00000080: de43 84bc 9ead 1abe b86a b53d 9e80 833c
00000090: 4e78 5a3d 1569 1f3e 7a14 3e3c d53b 873d
000000a0: 9c76 273d cb9a edbd 7c80 07ba 8301 ab3d
000000b0: 15dd e83b dc06 323d c131 523d bed3 1e3d
000000c0: b99f b0bd 027f b1bd 75d9 1bbc e0f5 a03b
000000d0: 994f f33c 0028 283d 356e 203d 8db3 6e3d
000000e0: 2864 a23d 986b 0fbe fb61 a53c 38fd 2b3e
000000f0: 4aa2 203e 2275 eebd c53d 03be 47d0 afbc
00000100: d8f7 7a3b 394e aabc e24d a23c ec9e cfbd
00000110: 15a7 c939 a6d4 4bbd 45e9 e33d 6885 c2bc
00000120: 921d 63bd 2489 c2bb 8cd7 e7bc 62dd 19bd
00000130: bf80 17bc 1caf 36bd 3fe5 0fbe c593 1bbd
00000140: 9cd6 353d bf05 873c 2935 a2bc d209 13be
00000150: 3c1d 923c e316 4c3d b130 3ebe 1c05 093e
00000160: 61f5 813d 19f1 013d 5eff 59bd 6b33 0abd
00000170: b421 6a3d 5568 d83d 1dff c1bb b541 77bd
00000180: fcb3 423d 7c45 bebd d481 8cbc 7c1e 0cbc
00000190: 77d0 6e3c d3f2 323d d6a6 a73c 6792 93bd
000001a0: 2d2c 05bd b61a 43bd 999d 97bd 433b 51be
000001b0: df06 30be e8ff ec3d 32df 6fbc a0b6 493e
000001c0: 26b7 1abe b682 8bbd ddc0 b4bd ec17 103d
000001d0: c896 1cbe 0cdc 85bd 3279 6e3d 9d9e 273c
000001e0: d1bc 163c fc7b e6bc c155 a63a 303e e4bb
000001f0: e2ba a43d 3fa5 2cbd ad90 383c ca67 32be
00000200: 318e 163d 93f6 0a3e 58a3 73bd 7ce2 ed3d
00000210: 38e8 5e3d 01e3 863c 6ef4 a13c 0bd5 3cbd
00000220: 1873 89bd a9e8 b6bb 0c07 bc3d 20ac 91bd
00000230: 781b d1bc a091 003e 463a 1a3e b482 9bbd
00000240: d879 953c 0628 05bd eb7a 063d 10cb 1dbd
00000250: 6640 d1bd 9ef2 f8bc 7813 1ebd 9bde 2abe
00000260: 6d3c c9bd fb90 a13d 976d 6e3d 245b 593c
00000270: 8e24 e2ba de27 cb3c f0f3 31bc 7044 f8bd
00000280: 2860 a939 67b7 a33d 2933 84bb e7f3 70bc
00000290: b5da 66bc 466a f03c 008f b2bd 9cb3 3a3d
000002a0: abde 75bd a294 683d 9163 28bd 0fd6 4a3d
000002b0: bf14 69bd 89cc c7bc b640 c4bc a9db a7bd
000002c0: e333 b53d bac5 17bd 313e 2b3c b849 d3bd
000002d0: ec74 e23d bf68 863d aab3 fc3c 89f7 443d
000002e0: 4be5 543c 20c2 043d df5a b03d 7a91 953d
000002f0: 6e0f 64bd f8be 9b3d d058 e03d 6b9f 25bd
00000300: ff21 30bd 1f89 673d c03a 2c3b f506 e83d
00000310: 4a27 15bc b601 dd3d 679c 093e e7d1 8abc
00000320: e36a bb3c 1bac 88bd d431 63bd bb79 6f3d
00000330: 79ca 21be ba91 d33c 229f 4cb9 69d7 d5bd
00000340: 3399 a7bc 5e65 c5bb 34bb b33d 3e05 02bb
00000350: 5f13 213b 1f9c 19bd ec96 00bd 0cd9 79bd
00000360: a5eb f93d c2f7 fabd 827e 443c 3967 03bc
00000370: e0d6 803d 94f4 36bc 6365 bdbd 73cb 1ebc
00000380: 3e1d b7bd 2ace 6938 8c4f adbc b3d6 e9bc
00000390: 6486 edbc 08e9 76bc edbe 69bd 0090 3f3d
000003a0: d6de 48bd 6c15 213d 6750 e3bd 7735 783d
000003b0: 9c8e 823d cb69 5ebd 6e1d 5b3d 0d45 81bd
000003c0: e3fd cd3d 2f84 863c 0728 59bd 438c e33c
000003d0: b144 9d3c 0ce2 753e da7f ccbc 68a9 3ebd
000003e0: 8eb6 833b b4b0 3dbe 8cdb 5fbd f6f4 f5bc
000003f0: c968 db3c a698 b53c a209 e83c 4894 7dbd

affine_layers.0.bias f4 [64]
0.18803635 -0.2415698 0.2019139 0.5217887 0.45997915 -0.28580204 0.46871063 -0.24008922
-0.23886621 0.38169122 -0.29496247 0.0058154063 -0.3308969 0.24339953 -0.2937735 -0.3615605
-0.38376486 0.28697106 -0.17834395 0.07975004 -0.3892098 -0.34389374 -0.4156733 0.0056059044
0.23604666 0.37771702 -0.53593546 -0.061812986 0.15599741 0.3085668 -0.30656055 0.38234547
-0.46942702 0.35528725 -0.30250996 -0.030208196 0.32279912 0.4557925 -0.37583232 0.2406821
-0.5326621 -0.12686908 0.224516 0.24551985 0.5620188 0.23581102 0.3648955 0.32264885
-0.344769 0.42834726 0.2033441 -0.3647665 0.25712183 0.32989603 0.17983212 0.23297206
-0.27451292 0.08955642 0.30704314 -0.35883212 -0.26497397 -0.16151887 -0.09424977 -0.064490706
00000000: 9a8c 403e 135e 77be 84c2 4e3e f293 053f
00000010: 6382 eb3e a554 92be d7fa ef3e f3d9 75be
00000020: 5899 74be 086d c33e 5205 97be 2a8f be3b
00000030: 526b a9be ba3d 793e 7b69 96be 751e b9be
00000040: d47c c4be dfed 923e cc9f 36be fd53 a33d
00000050: 8246 c7be d712 b0be 21d3 d4be bcb1 b73b
00000060: 37b6 713e 2064 c13e 1133 09bf 9d2f 7dbd
00000070: c9bd 1f3e 78fc 9d3e 81f5 9cbe c9c2 c33e
00000080: bd58 f0be 36e8 b53e 96e2 9abe 2e77 f7bc
00000090: ed45 a53e a25d e93e 186d c0be 5e75 763e
000000a0: 8b5c 08bf f8e9 01be 86e7 653e 8e69 7b3e
000000b0: 77e0 0f3f 7278 713e 95d3 ba3e 3b32 a53e
000000c0: 9085 b0be 5550 db3e 7039 503e adc2 babe
000000d0: 79a5 833e 22e8 a83e e925 383e 3a90 6e3e
000000e0: f58c 8cbe 5b69 b73d c234 9d3e d8b8 b7be
000000f0: abaa 87be 3465 25be 0606 c1bd b413 84bd

affine_layers.1.weight f4 [64, 64]
0.11624031 0.02172815 0.15290476 -0.19883801 0.0029202031 -0.014703925 0.2580154 -0.01411734
0.22107968 -0.08890073 -0.24868044 -0.010716694 0.009775064 0.19066498 0.28808162 0.16327426
-0.10003668 -0.19733334 -0.012535969 0.079566516 -0.21532601 0.019624589 0.1289702 0.25547206
-0.46074554 -0.06586186 0.057862036 -0.06818415 0.05662467 -0.2055642 0.11551864 -0.12156956
0.061400026 -0.11615765 -0.17184441 0.114365466 -0.06934758 -0.005923919 0.12577802 -0.13930099
0.22059019 -0.037993923 -0.11616488 -0.1635535 -0.13656189 0.12058525 0.28550085 0.37181973
-0.19737028 -0.17336692 0.14176534 0.24844038 -0.02979771 0.25333747 0.13387886 0.28555822
0.13936187 -0.33664718 0.31045434 0.10101147 0.049764533 -0.13428135 -0.10082734 0.07516554
-0.1678333 0.092713684 0.18486653 0.0806924 0.058616526 0.018712925 0.096224055 -0.127309
-0.028227568 0.16188748 0.038177088 -0.07619735 0.0942854 0.078134164 0.08244659 -0.16071038
0.04078244 0.045233283 0.33775124 0.056593247 -0.25702566 0.30009735 -0.07089088 0.28444147
-0.052321255 0.13954453 -0.07535022 0.17445393 -0.37618566 0.46885884 0.22871694 -0.2633446
0.012384503 -0.014421274 -0.0777497 -0.014917484 -0.2386056 -0.043504525 -0.11696845 -0.008103918
0.124321215 -0.16497359 -0.15613927 0.040908363 0.10659911 0.0059516584 0.2372096 -0.02195588
0.08248241 0.09072384 -0.24701636 0.05719438 0.014064569 -0.31337386 0.10144268 -0.12078543
-0.04168394 0.0628992 0.010042828 0.30737227 -0.06977626 -0.1960451 -0.22711588 0.09475557
-0.05362574 0.042416893 -0.17119458 0.11111737 -0.089695334 -0.05480617 0.046928685 0.27286318
0.22621585 0.08149724 -0.09787328 -0.09653061 -0.033193965 0.18644544 -0.13822018 -0.6001149
-0.17888768 -0.09399671 -0.115401536 0.067844 0.019324359 -0.17827423 -0.14303602 0.21909538
0.07667068 0.30793643 -0.045617267 0.052540258 0.0054958183 0.22296387 0.4166594 0.16066964
-0.3386711 -0.14570387 -0.012903503 -0.19233342 -0.0030579625 -0.21924321 0.093834214 -0.07750655
0.1464997 -0.10496613 -0.07280914 0.030735021 0.08354532 0.05226718 -0.10142581 0.18679333
0.3240438 -0.052933306 -0.16258836 -0.07763617 -0.04148756 0.2007003 0.117668904 -0.06030853
-0.17652416 0.03333845 0.15107428 0.08921326 0.097358905 -0.027618842 0.11481555 0.3505188
0.08152527 0.13117737 0.13141838 0.14434387 -0.33784735 -0.02444203 0.31299925 0.17924663
-0.13466938 -0.16551292 0.16382091 0.24846673 -0.0091877775 -0.0038395817 -0.17042682 -0.05829177
-0.07268913 -0.19515413 -0.27684543 0.0074154427 -0.12826845 0.07592444 0.0063941916 0.086437464
0.25623116 0.040637694 -0.15669255 -0.08248583 -0.10014426 0.10242832 0.075157166 -0.10522602
0.15397626 0.3036054 0.101459086 0.12985279 0.26635846 0.18679245 -0.2736393 0.041415706
-0.103624485 -0.24777575 -0.04309151 0.09448432 -0.22717568 -0.08636741 0.14692476 -0.15862384
0.18380114 -0.19548355 -0.15944919 0.010234899 0.0015298098 -0.01981332 -0.41818225 0.27217826
0.10684829 -0.12583368 0.17542918 0.12177995 0.12805903 -0.041819062 -0.11285329 0.12599477
00000000: 660f ee3d 3cff b13c 1193 1c3e 319c 4bbe
00000010: e160 3f3b bbe8 70bc 981a 843e 6a4c 67bc
00000020: b662 623e 9611 b6bd 16a6 7ebe 1395 2fbc
00000030: 9727 203c ae3d 433e 6f7f 933e 5e31 273e
00000040: 08e0 ccbd c011 4abe aa63 4dbc c5f3 a23d
00000050: 6c7e 5cbe bfc3 a03c c410 043e 3ccd 823e
00000060: d7e6 ebbe 95e2 86bd be00 6d3d 22a4 8bbd
00000070: 45ef 673d 6c7f 52be 0995 ec3d 76f9 f8bd
00000080: 987e 7b3d 10e4 edbd fbf7 2fbe 7138 ea3d
00000090: 1b06 8ebd 6f1d c2bb f4cb 003e eba4 0ebe
000000a0: 65e2 613e 849f 1bbd dae7 edbd 927a 27be
000000b0: e1d6 0bbe 66f5 f63d 2b2d 923e 285f be3e
000000c0: 6f1b 4abe 1987 31be ef2a 113e 2867 7e3e
000000d0: 541a f4bc 73b5 813e 8a17 093e b034 923e
000000e0: e1b4 0e3e 055d acbe dff3 9e3e 1adf ce3d
000000f0: e5d5 4b3d 0d81 09be 907e cebd 64f0 993d
00000100: 7edc 2bbe ace0 bd3d a74d 3d3e 0f42 a53d
00000110: e217 703d d94b 993c 1e11 c53d 4a5d 02be
00000120: 803d e7bc d5c5 253e 945f 1c3d 5b0d 9cbd
00000130: b418 c13d ce04 a03d c2d9 a83d 4391 24be
00000140: 7d0b 273d 8946 393d bbed ac3e 52ce 673d
00000150: de98 83be 5ca6 993e 3d2f 91bd 50a2 913e
00000160: d04e 56bd c3e4 0e3e 3751 9abd 0da4 323e
00000170: 689b c0be 440e f03e c634 6a3e 1ad5 86be
00000180: 5fe8 4a3c 3547 6cbc 3c3b 9fbd 7668 74bc
00000190: 0755 74be cd31 32bd 288d efbd 4cc6 04bc
000001a0: 1f9c fe3d d6ee 28be f9e2 1fbe 878f 273d
000001b0: a250 da3d 2106 c33b 13e7 723e d1dc b3bc
000001c0: 8aec a83d 6ccd b93d dbf1 7cbe a744 6a3d
000001d0: 146f 663c 8a72 a0be 2ec1 cf3d 5a5e f7bd
000001e0: c7bc 2abd 4cd1 803d ac8a 243c e65f 9d3e
000001f0: dbe6 8ebd 0cc0 48be 1191 68be 350f c23d
00000200: aaa6 5bbd 56bd 2d3d a24d 2fbe 8191 e33d
00000210: 30b2 b7bd 6f7c 60bd 4b38 403d b9b4 8b3e
00000220: 21a5 673e 06e8 a63d c971 c8bd d7b1 c5bd
00000230: 65f6 07bd 8eeb 3e3e 9789 0dbe 21a1 19bf
00000240: 552e 37be 5981 c0bd a457 ecbd ccf1 8a3d
00000250: 1e4e 9e3c 858d 36be 0978 12be 8a5a 603e
00000260: 8405 9d3d d8a9 9d3e 2cd9 3abd 7434 573d
00000270: 4416 b43b a450 643e 6254 d53e 9586 243e
00000280: 4c66 adbe 6533 15be 3769 53bc 0df3 44be
00000290: 1968 48bb 4b81 60be 272c c03d c1bb 9ebd
000002a0: 0404 163e 7bf8 d6bd f51c 95bd 03c8 fb3c
000002b0: cf19 ab3d 1c16 563d 56b8 cfbd c046 3f3e
000002c0: 12e9 a53e 98d0 58bd 907d 26be b6ff 9ebd
000002d0: dcee 29bd 6184 4d3e 65fc f03d 1406 77bd
000002e0: c0c2 34be e68d 083d 37b3 1a3e 71b5 b63d
000002f0: 1b64 c73d e940 e2bc 6a24 eb3d 3377 b33e
00000300: b9f6 a63d 5c53 063e 8a92 063e e1ce 133e
00000310: 54fa acbe a73a c8bc 7041 a03e 6e8c 373e
00000320: c5e6 09be 387c 29be abc0 273e 106e 7e3e
00000330: 5588 16bc 7ea1 7bbb 5e84 2ebe 5ac3 6ebd
00000340: 0ade 94bd 7cd6 47be afbe 8dbe 3efd f23b
00000350: ce58 03be 467e 9b3d 5e86 d13b 2006 b13d
00000360: bb30 833e b673 263d 0374 20be 55ee a8bd
00000370: 6f18 cdbd f0c5 d13d 00ec 993d bd80 d7bd
00000380: f4ab 1d3e 2b72 9b3e c8c9 cf3d 21f8 043e
00000390: 2360 883e 8546 3f3e 731a 8cbe 84a3 293d
000003a0: 1339 d4bd edb8 7dbe b980 30bd ff80 c13d
000003b0: bea0 68be 66e1 b0bd 7273 163e 4a6e 22be
000003c0: 5e36 3c3e d72c 48be a646 23be 47b0 273c
000003d0: e683 c83a 8b4f a2bc fc1b d6be f35a 8b3e
000003e0: 47d3 da3d 8bda 00be b5a3 333e c467 f93d
000003f0: e821 033e 774a 2bbd a01f e7bd c604 013e

affine_layers.1.bias f4 [64]
0.21419752 -0.27668884 0.34773332 0.2562613 0.3066642 0.27329993 0.2591816 0.2591376
0.22177827 0.24921763 0.22704823 -0.34752843 0.22145939 0.28708252 -0.30469024 0.25189584
-0.26469347 -0.25042427 0.23160458 0.29698208 -0.22911963 0.33501154 -0.283632 0.23624328
-0.27377182 0.37107208 0.26570812 0.23339684 -0.4994804 -0.35790715 0.23603983 0.33017477
-0.27036276 -0.36060736 0.25847942 0.24070059 0.31424254 -0.26496583 -0.23727983 -0.329023
-0.3690185 0.32721058 -0.22270267 0.37336865 0.2888064 -0.31094858 -0.30018497 0.2235411
-0.27426404 0.39511895 0.2613659 0.35236004 0.23156498 -0.47585472 0.2402958 -0.28892356
0.23955242 -0.19298357 0.21567777 0.22777466 0.1647398 -0.21751562 0.23870848 -0.27577823
00000000: 9856 5b3e 29aa 8dbe 1a0a b23e ae34 833e
00000010: 1703 9d3e f8ed 8b3e 73b3 843e afad 843e
00000020: d819 633e e832 7f3e 557f 683e 3fef b1be
00000030: 40c6 623e 7bfc 923e 5c00 9cbe 7ef8 803e
00000040: e785 87be 9c37 80be c029 6d3e 090e 983e
00000050: 569e 6abe a286 ab3e 3738 91be c2e9 713e
00000060: d22b 8cbe 29fd bd3e e50a 883e 95ff 6e3e
00000070: e5bb ffbe 9b3f b7be 6db4 713e ab0c a93e
00000080: fd6c 8abe 87a1 b8be 6a57 843e 377a 763e
00000090: 66e4 a03e 9aa9 87be 7cf9 72be b475 a8be
000000a0: feef bcbe 2588 a73e 2b0c 64be 2d2a bf3e
000000b0: 6fde 933e a734 9fbe d8b1 99be f5e7 643e
000000c0: 566c 8cbe 084d ca3e c0d1 853e 8968 b43e
000000d0: 5f1f 6d3e 3ba3 f3be 1a10 763e caed 93be
000000e0: 3b4d 753e 7c9d 45be a2da 5c3e c33d 693e
000000f0: 8db1 283e 6abc 5ebe ff6f 743e ce32 8dbe

final.weight f4 [1, 64]
0.053645447 -0.22428794 0.045860425 0.16481882 0.15198334 0.12825689 0.081989884 0.07720496
0.06427384 0.053084034 0.016356448 -0.07953136 0.044921894 0.06806287 -0.14115351 0.19302803
-0.10638986 -0.08446747 0.060505666 0.083938494 -0.117430314 0.12567613 -0.09032356 0.068463735
-0.06648813 0.14985132 0.099763304 0.097083494 -0.24810904 -0.24469265 0.07107422 0.14625923
-0.13760339 -0.075797155 0.046268795 0.10247461 0.2491738 -0.060196683 -0.1371029 -0.103790954
-0.112419456 0.13485958 -0.12441962 0.22386114 0.052479707 -0.115287736 -0.13256925 0.057709996
-0.070248365 0.27228212 0.062217552 0.18743607 0.11754847 -0.33797628 0.07482524 -0.043584384
0.047956113 -0.08876729 0.17173831 0.12168101 0.16299658 -0.07031041 0.07620626 -0.06281238
00000000: 54bb 5b3d bdab 65be 24d8 3b3d 44c6 283e
00000010: 85a1 1b3e c655 033e 50ea a73d a21d 9e3d
00000020: 01a2 833d a56e 593d f5fd 853c 56e1 a2bd
00000030: 0500 383d 8c64 8b3d 8c8a 10be 24a9 453e
00000040: ede2 d9bd 48fd acbd cad4 773d f2e7 ab3d
00000050: 4e7f f0bd 3eb1 003e 8ffb b8bd b736 8c3d
00000060: ee2a 88bd a072 193e b450 cc3d b6d3 c63d
00000070: 4c10 7ebe b690 7abe 5c8f 913d fbc4 153e
00000080: e7e7 0cbe 8a3b 9bbd 5984 3d3d 35de d13d
00000090: 6b27 7f3e cc90 76bd b464 0cbe 5a90 d4bd
000000a0: 2c3c e6bd a118 0a3e b7cf febd db3b 653e
000000b0: f6f4 563d fa1b ecbd 3cc0 07be 5161 6c3d
000000c0: 60de 8fbd 9068 8b3e d5d7 7e3d 3eef 3f3e
000000d0: 41bd f03d 3a0b adbe fa3d 993d 8a85 32bd
000000e0: a16d 443d a0cb b5bd 2bdc 2f3e e533 f93d
000000f0: 93e8 263e e7fe 8fbd 0712 9c3d c7a3 80bd

log_stdev f4 [17]
-0.7120199 -0.6748186 -0.4612432 -0.3053968 -0.50222504 -1.5330108 -1.6589713 -0.5770331
-0.5894298 -1.1088017 -1.7439886 -0.33226797 -0.45955214 -0.17409933 -0.3602528 -0.23991
-0.23544759
00000000: f046 36bf e9c0 2cbf 1228 ecbe f85c 9cbe
00000010: d291 00bf b339 c4bf 2c59 d4bf 71b8 13bf
00000020: dfe4 16bf 37ed 8dbf 053b dfbf 071f aabe
00000030: 6b4a ebbe 1847 32be 0e73 b8be f8aa 75be
00000040: 2c19 71be

affine_layers.0.weight f4 [64, 376]
-0.017806616 0.045967203 0.040617295 0.09091512 -0.0060314336 -0.120097704 -0.014921611 -0.024693707
0.03323784 0.099113986 -0.014061668 -0.18854016 0.007446411 -0.015705727 0.032626238 0.102594964
-0.06873427 0.038144093 -0.03363063 -0.08039667 -0.02169478 -0.05905682 0.16064012 0.029422684
-0.10587616 -0.10110927 -0.0069048046 0.043397777 0.05004055 0.012916252 -0.15920955 -0.03151217
-0.052557282 0.11034084 0.08150126 0.014306553 0.095682785 -0.038962994 -0.004246011 -0.007212273
-0.08308137 0.110133976 0.07687052 -0.06810759 -0.024877554 4.020676e-06 1.4560729e-07 8.2501697e-07
-1.7795871e-06 -3.771137e-06 5.7029956e-06 3.9923143e-06 -2.1312056e-07 4.2146303e-06 -2.54974e-06 0.016229387
0.11466812 0.004059921 -0.00056272355 0.104608044 0.07951511 -0.060390487 -0.009229034 0.056101624
-5.586647e-06 0.08997571 -0.02873131 -0.003648692 -0.0066257142 0.10158329 -0.06426928 -0.07112711
0.04189994 -0.052887667 -2.1536137e-06 -0.053674735 -0.0050844015 -0.07500174 -0.05552184 -0.0102389585
-0.028214453 -0.041746434 0.0069056856 -0.079764046 -1.3863215e-06 0.012190651 -0.03600529 0.016686603
0.03435515 0.04287849 0.0032243438 0.005433848 -0.048364304 0.06723641 5.3590804e-07 0.06429722
-0.015015151 0.073190756 0.053144302 -0.035717905 -0.06031626 0.119202204 0.09715745 0.08673168
-5.6626545e-06 -0.055286743 -0.0076265866 0.03288903 -0.04868543 0.02212007 0.007551432 -0.044686135
-0.033192184 0.018987374 -1.2258843e-06 0.0012650884 0.045085616 -0.12123801 -0.006741806 -0.09701355
-0.002749086 -0.023891205 -0.06953335 -0.1122881 2.0384324e-07 0.037892625 0.00034803164 0.00825915
0.05127486 0.02541819 -0.031265445 0.056983087 0.007988934 -0.051784992 4.8458146e-06 0.04644492
0.02118484 -0.017892892 0.033303376 0.017855287 -0.064074054 0.17309721 -0.01609744 -0.061013505
-9.147273e-06 0.07790606 -0.01573583 -0.0145479 0.015740406 -0.040639758 0.040472493 0.03389777
0.011575962 0.067054935 -4.239312e-07 0.028839976 -0.005271514 0.045182716 -0.028561102 0.022188807
-0.04829749 0.047075044 0.04410182 0.12252401 -1.1976181e-06 0.050595473 -0.06747906 -0.06978659
-0.015841568 -0.05174239 0.027732924 -0.018789679 0.050080143 -0.022565413 1.4792357e-07 -0.035697788
-0.061976675 -0.08247695 -0.008709238 0.024757985 0.038245343 -0.06285582 0.08794817 -0.04118762
-6.867822e-06 3.5283465e-06 -8.621311e-06 -2.7504948e-06 3.735596e-06 1.1493696e-05 -7.200417e-07 0.14533526
0.01832039 -0.019419128 0.06310179 0.008220288 -0.11103072 -0.011061287 0.061295316 0.16516264
-0.0105040185 0.047400627 -0.055551935 0.041393943 -0.017719273 0.09369997 0.006249342 0.01690958
0.044959646 0.0014895257 0.06937419 0.082981125 -0.028321924 0.11445178 0.020716324 -0.07665524
-0.032687485 0.028354708 0.0066466974 0.103657156 0.008257179 0.024526041 -0.114967674 -0.009427684
-0.14296116 0.0909041 -0.029999817 0.007952551 0.034043062 0.02173197 -0.08161809 0.007045629
0.0125031555 -0.047281414 -0.053984422 0.11751645 -0.08766694 0.004426525 0.020695826 -0.020353993
-0.050867498 -0.03387408 0.029900987 -0.022626262 -0.02342903 0.019373888 -0.0042938082 -0.0074390755
0.069852814 0.008552803 0.018677065 0.032904252 -0.0725246 -0.045847286 -0.015065029 -0.003828703
00000000: 2edf 91bc 1b48 3c3d 525e 263d b531 ba3d
00000010: 55a3 c5bb c9f5 f5bd c679 74bc 754a cabc
00000020: 6724 083d 46fc ca3d e962 66bc ac10 41be
00000030: 0601 f43b 4ca9 80bc 17a3 053d 4f1d d23d
00000040: 8ec4 8cbd fb3c 1c3d 45c0 09bd 02a7 a4bd
00000050: 40b9 b1bc 90e5 71bd d87e 243e d707 f13c
00000060: 9ad5 d8bd 6012 cfbd b341 e2bb dec1 313d
00000070: 52f7 4c3d b09e 533c d407 23be e812 01bd
00000080: 4e46 57bd 61fa e13d 22ea a63d 0866 6a3c
00000090: 56f5 c33d a997 1fbd 1f22 8bbb ee54 ecbb
000000a0: 9126 aabd ec8d e13d 4b6e 9d3d fe7b 8bbd
000000b0: 03cc cbbc 58e9 8636 3a58 1c34 bc76 5d35
000000c0: 26da eeb5 a413 7db6 5c5c bf36 b8f5 8536
000000d0: 22d6 64b4 666b 8d36 331c 2bb6 7ef3 843c
000000e0: 1fd7 ea3d 1609 853b bd83 13ba be3c d63d
000000f0: d1d8 a23d 045c 77bd 6035 17bc d1ca 653d
00000100: ef74 bbb6 2f45 b83d ed5d ebbc e51e 6fbb
00000110: 851c d9bb e60a d03d 9d9f 83bd 17ab 91bd
00000120: 469f 2b3d bda0 58bd cd86 10b6 0ada 5bbd
00000130: 0d9b a6bb 839a 99bd de6a 63bd 4ec1 27bc
00000140: ff21 e7bc 4ffe 2abd 1749 e23b 555b a3bd
00000150: a511 bab5 4cbb 473c 487a 13bd 58b2 883c
00000160: fcb7 0c3d 5ba1 2f3d 834f 533b 6c0e b23b
00000170: a619 46bd 3eb3 893d 52db 0f35 43ae 833d
00000180: 1c02 76bc 09e5 953d d7ad 593d f04c 12bd
00000190: 2f0e 77bd 4920 f43d 7cfa c63d 61a0 b13d
000001a0: d501 beb6 5a74 62bd 72e8 f9bb a6b6 063d
000001b0: 606a 47bd 2635 b53c 0172 f73b cf08 37bd
000001c0: 87f4 07bd 698b 9b3c 1089 a4b5 53d1 a53a
000001d0: b2ab 383d a24b f8bd 5eea dcbb 0aaf c6bd
000001e0: 022a 34bb 7db7 c3bc 8067 8ebd 4ef7 e5bd
000001f0: 01e0 5a34 4c35 1b3d 0478 b639 6351 073c
00000200: 9605 523d cf39 d03c 3210 00bd 1967 693d
00000210: 05e4 023c 801c 54bd 3b99 a236 073d 3e3d
00000220: d48b ad3c 1d94 92bc 1f69 083d 4045 923c
00000230: 4239 83bd 6540 313e c7de 83bc 4ce9 79bd
00000240: 3d77 19b7 368d 9f3d 6de8 80bc 515a 6ebc
00000250: 06f2 803c e075 26bd 7cc6 253d 63d8 0a3d
00000260: 1ba9 3d3c 1954 893d a998 e3b4 d041 ec3c
00000270: aabc acbb 8311 393d f9f8 e9bc 4dc5 b53c
00000280: 97d3 45bd c3d1 403d 1ca4 343d deed fa3d
00000290: d8bd a0b5 333d 4f3d 7632 8abd 46ec 8ebd
000002a0: 2dc6 81bc d4ef 53bd 2830 e33c d0ec 99bc
000002b0: d620 4d3d 1adb b8bc ecd4 1e34 d837 12bd
000002c0: 41db 7dbd ade9 a8bd 31b1 0ebc 42d1 ca3c
000002d0: 26a7 1c3d 8dba 80bd 2c1e b43d 5ab4 28bd
000002e0: 2472 e6b6 88c8 6c36 40a4 10b7 2495 38b6
000002f0: 0db1 7a36 0cd5 4037 e448 41b5 c4d2 143e
00000300: a414 963c dd14 9fbc 833b 813d 63ae 063c
00000310: 1364 e3bd 663a 35bc cc10 7b3d 6520 293e
00000320: 0c19 2cbc 2927 423d 6d8a 63bd b28c 293d
00000330: 0228 91bc c5e5 bf3d 48c7 cc3b f685 8a3c
00000340: 9b27 383d 303c c33a 0e14 8e3d 02f2 a93d
00000350: 6103 e8bc b265 ea3d 48b5 a93c 6cfd 9cbd
00000360: 50e3 05bd 2248 e83c 8acc d93b 344a d43d
00000370: 1e49 073c d6ea c83c 2c74 ebbd 9376 1abc
00000380: 6964 12be ee2b ba3d 2dc2 f5bc 6b4b 023c
00000390: bd70 0b3d 3f07 b23c 6327 a7bd 05df e63b
000003a0: 09da 4c3c 28aa 41bd c51e 5dbd 77ac f03d
000003b0: ba8a b3bd 620c 913b 4b8a a93c 6bbd a6bc
000003c0: 705a 50bd 8cbf 0abd eaf2 f43c b65a b9bc
000003d0: 3dee bfbc fdb5 9e3c 13b3 8cbb 7dc3 f3bb
000003e0: fe0e 8f3d 0e21 0c3c a500 993c 9cc6 063d
000003f0: c787 94bd 5dca 3bbd 50d3 76bc faea 7abb

affine_layers.0.bias f4 [64]
-0.038373 -0.10944449 -0.014722912 -0.16093999 -0.14918226 0.0998463 0.051306274 0.07553121
-0.22997215 -0.21903008 -0.16697441 -0.13887124 0.13744427 -0.06846283 -0.18884823 -0.06742173
-0.25121737 0.1268295 -0.080721326 -0.13196485 0.30604205 0.016193481 0.115301326 -0.111979626
0.10876448 -0.0033347027 0.07472552 0.31999576 -0.01305736 -0.24847625 0.0222261 0.22519049
-0.19050984 0.12110309 0.09964976 -0.36502156 -0.025074696 0.039517168 -0.13268654 0.0132564055
-0.18490495 -0.21464539 -0.2715279 0.21532476 0.03981975 -0.01410761 0.14109394 -0.015626669
0.03176468 0.13410446 0.053694125 0.079202056 0.11553729 0.037811775 0.17768924 -0.18704243
0.14722946 -0.00276998 0.05197578 -0.11583393 -0.16396531 0.13107845 -0.01814551 0.18310592
00000000: 022d 1dbd 6f24 e0bd 5e38 71bc 74cd 24be
00000010: 3cc3 18be 387c cc3d 8726 523d 1bb0 9a3d
00000020: d27d 6bbe 6c49 60be 57fb 2abe 4334 0ebe
00000030: 31be 0c3e 3d36 8cbd 6e61 41be 6714 8abd
00000040: 909f 80be 98df 013e 3951 a5bd cb21 07be
00000050: 8bb1 9c3e 31a8 843c 1a23 ec3d 9355 e5bd
00000060: e9bf de3d 078b 5abb b209 993d 7cd6 a33e
00000070: 8aee 55bc 8f70 7ebe 8313 b63c 5698 663e
00000080: 0315 43be e604 f83d 2c15 cc3d 1be4 babe
00000090: 7369 cdbc c1dc 213d fbde 07be 6531 593c
000000a0: b957 3dbe 00cc 5bbe b405 8bbe 187e 5c3e
000000b0: 091a 233d 9b23 67bc ee7a 103e 8003 80bc
000000c0: ae1b 023d ae52 093e 5fee 5b3d b034 a23d
000000d0: d19e ec3d 85e0 1a3d 2bf4 353e 0d88 3fbe
000000e0: 52c3 163e 8e88 35bb 8ee4 543d 573a edbd
000000f0: 86e6 27be 6e39 063e e5a5 94bc 1e80 3b3e

affine_layers.1.weight f4 [64, 64]
-0.06517732 -0.0395243 -0.029450541 -0.30423203 0.0031339764 0.1956322 -0.24957481 -0.09399611
-0.1115998 -0.19046299 0.32334337 -0.17321566 0.14991099 0.35225707 -0.061672416 -0.08004948
-0.22087443 -0.015416664 -0.033289034 -0.19597103 -0.24693356 -0.16781151 0.27557388 0.17990798
-0.03328867 0.07235869 0.12521271 0.119862966 -0.036407147 -0.05955352 -0.1146544 -0.38032928
0.07172061 -0.20033796 -0.21094023 0.0908283 -0.21252969 0.09071547 0.18939614 -0.013602669
-0.21330574 0.058703337 -0.07916272 -0.32334793 0.22228704 -0.05962172 -0.0630217 -0.16576788
0.33947304 -0.021206142 -0.08619806 -0.068803966 -0.026478006 0.03249875 0.037687086 0.061151333
-0.07013435 -0.07072802 0.030295884 -0.06376949 -0.070198685 0.09832421 -0.16686618 0.0031750454
-0.29601407 0.010548355 0.102771685 0.21913633 -0.009446592 -0.043751415 0.1335708 -0.063134156
-0.26343572 0.09503415 0.34252465 -0.19168216 0.2619539 -0.08227239 -0.022889953 -0.1569048
0.03773104 0.38180506 -0.06459774 -0.046472978 0.2660737 0.14180805 0.06095114 -0.099715136
-0.46102324 -0.041004654 0.1737562 -0.020964697 -0.042440884 0.23180479 -0.023645287 -0.13790488
-0.04323393 0.14539324 0.07115652 0.012027063 0.15493122 0.043154888 -0.19856735 -0.07205961
0.10521988 0.3525133 -0.3215813 0.0007940511 -0.17963041 -0.096804485 -0.07653968 0.05514346
0.19510344 0.062675446 0.084649794 0.05549018 -0.0414591 0.024045477 0.04791557 -0.084260136
0.017751448 0.1234056 -0.33056626 -0.027562292 0.08808409 -0.25950423 0.024469407 0.07157688
0.048963163 -0.068213776 -0.35646164 0.1613437 -0.030252894 0.34537086 0.05904008 -0.09884835
0.15759565 0.1258002 -0.027700964 0.16581424 -0.16833408 0.23863907 -0.17134823 -0.25313482
0.32190093 -0.021582171 0.11750571 0.3532726 -0.11687283 0.0013847251 0.026709875 -0.07232225
-0.055041205 0.24939379 0.3079668 0.15767968 0.051961474 -0.18065228 0.10330638 0.11486211
-0.11106863 -0.022387011 0.122554734 0.11082444 -0.099372104 -0.12141458 -0.19868074 -0.060046375
0.056701876 0.29259574 0.03609696 -0.035493936 -0.026211934 -0.065149836 0.014989727 -0.12117463
-0.09429632 -0.52009606 0.19033942 0.15202181 0.12402461 0.035429142 -0.23785202 0.09264357
-0.057229422 -0.22824685 0.017318176 -0.141601 -0.15250471 -0.1096736 -0.0016996795 -0.017499331
-0.14157996 -0.19783258 0.09608618 -0.24764971 -0.044822205 -0.029527118 0.13376054 0.25060523
-0.05189752 0.13014545 0.19208494 -0.04926212 0.023552336 0.17137131 -0.06088882 0.0113589475
0.110918134 0.19966918 -0.18054439 0.019709138 0.21579888 0.083383314 0.2663898 -0.3905466
0.11787213 -0.16463393 -0.15510252 -0.35030377 -0.06543306 -0.40027538 0.0052138492 0.16277371
0.053088237 0.19697358 0.04831173 -0.08973795 0.14709179 -0.14333607 0.1521946 0.16823646
-0.07156924 -0.10061256 -0.10454873 -0.021566521 -0.00648759 -0.076583825 -0.2854711 -0.075325534
0.11013823 0.014956961 0.030173508 0.13586551 -0.20713113 0.031226255 -0.09309522 0.06305668
0.008614789 -0.26203683 0.25191745 -0.17255229 0.1517838 0.30884486 -0.17818436 0.053930882
00000000: b07b 85bd 3be4 21bd 4342 f1bc 4dc4 9bbe
00000010: 6663 4d3b cf53 483e 8a90 7fbe 0881 c0bd
00000020: 708e e4bd bb08 43be 438d a53e 725f 31be
00000030: 4482 193e 0a5b b43e 379c 7cbd fbf0 a3bd
00000040: e82c 62be 2d96 7cbc 155a 08bd a1ac 48be
00000050: 27dc 7cbe c8d6 2bbe 0518 8d3e cc39 383e
00000060: b359 08bd cb30 943d c337 003e b77a f53d
00000070: a91f 15bd 64ee 73bd edcf eabd 85ba c2be
00000080: 41e2 923d 6525 4dbe b700 58be 3004 ba3d
00000090: 62a1 59be 08c9 b93d 10f1 413e bbdd 5ebc
000000a0: d26c 5abe e972 703d 1020 a2bd dc8d a5be
000000b0: 379f 633e e835 74bd 8511 81bd 0ebf 29be
000000c0: 69cf ad3e 81b8 adbc 9c88 b0bd 18e9 8cbd
000000d0: 67e8 d8bc 691d 053d c65d 1a3d d279 7a3d
000000e0: 99a2 8fbd dad9 90bd 132f f83c 9499 82bd
000000f0: 54c4 8fbd 345e c93d f8de 2abe 6c14 503b
00000100: 288f 97be 02d3 2c3c f679 d23d 4665 603e
00000110: e1c5 1abc af34 33bd c9c6 083e 7b4c 81bd
00000120: 0ce1 86be 44a1 c23d 645f af3e 5448 44be
00000130: d21e 863e 6d7e a8bd b683 bbbc a7ab 20be
00000140: dd8b 1a3d f47b c33e d24b 84bd 735a 3ebd
00000150: d03a 883e 2136 113e e7a7 793d 7337 ccbd
00000160: 3d0b ecbe 7ff4 27bd 25ed 313e 28be abbc
00000170: 7ed6 2dbd 3c5e 6d3e c3b3 c1bc f036 0dbe
00000180: 1016 31bd f7e1 143e 82ba 913d 290d 453c
00000190: 4aa6 1e3e 2ec3 303d 3d55 4bbe fd93 93bd
000001a0: 857d d73d a07c b43e 4ea6 a4be de27 503a
000001b0: 09f1 37be 6e41 c6bd d6c0 9cbd 1cde 613d
000001c0: 32c9 473e fc5b 803d df5c ad3d ac49 633d
000001d0: 04d1 29bd 05fb c43c 1e43 443d 9490 acbd
000001e0: 7c6b 913c 13bc fc3d fb3f a9be 51ca e1bc
000001f0: 6e65 b43d bddd 84be 1174 c83c e696 923d
00000200: 998d 483d aab3 8bbd 2482 b6be 4837 253e
00000210: ebd4 f7bc 73d4 b03e 03d4 713d 0171 cabd
00000220: c160 213e c5d1 003e 22ed e2bc 35cb 293e
00000230: c55f 2cbe cd5d 743e e975 2fbe e39a 81be
00000240: 33d0 a43e 18cd b0bc d5a6 f03d 25e0 b43e
00000250: 065b efbd aa7f b53a abce da3c b01d 94bd
00000260: e372 61bd 1661 7f3e d3ad 9d3e c876 213e
00000270: 8ed5 543d e9fc 38be 4c92 d33d d33c eb3d
00000280: f377 e3bd f764 b7bc fafd fa3d edf7 e23d
00000290: 9a83 cbbd 35a8 f8bd f772 4bbe 30f3 75bd
000002a0: 3a40 683d 1ccf 953e 68da 133d 1762 11bd
000002b0: 69ba d6bc 476d 85bd 7997 753c 682a f8bd
000002c0: 6e1e c1bd 0425 05bf 56e8 423e 9bab 1b3e
000002d0: 9d00 fe3d 261e 113d 7b8f 73be e9bb bd3d
000002e0: 6669 6abd 8bb9 69be d9de 8d3c daff 10be
000002f0: 322a 1cbe 8d9c e0bd c8c7 deba c25a 8fbc
00000300: 56fa 10be a094 4abe d5c8 c43d e397 7dbe
00000310: 7d97 37bd dbe2 f1bc 86f8 083e 544f 803e
00000320: 7e92 54bd d944 053e eab1 443e 14c7 49bd
00000330: d4f0 c03c f67b 2f3e 8e66 79bd e11a 3a3c
00000340: 0c29 e33d 1476 4c3e a1e0 38be 0f75 a13c
00000350: 62fa 5c3e dfc4 aa3d 3e64 883e b9f5 c7be
00000360: f166 f13d cc95 28be 32d3 1ebe 045b b3be
00000370: c501 86bd e5f0 ccbe f0d8 aa3b 27ae 263e
00000380: 0d73 593d 71b3 493e 85e2 453d 88c8 b7bd
00000390: 3b9f 163e b1c6 12be e7d8 1b3e 2e46 2c3e
000003a0: e592 92bd f50d cebd a51d d6bd 46ac b0bc
000003b0: d995 d4bb fbd7 9cbd 4529 92be 4644 9abd
000003c0: 2790 e13d 0b0e 753c 6f2e f73c 5420 0b3e
000003d0: 2f1a 54be 34ce ff3c b5a8 bebd dc23 813d
000003e0: 0b25 0d3c b129 86be 53fb 803e 8cb1 30be
000003f0: 366d 1b3e ea20 9e3e f675 36be a1e6 5c3d

affine_layers.1.bias f4 [64]
-0.08201704 0.13711746 -0.11314115 0.09255813 0.16895276 -0.19087058 -0.17452691 0.026039854
-0.13543461 0.096409395 -0.03958813 0.011572542 -0.20265421 -0.074183844 -0.20442626 0.10200869
-0.08063484 0.24232772 0.17696449 0.2328862 0.2531268 -0.0015652436 -0.069168314 0.1146408
0.20372245 -0.062463485 -0.07254498 -0.00579785 0.107773036 -0.25797918 0.13053507 -0.11382745
0.32399353 0.2720016 -0.19583587 -0.09230332 -0.38205704 -0.10012253 0.05908173 0.31010833
0.12838465 -0.19057715 -0.15985937 0.076160595 -0.026724726 0.08760259 0.24236616 0.03737407
0.13428484 -0.10365919 -0.11177662 0.13936171 -0.015557232 -0.055606168 0.17635262 -0.10096629
0.027065285 -0.06115045 -0.12343962 -0.17325214 -0.116262846 -0.06221932 0.037261896 0.12955733
00000000: 8df8 a7bd 8568 0c3e 8cb6 e7bd 1e8f bd3d
00000010: f401 2d3e 9473 43be 2fb7 32be 8851 d53c
00000020: 5faf 0abe 4a72 c53d 2a27 22bd c29a 3d3c
00000030: 9684 4fbe b3ed 97bd 1e55 51be efe9 d03d
00000040: e123 a5bd c224 783e 2e36 353e b879 6e3e
00000050: d699 813e dc28 cdba 1ea8 8dbd ccc8 ea3d
00000060: 9e9c 503e b6d9 7fbd 7692 94bd e4fb bdbb
00000070: 1cb8 dc3d d915 84be fcaa 053e 5e1e e9bd
00000080: 7be2 a53e cb43 8b3e 3389 48be 8609 bdbd
00000090: fb9c c3be 0a0d cdbd afff 713d 85c6 9e3e
000000a0: 4477 033e a826 43be 2db2 23be 16fa 9b3d
000000b0: d0ed dabc fd68 b33d d62e 783e 8e15 193d
000000c0: f781 093e 454b d4bd 24eb e4bd d6b4 0e3e
000000d0: c3e3 7ebc 4bc3 63bd c895 343e 6ac7 cebd
000000e0: 04b8 dd3c e578 7abd e9cd fcbd 0269 31be
000000f0: 371b eebd b0d9 7ebd ee9f 183d adaa 043e

final_mean.weight f4 [17, 64]
0.10961514 -0.17688553 0.1162543 -0.08482093 -0.056226764 -0.10805861 -0.01852809 0.0024584702
-0.0013594952 -0.136683 0.24342656 0.1662615 0.047523264 0.20294754 0.2371543 -0.16242814
-0.037283316 0.11378945 0.19178672 0.024530562 -0.02474165 -0.03914264 0.14757381 -0.18153207
-0.04588608 -0.08718921 -0.2047563 0.0003470417 0.069928974 0.0627718 0.09502821 0.06636723
0.069168136 -0.048400454 -0.17856823 0.120743535 -0.0024608816 0.037070286 -0.044238098 0.15235677
0.19646396 -0.0051898942 0.099380635 -0.20710827 0.18901414 0.19187248 0.09954195 0.04623265
-0.12214504 -0.2517018 -0.0063304845 0.024925124 -0.06968616 0.005768948 -0.07080909 -0.1800513
-0.01671464 -0.23254913 -0.03328484 0.139009 -0.25826478 -0.09474451 -0.052331205 0.07703012
-0.029120186 -0.04587536 0.1643026 0.04598103 -0.09519105 -0.08212056 -0.24799325 0.0845752
0.08598631 -0.108865 -0.13787462 0.04643709 0.06802285 0.060307175 -0.038473003 -0.05229586
-0.113366574 0.09580858 -0.015166022 0.08148493 0.06814797 0.027222864 0.09618504 0.09950117
-0.11510295 -0.04295745 -0.014339717 0.17257875 0.018751457 -0.000745773 0.10130352 0.20729369
0.045321688 -0.16531599 0.2412723 0.067105025 0.08694701 0.16053647 0.090618074 -0.12384464
-0.047784816 -0.0026957248 0.04800643 -0.05606982 -0.31609595 -0.01831016 -0.25102487 -0.06764747
-0.2939861 0.057784185 -0.014476098 -0.037114292 0.057939883 -0.19893721 0.10793293 -0.099672675
-0.120487206 -0.1863823 -0.043895386 -0.10651636 0.015186191 0.06708102 -0.012193126 0.15617044
0.0871185 0.05963932 -0.39432302 -0.13997318 0.037664652 -0.22000435 0.15308517 0.12857588
-0.10163626 0.15898797 0.12863149 -0.16532932 -0.07477425 0.042114854 -0.23368168 -0.41635925
-0.011204172 -0.016598506 0.048544295 0.06587273 -0.19740146 0.219397 -0.13168006 -0.12582669
-0.1360545 -0.1306487 -0.059143797 -0.063558586 -0.13472222 0.042998478 -0.034059796 0.08519116
-0.031767596 -0.048332606 -0.012419844 0.26092264 -0.046225037 0.14728357 -0.13278691 -0.06585883
-0.048532 0.17110753 -0.012411842 0.16892324 -0.1846226 0.016869962 -0.04334115 -0.17851475
-0.060161598 0.047550756 0.03138337 -0.010279117 0.020529767 0.07500887 -0.07725846 0.1170096
-0.08247621 0.009209456 -0.022112543 0.15637034 0.009867644 -0.019624164 0.055403363 -0.2600066
0.045127686 -0.10699825 -0.060172934 0.17492294 0.108206846 -0.024872344 -0.12324656 0.014753077
-0.009874375 0.06319452 -0.27039745 -0.018237082 0.083542146 0.06084065 0.37432623 0.10119731
-0.011995074 -0.06152769 -0.04186366 0.07173278 0.13700959 0.057014827 0.06093317 -0.10326016
0.3058036 0.035519697 0.066359594 0.1221629 -0.16876921 0.10787492 -0.018530043 -0.03974763
0.07326335 0.112900704 0.054036878 0.034711137 0.024841888 0.038130727 0.115255155 0.085345194
0.024404908 0.007166046 -0.053388428 -0.06657959 -0.019722642 0.19834746 0.0043542194 -0.049126014
0.014323526 -0.1442577 0.043489575 -0.0274036 -0.077097416 -0.15717734 0.13870144 0.21082382
0.09722706 -0.040524192 0.014441893 -0.13788305 -0.029301977 0.053222198 0.16971605 0.049510863
00000000: e77d e03d 7b21 35be bc16 ee3d 99b6 adbd
00000010: 094e 66bd d54d ddbd 39c8 97bc 491e 213b
00000020: 1731 b2ba a1f6 0bbe d044 793e 7440 2a3e
00000030: c1a7 423d 7bd1 4f3e 94d8 723e 9053 26be
00000040: 64b6 18bd 710a e93d bd63 443e 51f4 c83c
00000050: 00af cabc 0854 20bd 971d 173e 8be3 39be
00000060: 0bf3 3bbd 4290 b2bd a3ab 51be 26f3 b539
00000070: ec36 8f3d 808e 803d 269e c23d 8beb 873d
00000080: 06a8 8d3d 8e3f 46bd 97da 36be 6348 f73d
00000090: be46 21bb 03d7 173d 0233 35bd 6a03 1c3e
000000a0: d92d 493e fd0f aabb 1388 cb3d 3114 54be
000000b0: ec8c 413e 387a 443e a6dc cb3d 725e 3d3d
000000c0: 2e27 fabd 0fdf 80be f46f cfbb c62f cc3c
000000d0: 9eb7 8ebd 7109 bd3b 5b04 91bd 5e5f 38be
000000e0: 24ed 88bc 5c21 6ebe af55 08bd 6058 0e3e
000000f0: 483b 84be 6909 c2bd 3f59 56bd f8c1 9d3d
00000100: 758d eebc cde7 3bbd f13e 283e 9b56 3c3d
00000110: 86f3 c2bd d32e a8bd f1f1 7dbe c335 ad3d
00000120: 9719 b03d 9df4 debd 012f 0dbe d134 3e3d
00000130: 904f 8b3d a804 773d de95 1dbd 2f34 56bd
00000140: bc2c e8bd 4a37 c43d e87a 78bc 92e1 a63d
00000150: 2a91 8b3d 7c02 df3c aafc c43d 45c7 cb3d
00000160: 18bb ebbd 27f4 2fbd 22f1 6abc 7cb8 303e
00000170: a89c 993c fb7f 43ba 3878 cf3d cc44 543e
00000180: 3ca3 393d 9848 29be 1610 773e 5c6e 893d
00000190: 4611 b23d ac63 243e f895 b93d 42a2 fdbd
000001a0: 03ba 43bd c2aa 30bb 64a2 443d 78a9 65bd
000001b0: 54d7 a1be 30ff 95bc 5586 80be c28a 8abd
000001c0: 5985 96be 1caf 6c3d 282d 6dbc 2805 18bd
000001d0: 5f52 6d3d 32b6 4bbe f10b dd3d 3021 ccbd
000001e0: ffc1 f6bd 00db 3ebe a6cb 33bd 4025 dabd
000001f0: 80cf 783c c661 893d adc5 47bc 25eb 1f3e
00000200: 2f6b b23d 5c48 743d b5e4 c9be 2155 0fbe
00000210: 4046 1a3d d248 61be 5cc2 1c3e 65a9 033e
00000220: ac26 d0bd becd 223e f9b7 033e 174c 29be
00000230: 3e23 99bd a080 2c3d 404a 6fbe 0a2d d5be
00000240: b491 37bc 97f9 87bc 62d6 463d 48e8 863d
00000250: 9c23 4abe 9ba9 603e 23d7 06be b6d8 00be
00000260: df51 0bbe c6c8 05be c440 72bd 012b 82bd
00000270: 9ff4 09be 2c1f 303d 4982 0bbd b478 ae3d
00000280: bd1e 02bd 69f8 45bd 9a7c 4bbc a797 853e
00000290: 7756 3dbd 81d1 163e 4bf9 07be ffe0 86bd
000002a0: 7ec9 46bd d036 2f3e 0a5b 4bbc 37fa 2c3e
000002b0: b50d 3dbe e032 8a3c 7d86 31bd 92cc 36be
000002c0: 026c 76bd 95c4 423d d98b 003d be69 28bc
000002d0: 0b2e a83c 409e 993d af39 9ebd bba2 ef3d
000002e0: 4ae9 a8bd 42e3 163c 5d25 b5bc 8c1f 203e
000002f0: e6ab 213c dbc2 a0bc a3ee 623d 961f 85be
00000300: cfd7 383d e621 dbbd e577 76bd 001f 333e
00000310: 8d9b dd3d 16c1 cbbc b168 fcbd e4b6 713c
00000320: 21c8 21bc 216c 813d 8971 8abe ef65 95bc
00000330: 2518 ab3d 0c34 793d b0a7 bf3e 8940 cf3d
00000340: fd86 44bc 7604 7cbd 3b79 2bbd a3e8 923d
00000350: 3e4c 0c3e 6188 693d 0f95 793d 107a d3bd
00000360: 4a92 9c3e 1a7d 113d 8ae7 873d 8b30 fa3d
00000370: d6d1 2cbe 87ed dc3d 51cc 97bc 69ce 22bd
00000380: 180b 963d 7c38 e73d c655 5d3d 442d 0e3d
00000390: 3781 cb3c f72e 1c3d e50a ec3d 76c9 ae3d
000003a0: cdec c73c 27d1 ea3b d3ad 5abd e15a 88bd
000003b0: 6191 a1bc 991b 4b3e d7ad 8e3b 5c38 49bd
000003c0: 39ad 6a3c 4ab8 13be 2022 323d 847d e0bc
000003d0: 40e5 9dbd 19f3 20be c007 0e3e 33e2 573e
000003e0: fb1e c73d b2fc 25bd b19d 6c3c 3731 0dbe
000003f0: b30a f0bc 85ff 593d 0bca 2d3e e7cb 4a3d

final_mean.bias f4 [17]
0.114199005 -0.008491231 -0.14981711 0.064264484 0.11428562 0.106611416 0.14996985 0.028995452
-0.08635804 0.20440595 0.19422379 -0.11329116 0.15055624 -0.13896778 -0.15632708 -0.047326386
-0.030393232
00000000: 2be1 e93d ce1e 0bbc a869 19be 199d 833d
00000010: 940e ea3d 1657 da3d b291 193e df87 ed3c
00000020: 7cdc b0bd cb4f 513e 9ae2 463e 3205 e8bd
00000030: 6a2b 1a3e 924d 0ebe 3514 20be 50d9 41bd
00000040: 3afb f8bc

exp_avg f4 [64, 376]
-0.0012869933 0.0008358484 0.0023661274 0.0014774846 0.0005419144 -0.0014836155 0.0005563597 0.0002770274
-0.004236968 0.002114775 -0.0017076025 -0.0019208842 0.0019719899 -0.0007411047 -0.0015751267 -0.0015593749
0.0014088681 0.00019460803 -0.00302003 -0.002541774 -0.0022930251 0.00011039161 0.00019128576 -0.0011171064
-0.00042077902 -0.0005305497 -0.00038685385 0.00088750036 -0.00043255294 -0.00035176368 0.00037184227 -0.0010223788
6.488529e-05 0.001150646 0.0009657566 0.0005772794 0.001056466 0.00058117945 0.0006850086 -0.0003476498
-0.00041942002 0.00039934565 -0.00038506347 0.00073919445 0.0007069663 0.0 0.0 0.0
0.0 0.0 0.0 0.0 0.0 0.0 0.0 -0.0011671333
-0.0009189818 -0.00164996 -0.0017184753 -0.0020102325 0.0024410943 0.0018484445 -0.0023086204 -0.0003313293
0.0 -0.0018789299 -0.0023070057 0.0009637156 -0.00041664136 0.00010751844 0.0004281623 -0.0002518166
-0.00073613366 -0.0023842538 0.0 -0.002278786 -0.0007312869 -0.002176789 -0.0010488372 0.0006489237
-0.0024189476 -0.001471158 0.0017629685 -0.0023019393 0.0 0.0007624057 0.003450369 -0.0025510902
-0.0020447848 -0.0022779412 0.00020260586 -0.0020008865 0.0019979426 -0.0037506407 0.0 -0.00030254442
0.0018640069 0.0006611599 -0.0017406557 -0.0030237471 0.0011546058 -0.0027083748 0.0011624361 -0.00052420923
0.0 -0.0014282048 0.0006874494 0.0017986859 -0.0014905181 -0.0031880636 0.0012044172 -0.0029833612
0.0010100757 0.00085645716 0.0 0.0011539534 -0.0012052183 0.0026198933 -0.0020909298 -0.00048275932
0.0028412521 -0.0005109251 0.003191797 0.0009383412 0.0 -0.0011852841 -0.0024871205 0.0017552231
-0.0010942383 -0.0013022057 0.0024848767 -0.001124073 0.0026053472 0.0021030053 0.0 -0.0015759837
-0.0024513744 0.0014807832 -0.0004889637 -0.0015537352 0.0019994145 -0.00148151 0.0019942406 0.0020404654
0.0 -0.0030937959 -0.0018661444 0.0018084738 0.0015269482 -0.0021927515 0.0018961587 0.0024161153
-0.0017248723 -0.0022986867 0.0 -0.00029711265 0.0027109513 0.0029098422 -0.0011951504 -0.0035434833
0.00059011765 0.0034478337 -0.00060197245 0.00032033274 0.0 4.6832036e-05 0.0013055099 -0.003723643
-0.0012497362 -0.0011842594 0.0012835553 0.0013473099 -0.0026657328 0.0021757234 0.0 -0.0013364246
0.0010058476 -0.00024500306 8.864591e-05 -0.001011901 -0.0012680774 0.001808923 -0.0027748186 0.0017631457
0.0 0.0 0.0 0.0 0.0 0.0 0.0 0.0006619854
-8.6320084e-05 0.00066476146 0.0003495452 -0.00025178582 -0.00023903031 -0.0005981388 -0.00042152227 0.0002134451
0.00075634714 -0.0012595225 -0.00060245435 0.00020210285 -0.0003558223 0.00024348857 0.00074631086 -0.0011966462
-0.00032443926 -0.00058302074 0.0011895598 0.0001575848 0.0005176257 -0.0004869563 -0.0012798491 8.7917695e-05
-0.0007618321 -7.131461e-05 -0.00089968665 -0.0006092434 0.0001996442 8.7917695e-05 -0.0007618321 -7.131461e-05
-0.00089968665 -0.0006092434 0.0001996442 0.00031824486 0.00087816216 -0.00072790997 0.00013742049 -0.00079800165
0.00033527403 0.00051330024 -0.0006330664 -0.00089763285 -0.0007419168 -0.0002493255 -0.00061301043 0.00051330024
-0.0006330664 -0.00089763285 -0.0007419168 -0.0002493255 -0.00061301043 0.00045747365 -0.000669484 0.000581156
0.00077561504 0.00014553532 -0.00033748714 0.0001591815 -0.0011013044 0.0014918231 0.0012519317 -0.00049298786
00000000: 54b0 a8ba d61c 5b3a 0811 1b3b 28a8 c13a
00000010: 430f 0e3a e075 c2ba abd8 113a fd3d 9139
00000020: 43d6 8abb 0998 0a3b a2d1 dfba 2ec6 fbba
00000030: 803c 013b b246 42ba 7b74 ceba f063 ccba
00000040: c5a9 b83a b20f 4c39 b2eb 45bb e493 26bb
00000050: 9446 16bb 0b82 e738 e193 4839 df6b 92ba
00000060: 019c dcb9 9614 0bba a5d2 cab9 24a7 683a
00000070: 46c8 e2b9 ec6c b8b9 d3f3 c239 5701 86ba
00000080: 0613 8838 46d1 963a d42a 7d3a 9154 173a
00000090: 1e79 8a3a 4b5a 183a 2692 333a c444 b6b9
000000a0: 9ae5 dbb9 445f d139 58e2 c9b9 80c6 413a
000000b0: b553 393a 0000 0000 0000 0000 0000 0000
000000c0: 0000 0000 0000 0000 0000 0000 0000 0000
000000d0: 0000 0000 0000 0000 0000 0000 7ffa 98ba
000000e0: d3e7 70ba 7843 d8ba 763e e1ba 1bbe 03bb
000000f0: c4fa 1f3b 8147 f23a 394c 17bb 44b6 adb9
00000100: 0000 0000 6d46 f6ba 2231 17bb dca1 7c3a
00000110: a870 dab9 867b e138 f97a e039 4006 84b9
00000120: 18f9 40ba 2441 1cbb 0000 0000 af57 15bb
00000130: d5b3 3fba 76a8 0ebb 2379 89ba 881c 2a3a
00000140: 3587 1ebb dfd3 c0ba 6813 e73a 22dc 16bb
00000150: 0000 0000 2edc 473a 961f 623b 3130 27bb
00000160: cc01 06bb 8349 15bb 9972 5439 4e21 03bb
00000170: eaef 023b 4fcd 75bb 0000 0000 d39e 9eb9
00000180: b151 f43a b151 2d3a b726 e4ba 0f2a 46bb
00000190: 2456 973a fd7e 31bb e25c 983a 166b 09ba
000001a0: 0000 0000 9a32 bbba f335 343a e2c1 eb3a
000001b0: 7d5d c3ba d5ee 50bb 89dd 9d3a 7f84 43bb
000001c0: 8464 843a de83 603a 0000 0000 4040 973a
000001d0: 6af8 9dba 84b2 2b3b fb07 09bb dc1a fdb9
000001e0: 4d34 3a3b 9aef 05ba 782d 513b 03fb 753a
000001f0: 0000 0000 895b 9bba f5fe 22bb 840f e63a
00000200: 8b6c 8fba c6ae aaba 50d9 223b a255 93ba
00000210: 79be 2a3b 93d2 093b 0000 0000 3d91 ceba
00000220: 3da7 20bb d716 c23a cc2d 00ba b4a6 cbba
00000230: 9c08 033b 3a2f c2ba ceb1 023b 54b9 053b
00000240: 0000 0000 48c1 4abb 6a99 f4ba 500a ed3a
00000250: e123 c83a 44b4 0fbb 8788 f83a b057 1e3b
00000260: 1c15 e2ba 90a5 16bb 0000 0000 c9c5 9bb9
00000270: 37aa 313b 0db3 3e3b 98a6 9cba c939 68bb
00000280: 20b2 1a3a 0df5 613b b0cd 1dba 55f2 a739
00000290: 0000 0000 846d 4438 a51d ab3a 5d08 74bb
000002a0: 30ce a3ba 2739 9bba f83c a83a 3898 b03a
000002b0: 93b3 2ebb 9596 0e3b 0000 0000 f82a afba
000002c0: a5d6 833a c173 80b9 69e7 b938 c3a1 84ba
000002d0: 9e35 a6ba 6219 ed3a bbd9 35bb 5a19 e73a
000002e0: 0000 0000 0000 0000 0000 0000 0000 0000
000002f0: 0000 0000 0000 0000 0000 0000 1789 2d3a
00000300: be06 b5b8 6343 2e3a 2a43 b739 1f02 84b9
00000310: 36a4 7ab9 6acc 1cba c3ff dcb9 3cd0 5f39
00000320: 9945 463a 9016 a5ba 07ee 1dba 92eb 5339
00000330: a98d bab9 f750 7f39 13a4 433a c9d8 9cba
00000340: 8019 aab9 dcd5 18ba 01eb 9b3a 593d 2539
00000350: 46b1 073a 2b4e ffb9 9cc0 a7ba 7460 b838
00000360: b0b5 47ba bd8e 95b8 f3d8 6bba a2b5 1fba
00000370: 9557 5139 7460 b838 b0b5 47ba bd8e 95b8
00000380: f3d8 6bba a2b5 1fba 9557 5139 1ada a639
00000390: 7734 663a 36d1 3eba 8818 1039 fc30 51ba
000003a0: b8c7 af39 ff8e 063a 5ef4 25ba 1f4f 6bba
000003b0: 327d 42ba e7b7 82b9 6fb2 20ba ff8e 063a
000003c0: 5ef4 25ba 1f4f 6bba 327d 42ba e7b7 82b9
000003d0: 6fb2 20ba 13d9 ef39 5080 2fba b858 183a
000003e0: a552 4b3a d79a 1839 c2f0 b0b9 f5e9 2639
000003f0: a559 90ba 4789 c33a db17 a43a db3b 01ba
