src/collect_models/rluc/walker_rluc_best.model (torch, 148046 bytes, 36 tensors)

affine_layers.0.weight f4 [64, 17]
0	0x3f5aa792	0.8541194
1	0x3df76106	0.120790526
2	0x3deba207	0.11505514
3	0x3dc2af4f	0.09506094
4	0xbe55f8a5	-0.20895632
5	0xbea71734	-0.3263489
6	0xbf1b7c36	-0.60736406
7	0xbd8bb37b	-0.068213426
8	0xbd9961e5	-0.07489375
9	0x3e16dab0	0.1473186
10	0xbe8394aa	-0.2569936
11	0x3de4f8a6	0.111802384
12	0x3da76c7c	0.081749886
13	0xbc24f78c	-0.010068785
14	0x3e01710b	0.12640779
15	0xbc1c6ce8	-0.00954745
16	0x3d3878c5	0.04503705
17	0xbd878c80	-0.06618595
18	0x3f0f96ea	0.5608965
19	0xbdba5d1d	-0.09099791
20	0xbd74bc59	-0.059749935
21	0xbd68dbd1	-0.05685026
22	0xbd41c99e	-0.047311418
23	0xbe985aed	-0.2975687
24	0x3e39cb21	0.18143894
25	0x3dd9779b	0.10618516
26	0xbe3335ff	-0.17501067
27	0xbe2b35a5	-0.16719683
28	0x3e61660a	0.22011581
29	0x3d1f3e36	0.03887769
30	0x3dbc6ba8	0.09200221
31	0x3b0ce94e	0.0021501365
32	0x3cd9500d	0.026527429
33	0xbc31d9b9	-0.010855132
34	0xbea2a548	-0.31766725
35	0x3dc84971	0.09779633
36	0x3ee6ba06	0.450638
37	0x3cb96ac9	0.022633927
38	0x3d818d54	0.06325784
39	0xbe2674af	-0.16255449
40	0xbf7a85f9	-0.97860676
41	0xbc98da31	-0.01865873
42	0x3edbcd1d	0.42929927
43	0xbe8fb5fc	-0.2806853
44	0x3e8fe48d	0.28104058
45	0xbf361a8e	-0.7113427
46	0xbe7e23d2	-0.24818352
47	0xbddbb2e7	-0.10727482
48	0x3e76ff64	0.24120861
49	0xbe4c37f2	-0.19943216
50	0x3da50219	0.08057041
51	0xbe748093	-0.23877172
52	0x3de05050	0.109528184
53	0x3e31b580	0.17354393
54	0xbc6b1634	-0.014348555
55	0x3e765f34	0.24059755
56	0x3dfe9c64	0.12432173
57	0x3dc68c19	0.0969469
58	0x3bbc99bd	0.0057556317
59	0xbe570dc7	-0.2100135
60	0xbe8f7b53	-0.28023776
61	0xbe46631c	-0.19373745
62	0xbcbf82ef	-0.023377864
63	0xbd17e4f7	-0.037083592
64	0xbd0fa6c7	-0.03507116
65	0x3e2946e8	0.16530955
66	0x3c63bf23	0.013900551
67	0x3d56e10c	0.052460715
68	0xbe1498ca	-0.1451141
69	0x3e900d8b	0.28135332
70	0x3db32f09	0.087492056
71	0xbc71b5a8	-0.014752783
72	0xbf6ef8de	-0.9334849
73	0xbe2cd08a	-0.16876426
74	0xbea753b2	-0.32681042
75	0x3c8efc02	0.017454151
76	0x3e43dcbb	0.1912717
77	0x3e295f1d	0.16540189
78	0x3e1d68a6	0.15371951
79	0x3d3759f6	0.044763528
80	0x3ce91fae	0.028457489
81	0xbee16ff2	-0.4403072
82	0xbe2eca84	-0.17069441
83	0xbda0c270	-0.07849586
84	0x3dad28fc	0.08455083
85	0x3eb53312	0.35390526
86	0x3eba943b	0.36441216
87	0xbf29cace	-0.6632508
88	0xbde33d8b	-0.11095723
89	0xbd3b2633	-0.045690726
90	0xbdd3e44a	-0.10346277
91	0xbd8d9f7c	-0.06915185
92	0xbd684376	-0.05670496
93	0xbe14334c	-0.14472693
94	0xbed9024e	-0.4238457
95	0x3ec3b29d	0.3822221
96	0xbe3b1870	-0.18271041
97	0xbdf527dc	-0.11970493
98	0xbc9a9a77	-0.018872483
99	0xbe06f928	-0.13180983
100	0xbcd6f006	-0.026237499
101	0xbcadeaaf	-0.02123007
102	0x3f3d9a60	0.7406368
103	0x3e3e30a9	0.1857325
104	0x3eaf9953	0.34296665
105	0x3cc1ae12	0.023642574
106	0x3e8efd9f	0.27927873
107	0xbdc95513	-0.0983068
108	0xbec73e77	-0.38914844
109	0xbd842d2a	-0.06453927
110	0x3e94ad77	0.29038593
111	0x3da1b24a	0.07895334
112	0xbe2e2a48	-0.17008317
113	0x3e751916	0.23935351
114	0x3d9ed7d2	0.07756008
115	0x3d534610	0.05158049
116	0xbdc766f8	-0.097364366
117	0xbd2afb0b	-0.04174332
118	0xbc2dd1d9	-0.010609114
119	0xbdf25476	-0.11832516
120	0x3c40ac71	0.011759863
121	0xbdee2c02	-0.116294876
122	0x3ce09dcc	0.027418993
123	0x3d976107	0.07391553
124	0x3d60234e	0.05472117
125	0x3bfb26ef	0.0076645534
126	0xbca1962d	-0.01972493
127	0x3f755d48	0.9584546
128	0xbe1695ca	-0.14705577
129	0xbe73fc8b	-0.23826806
130	0x3e06ea15	0.13175233
131	0xbc3662cc	-0.011131953
132	0x3bd484bb	0.0064855493
133	0xbbbfbf99	-0.0058516976
134	0xbe5d0189	-0.21582617
135	0xbd46464b	-0.04840688
136	0x3e2fa828	0.1715399
137	0x3e8fd082	0.28088766
138	0xbf0ed738	-0.5579715
139	0x3d831400	0.06400299
140	0xbe8254bf	-0.2545528
141	0x3edf0960	0.4356184
142	0x3f6717d1	0.90270716
143	0x3de4af7d	0.11166284
144	0x3e270cb3	0.16313438
145	0xbe44613e	-0.1917772
146	0x3e208997	0.15677486
147	0xbd933a26	-0.07188825
148	0xbde3b4c6	-0.11118464
149	0xbddf8643	-0.1091428
150	0xbd570f21	-0.052504662
151	0xb9b02036	-0.00033593335
152	0xbb494a3e	-0.0030714418
153	0xbe5f0ad8	-0.2178148
154	0xbf490543	-0.78523654
155	0x3f22cc99	0.6359344
156	0x3e3b68d4	0.18301708
157	0x3d50b400	0.05095291
158	0xbba9482b	-0.005166074
159	0x3cf936fc	0.030421726
160	0xbdf47322	-0.11936022
161	0x3d8e52b3	0.069493674
162	0xbdcc6116	-0.09979455
163	0xbd624eef	-0.05525106
164	0xbe8512c1	-0.2599087
165	0x3c5d5b15	0.013510485
166	0x3d7f7c81	0.062374596
167	0x3e46b636	0.19405445
168	0x3e2f6fdf	0.17132519
169	0xbd4e8277	-0.05041739
170	0x3ed4e4be	0.41580766
171	0x3e329493	0.17439489
172	0x3c802bed	0.015645945
173	0x39e5059f	0.00043682472
174	0xbda0a797	-0.07844465
175	0x3d5a19c6	0.053247236
176	0x3ee83cb3	0.4535881
177	0x3d9a607d	0.07537935
178	0x3ed0ff70	0.40819883
179	0x3ef08c91	0.46982244
180	0x3d847a48	0.06468636
181	0x3e816ed0	0.25279856
182	0x3d983c4b	0.07433375
183	0x3dfb5925	0.12272862
184	0xbd7a9c1a	-0.061184026
185	0x3d66d70a	0.05635742
186	0xbe1ed02f	-0.15509103
187	0xbf02a5ae	-0.5103406
188	0x3e241c26	0.16026363
189	0xbf117ca8	-0.56830835
190	0xbe2553d7	-0.16145264
191	0x3d902cf7	0.07039826
192	0x3d3c47c2	0.04596687
193	0xbec30e9c	-0.38097084
194	0xbe1a31bb	-0.15058033
195	0x3dba3412	0.09091963
196	0xbe2deb62	-0.16984323
197	0xbed1e7d1	-0.40997174
198	0x3e444287	0.19166003
199	0x3da413db	0.080116
200	0x3c695923	0.014242443
201	0x3c27b0ec	0.010235053
202	0x3d7d8e02	0.061903007
203	0x3db53071	0.0884713
204	0x3bbca9a7	0.005757529
205	0xbef7824b	-0.48341593
206	0x3dbb604c	0.091492265
207	0x3be28744	0.0069130976
208	0xbd2e7b36	-0.04259797
209	0x3de7ded9	0.11321802
210	0x3e13ac17	0.14421116
211	0x3d88bca2	0.06676604
212	0xbec6adff	-0.38804623
213	0x3e0cbf94	0.13744956
214	0xbf098557	-0.53719085
215	0x3f10599f	0.5638675
216	0xbca6f1be	-0.020378944
217	0x3dab6128	0.083681405
218	0xbc20853e	-0.009797392
219	0xbd97e3d7	-0.07416504
220	0x3d485943	0.04891325
221	0xbe7e30d8	-0.2482332
222	0x3f0e94d1	0.55695826
223	0xbe87f0d9	-0.2655094
224	0xbd339b5d	-0.043849338
225	0xbcdb2fa4	-0.026756115
226	0xbe39773b	-0.18111889
227	0xbea6b535	-0.32560125
228	0xbedd96dc	-0.4327916
229	0x3e469b1b	0.19395106
230	0xbd91eb77	-0.071249895
231	0xbd85e64d	-0.06538067
232	0x3d0a6cc8	0.033795148
233	0x3c3031b9	0.010754042
234	0xbd8984ae	-0.0671476
235	0x3d6634ab	0.05620257
236	0x3d448da2	0.047986634
237	0xbd840b84	-0.06447509
238	0xbe2d5ac4	-0.16929156
239	0xbe7e5436	-0.24836811
240	0x3e7e714d	0.24847908
241	0xbab98898	-0.0014155088
242	0xbde929dc	-0.11384937
243	0xbe065621	-0.13118793
244	0x3e554a5d	0.20829149
245	0xbef6db56	-0.48214215
246	0x3e3f7872	0.1869829
247	0xbebc1cd8	-0.36740756
248	0xbe5c89bd	-0.21536918
249	0xbd4eef7d	-0.050521363
250	0xba63b741	-0.000868667
251	0xbdb4c0fb	-0.088258706
252	0x3d87763a	0.06614347
253	0xbe4ebe9f	-0.20189904
254	0x3d05dc49	0.032680783
255	0xbe6005bf	-0.21877192

affine_layers.0.bias f4 [64]
0	0x3e40169f	0.1875863
1	0xbf33c4d9	-0.7022224
2	0x3dcab898	0.0989849
3	0xbf33cc33	-0.7023346
4	0x3f3d8f33	0.7404663
5	0xbf3742ba	-0.7158619
6	0x3d457143	0.048203718
7	0x3f2369a4	0.6383307
8	0x3e767bb1	0.24070622
9	0xbebc3a81	-0.36763385
10	0x3e1d23b6	0.15345654
11	0xbf7ea305	-0.994675
12	0x3e85bd31	0.26120904
13	0xbf8f5889	-1.1198894
14	0x3eeddb1d	0.46456233
15	0xbf18b848	-0.5965619
16	0xbf223b15	-0.633714
17	0x3dbe1367	0.092810445
18	0xbeeb3fca	-0.45947105
19	0x3f04fc18	0.51947165
20	0xbf90ff97	-1.1328
21	0xbe8e7f49	-0.27831486
22	0xbecd6d4c	-0.4012245
23	0xbeed8044	-0.4638692
24	0xbd93fc15	-0.07225815
25	0x3db00da2	0.0859635
26	0x3ed5c0b6	0.4174859
27	0xbe470983	-0.19437222
28	0x3dca35fa	0.098735765
29	0xbf1d83db	-0.6152932
30	0xbf55f426	-0.83575666
31	0x3e91edaf	0.2850165
32	0xbf12a73d	-0.57286435
33	0xbed97585	-0.42472473
34	0xbec4f970	-0.38471556
35	0x3f7ecd89	0.9953237
36	0xbf7d65f2	-0.9898368
37	0xbef36e4b	-0.47545084
38	0xbf888ff1	-1.0668927
39	0x3e5df9f3	0.2167738
40	0xbea3cbb9	-0.31991366
41	0x3ed42333	0.41433105
42	0x3f0a5832	0.54040825
43	0x3ee06b1a	0.43831712
44	0xbe99e678	-0.30058646
45	0x3eb9a575	0.36259046
46	0x3e51d0e9	0.20489849
47	0x3f0b0eab	0.54319257
48	0xbf034e8e	-0.5129174
49	0x3eebdd68	0.46067357
50	0xbbc5dbd8	-0.0060381703
51	0x3f0473c4	0.51739144
52	0xbf110bd5	-0.5665868
53	0xbf278db4	-0.65450597
54	0x3e2b28af	0.16714738
55	0xbf1b3797	-0.606317
56	0x3f25c2c3	0.6475031
57	0x3eda0904	0.42585003
58	0xbe6ddfcc	-0.23229903
59	0x3e4525d6	0.19252715
60	0x3f91ea92	1.139971
61	0x3f0c911e	0.5490893
62	0xbe52adc3	-0.20574097
63	0xbe809cea	-0.25119716

affine_layers.1.weight f4 [64, 64]
0	0xbe884e65	-0.2662231
1	0xbe0c6c2c	-0.1371314
2	0x3e87c3f0	0.26516676
3	0x3bb8481d	0.005623831
4	0x3e22fcaa	0.15916696
5	0xbeef046b	-0.46683058
6	0x3e5aa805	0.21353157
7	0x3b2bc844	0.0026211897
8	0x3deaa534	0.11457291
9	0x3dd66935	0.104692854
10	0xbe8309ed	-0.2559351
11	0xbe65070e	-0.22365972
12	0x3e09cc21	0.13456775
13	0xbec66bd8	-0.38754153
14	0x3f1a8b7f	0.60369104
15	0xbd5f5f8e	-0.054534487
16	0xbe4b307a	-0.19842711
17	0x3da1cd9e	0.079005465
18	0xbe1c4756	-0.15261588
19	0x3d91a00b	0.07110604
20	0x3e2514ee	0.16121265
21	0x3ec78edd	0.38976184
22	0xbe638792	-0.22219685
23	0x3e072ad4	0.13199931
24	0x3dcea0cd	0.10089264
25	0x3d20c4a7	0.039250042
26	0xbebdc13d	-0.37061492
27	0xbda8ee95	-0.08248631
28	0xbdcbc56d	-0.09949765
29	0x3dd6648f	0.10468399
30	0xbea27330	-0.31728506
31	0x3e93cb9c	0.2886628
32	0xbe04b670	-0.1296022
33	0x3dcadd5b	0.099055015
34	0xbef70511	-0.48246053
35	0x3de2333b	0.11044928
36	0x3e6f6ae1	0.23380615
37	0xbc5b872a	-0.013398925
38	0xbe18fdf1	-0.14940621
39	0xbeaab7b3	-0.33343276
40	0xbe37cea3	-0.1794992
41	0xbe0628a5	-0.13101442
42	0xbe602f58	-0.2189306
43	0xbded1dd7	-0.11577957
44	0x3d54db0a	0.051966704
45	0xbc8aa746	-0.016925465
46	0x3e144537	0.14479528
47	0xbdb4a08b	-0.08819684
48	0xbd9d0a45	-0.076679744
49	0x3ea0ec02	0.3143006
50	0x3e18497d	0.14871784
51	0xbe63e742	-0.22256187
52	0xbd300b90	-0.042979777
53	0x3d7d2652	0.061804123
54	0x3d4a5fd2	0.049407788
55	0xbf010434	-0.5039704
56	0x3e88bf79	0.26708582
57	0xbe6a1649	-0.22860064
58	0xbe17c89a	-0.14822617
59	0x3f17043d	0.5899084
60	0xbe868162	-0.26270586
61	0xbcf24f88	-0.02957894
62	0x3e8cbc6e	0.2748751
63	0x3ca6dd15	0.020369092
64	0x3e6a6820	0.22891283
65	0x3f0ed096	0.55787027
66	0xbd91bbc6	-0.07115893
67	0x3e0d06f5	0.13772185
68	0x3e8f5cd1	0.280005
69	0x3e5a98eb	0.21347396
70	0x3e003b76	0.12522683
71	0xbd4db905	-0.050225276
72	0x3ebb208f	0.36548278
73	0x3e24ebe6	0.16105613
74	0xbec9a32a	-0.39382297
75	0x3f333a7a	0.70011103
76	0xbe91416d	-0.28370228
77	0x3f5aaf26	0.85423505
78	0xbe5f9690	-0.21834779
79	0x3e843915	0.258248
80	0x3ea7c0a7	0.3276417
81	0xbdfb0ad5	-0.122579254
82	0xbd25fd17	-0.04052457
83	0xbe4aaa0c	-0.1979143
84	0xbc5da87a	-0.0135289375
85	0x3ecfb433	0.4056717
86	0x3e815c51	0.25265744
87	0x3de6d06e	0.112702236
88	0x3e4f9cb6	0.20274624
89	0x3e77f361	0.24213935
90	0xbea5e6a2	-0.3240252
91	0x3ee189aa	0.44050342
92	0xbe4867dd	-0.1957087
93	0x3ecff001	0.40612796
94	0x3ef0bc08	0.47018456
95	0x3e8354ea	0.25650722
96	0xbea5bc6a	-0.3237031
97	0xbd54bcab	-0.05193774
98	0x3d8b57cc	0.06803855
99	0xbefe501a	-0.49670488
100	0x3ea0ed3a	0.3143099
101	0x3e7ede05	0.24889381
102	0x3ef2bb51	0.47408536
103	0x3da15293	0.07877078
104	0x3e545631	0.20736004
105	0x3e90fac1	0.2831631
106	0x3ec2c3a8	0.380399
107	0x3e8a1b6b	0.26974043
108	0x3de8f967	0.11375695
109	0x3e8838dc	0.2660588
110	0xbe138978	-0.14407909
111	0x3e8f0c4b	0.27939066
112	0xbee85690	-0.45378542
113	0x3d945e35	0.07244531
114	0x3d18e8fe	0.037331574
115	0xbd9282b8	-0.07153839
116	0x3ee0d9ad	0.43916073
117	0xbd8af809	-0.0678559
118	0x3dfd7bc7	0.12377124
119	0x3e94b8bc	0.2904719
120	0xbe1d422b	-0.15357272
121	0x3e0ec607	0.13942729
122	0xbd355390	-0.044269145
123	0xbe3a3174	-0.18182927
124	0xbd4c3bdc	-0.049861774
125	0xbedc6bd6	-0.43051022
126	0x3ed977eb	0.42474303
127	0x3c37e9a9	0.0112251425
128	0x3e2dd03b	0.16973965
129	0xbeaa9bb0	-0.33321905
130	0xbea3ade3	-0.31968603
131	0x3cdfdc8a	0.02732684
132	0xbe473aef	-0.19456075
133	0xbea30442	-0.31839186
134	0xbe0a954f	-0.13533519
135	0xbda0f879	-0.078598924
136	0x3e2f667c	0.17128938
137	0x3ecf17e5	0.40447918
138	0x3e0402b0	0.1289165
139	0xbdbfca2e	-0.093647346
140	0x3e32551e	0.17415282
141	0xbf1148bd	-0.56751615
142	0x3e54bf65	0.20776136
143	0x3d527b63	0.051387202
144	0x3d1f0d9e	0.038831346
145	0x3e356a27	0.17716275
146	0xbe0f254a	-0.13979068
147	0x3e9a81e6	0.3017723
148	0x3df3a104	0.11895946
149	0x3d94e273	0.07269754
150	0xbe57ec73	-0.21086292
151	0xbf0cf477	-0.55060524
152	0x3d249db9	0.04018948
153	0xbe124a2a	-0.14286104
154	0xbd00da95	-0.031458456
155	0xbdc6a42c	-0.09699282
156	0xbe5c421f	-0.21509598
157	0xbda080f0	-0.07837093
158	0xbedcf7a1	-0.43157676
159	0xbe64fa60	-0.22361135
160	0x3dd36d5c	0.10323593
161	0x3e2d2360	0.16908026
162	0xbd801495	-0.06253926
163	0x3ede3720	0.43401432
164	0xbe3650eb	-0.17804305
165	0xbe4af4e1	-0.19819976
166	0x3d3d2b41	0.04618383
167	0xbdc03c48	-0.09386498
168	0xbd586a08	-0.052835494
169	0xbd0147a7	-0.031562474
170	0x3e9ea03b	0.3098162
171	0xbd5ae7ca	-0.053443708
172	0xbe8207f8	-0.25396705
173	0x3e80d85a	0.25165063
174	0xbd8ce377	-0.06879323
175	0x3dffc475	0.12488643
176	0xbebdbc13	-0.37057552
177	0x3e50027e	0.2031345
178	0x3ec230b8	0.37927794
179	0x3e121811	0.14266993
180	0x3d9c9e51	0.07647384
181	0xbe78f67a	-0.24312773
182	0x3e7ed9a8	0.24887717
183	0x3d959f3e	0.07305764
184	0x3e92f755	0.28704324
185	0x3c298f48	0.010349102
186	0xbd9556f7	-0.07291978
187	0x3e4a1c45	0.19737346
188	0x3e18b387	0.14912234
189	0x3e333554	0.17500812
190	0xbee22088	-0.44165444
191	0xbe355117	-0.17706715
192	0xbc92ccae	-0.017919865
193	0x3e68d190	0.22736192
194	0x3d683df0	0.056699693
195	0x3f03f14f	0.5154008
196	0x3db766a7	0.08955126
197	0x3e1323f6	0.14369187
198	0x3e806784	0.25078976
199	0xbe297d8b	-0.16551797
200	0x3d3d0cee	0.04615491
201	0x3ca105e3	0.019656127
202	0x3e2888e7	0.16458474
203	0xbde6788c	-0.11253461
204	0xbe416bf2	-0.18888834
205	0xbe7dd63b	-0.24788754
206	0xbcea7181	-0.028618576
207	0x3d7e649b	0.062107664
208	0x3e3b806d	0.1831071
209	0xbeb866ca	-0.36015922
210	0x3ea3a54d	0.31962052
211	0x3f00f429	0.5037256
212	0xbd9150fb	-0.07095524
213	0xbe7801a3	-0.24219374
214	0xbd20a3a8	-0.039218575
215	0x3e46169a	0.1934456
216	0x3e9e6574	0.30936778
217	0xbdac1247	-0.084019236
218	0x3f1efa82	0.62100995
219	0xbea69f2a	-0.32543308
220	0xbe149427	-0.1450964
221	0x3e461d04	0.19347006
222	0x3e3f6766	0.18691787
223	0xbd5d2429	-0.053989563
224	0x3e5b7090	0.21429658
225	0x3d274f0c	0.04084687
226	0xbe23a916	-0.1598247
227	0xbe42c890	-0.19021821
228	0xbdb795f3	-0.089641474
229	0x3da8fb16	0.08251016
230	0xbdeb7e5a	-0.11498709
231	0x3ebf4046	0.37353724
232	0x3e3dcfc0	0.18536282
233	0x3f356aa5	0.7086585
234	0xbe577645	-0.2104121
235	0x3e21b536	0.15791783
236	0xbdf1abfe	-0.11800383
237	0x3ef943a6	0.48684424
238	0x3e50e60a	0.20400253
239	0xbdfab7cf	-0.1224209
240	0x3e3c4dc0	0.18389034
241	0xbe1153b8	-0.14192092
242	0x3dd0673c	0.101759404
243	0x3e629e04	0.2213059
244	0xbe66bedf	-0.22533749
245	0xbcff93f9	-0.031198489
246	0x3dca5500	0.09879494
247	0xbe6b44ad	-0.22975416
248	0xbe13339c	-0.14375156
249	0xbd1c482f	-0.038154777
250	0x3dd7af48	0.10531479
251	0x3eba02df	0.36330315
252	0x3e1c5cbe	0.15269753
253	0x3cc20edc	0.023688726
254	0x3dbe38e1	0.092881925
255	0xbf0636f9	-0.5242763

affine_layers.1.bias f4 [64]
0	0x3e6068b0	0.21914935
1	0xbeb02cc1	-0.34409145
2	0xbdac005e	-0.083985075
3	0xbe786cb2	-0.24260214
4	0xbd9909ea	-0.07472594
5	0x3e58fffa	0.21191397
6	0xbe974b33	-0.2954956
7	0xbe019482	-0.12654307
8	0x3e1edd1f	0.15514039
9	0xbdbb53a6	-0.09146814
10	0xbd1a4c9c	-0.037670717
11	0xbd9f7a53	-0.07787003
12	0x3c076a99	0.008265161
13	0xbed7087c	-0.4199866
14	0x3e3ea743	0.18618493
15	0x3e391959	0.18076076
16	0xbc4d0084	-0.01251233
17	0xbd465575	-0.048421342
18	0xbe34410b	-0.17602937
19	0x3e340d01	0.17583086
20	0x3ed1219a	0.40845948
21	0xbd884298	-0.06653327
22	0x3e4ba0c5	0.19885547
23	0xbe01c1d9	-0.12671603
24	0xbe9dbbdf	-0.30807397
25	0x3e546986	0.20743379
26	0xbed936ba	-0.42424566
27	0x3e1dbe9e	0.15404746
28	0x3df32d7d	0.118739106
29	0x3e52daa6	0.2059122
30	0xbebc6424	-0.3679515
31	0x3d2f4bab	0.042796772
32	0xbc6168c4	-0.013757888
33	0xbe39772f	-0.18111871
34	0xbd9dedf6	-0.07711403
35	0xbe537967	-0.2065178
36	0xbecd8eba	-0.40147954
37	0xbec19adb	-0.37813458
38	0x3e67d8c6	0.22641286
39	0xbe0de51f	-0.13856934
40	0xbe156470	-0.14589095
41	0xbe0fd760	-0.14047003
42	0x3e084b37	0.13309942
43	0x3e31c87f	0.1736164
44	0xbe304efb	-0.17217629
45	0xbd8715d1	-0.06595958
46	0x3e3e603c	0.18591398
47	0xbe9e3063	-0.3089629
48	0x3e996cde	0.29965872
49	0x3a6ea19c	0.0009103061
50	0x3d2029c7	0.039102342
51	0xbe995b99	-0.29952696
52	0x3d52afbc	0.051437125
53	0xbe1c8a08	-0.1528703
54	0x3c8d0ec9	0.017218964
55	0xbe80e765	-0.2517654
56	0xbea96ae8	-0.33089375
57	0xbc87c252	-0.016572151
58	0xbe1ebf95	-0.1550277
59	0x3cc46e99	0.023978518
60	0x3e9fd332	0.31215817
61	0xbdbf0236	-0.093265936
62	0xbf1fdb8c	-0.62444377
63	0x3ea73911	0.32660726

final.weight f4 [1, 64]
0	0x3e09e7ab	0.1346728
1	0xbe19c35b	-0.15015928
2	0xbdcf7d5e	-0.10131334
3	0xbd532b48	-0.051554948
4	0xbddc2908	-0.107500136
5	0x3e1c85bb	0.15285389
6	0xbd2a4ae5	-0.04157533
7	0xbe6e5e86	-0.23278245
8	0x3d811dd1	0.06304515
9	0xbdb9121a	-0.09036656
10	0xbe44e352	-0.19227341
11	0xbe525fa3	-0.20544295
12	0x3ddf691a	0.109087184
13	0xbe70d506	-0.23518762
14	0x3d8748cf	0.06605684
15	0x3d037e68	0.032102972
16	0x3e026670	0.1273439
17	0x3d897bc7	0.06713062
18	0xbe08d888	-0.1336385
19	0x3dfafd7d	0.1225538
20	0x3cd4376c	0.025905333
21	0x3e5c1820	0.21493578
22	0x3ed2bee1	0.41161254
23	0x3d833afa	0.06407733
24	0xbe5dfae9	-0.21677746
25	0x3da48524	0.08033207
26	0xbdfcb05f	-0.123383276
27	0x3e1857eb	0.14877288
28	0x3dadec1b	0.08492299
29	0x3db703fd	0.089363076
30	0xbdf3187f	-0.11869907
31	0x3dda62b0	0.106633544
32	0x3da56bda	0.08077212
33	0x3daf8f87	0.085722975
34	0xbd5eff57	-0.05444273
35	0xbe48215b	-0.19543974
36	0xbe0bdb3b	-0.13657849
37	0xbe8ac643	-0.27104387
38	0x3db3bd23	0.08776309
39	0x3d643b65	0.055720706
40	0x3df9086e	0.12159811
41	0xbd83b7ca	-0.06431539
42	0x3d2f4493	0.042790007
43	0x3e071f02	0.13195422
44	0xbdb15d35	-0.08660356
45	0xbd05b0a5	-0.032639164
46	0x3da086e6	0.0783823
47	0xbd83296a	-0.064043835
48	0x3de9dff5	0.114196695
49	0xbdd09ea5	-0.10186509
50	0x3d978cb2	0.073998824
51	0xbda4f302	-0.080541626
52	0x3d44b816	0.04802712
53	0x3ddfccfc	0.109277695
54	0xbe522b21	-0.20524265
55	0xbd7d04cc	-0.061772153
56	0xbd34234f	-0.043978985
57	0x3d964e78	0.073391855
58	0xbdbee1af	-0.093203895
59	0x3e216062	0.15759423
60	0x3ebb9fe8	0.36645436
61	0xbd045600	-0.03230858
62	0xbe849049	-0.2589133
63	0x3e158cfa	0.1460456

log_stdev f4 [6]
0	0xbf126bbd	-0.57195646
1	0xbdacd19c	-0.08438417
2	0xbf255b82	-0.64592755
3	0xbd156b3d	-0.036479224
4	0xbf049bb5	-0.5180009
5	0xbf3d9a8f	-0.7406396

affine_layers.0.weight f4 [64, 17]
0	0xbde62168	-0.112368405
1	0x3d85cea2	0.06533553
2	0x3d8d1cfb	0.06890293
3	0xbd335fef	-0.04379266
4	0x3d2fcb0b	0.042918246
5	0x3d54e316	0.05197438
6	0x3e33c698	0.17556226
7	0x3dbce674	0.09223643
8	0x3eae1049	0.339968
9	0x3e4b1b79	0.19834699
10	0x3db5e4d1	0.08881534
11	0x3db73785	0.089461364
12	0x3ced2f5b	0.028953245
13	0xbdf75c4a	-0.120781496
14	0xbd8dcbad	-0.06923614
15	0xbd36d4d2	-0.044636555
16	0xbe0be8e2	-0.13663056
17	0xbdc77fbc	-0.0974116
18	0xbd221cc6	-0.03957822
19	0xbd80db84	-0.06291869
20	0x3d7a7eba	0.061156012
21	0xbd008d6e	-0.031384878
22	0x3d487253	0.048937153
23	0x3d6d3990	0.057916224
24	0xbbc82972	-0.0061084563
25	0xbcf214ba	-0.029550899
26	0x3c6c394b	0.014417957
27	0x3d864601	0.06556321
28	0xbd0182d7	-0.03161892
29	0xbd52fbed	-0.051509786
30	0x3d907432	0.070534125
31	0xbcf7812f	-0.030212967
32	0xbd266de3	-0.04063214
33	0x3cac9462	0.021066848
34	0xbac8cc39	-0.0015319652
35	0x3c3106dd	0.010804859
36	0xbe58527a	-0.21125212
37	0xbd07b5ca	-0.033132352
38	0xbd5dab7b	-0.054118615
39	0xbc7f1826	-0.015569722
40	0x3f02e62f	0.5113248
41	0x3da66289	0.08124263
42	0xbd89e482	-0.067330375
43	0x3d64b11e	0.055832975
44	0x3dff43f7	0.12464135
45	0x3dc4a077	0.09600919
46	0xbb1661b9	-0.002294643
47	0x3d9b99cf	0.07597696
48	0xbc980a6a	-0.018559653
49	0xbe1fb08c	-0.15594691
50	0xbd8116ec	-0.063032
51	0xbbde7f4d	-0.006790078
52	0xbd08404d	-0.033264447
53	0x3d32c339	0.04364321
54	0x3ab94b30	0.0014136788
55	0xbd1bc34d	-0.03802805
56	0xbc8a2f27	-0.016868187
57	0x3da739cc	0.08165321
58	0x3d6fdfad	0.058562923
59	0x3a96d6f6	0.0011508155
60	0xbbce2828	-0.006291408
61	0xbc1be54d	-0.009515119
62	0x3cdb496e	0.026768412
63	0x3bcc3494	0.0062318537
64	0xbd1e73ed	-0.038684774
65	0xbc856c75	-0.016287068
66	0x3c32cb32	0.010912703
67	0x3d86dbbc	0.0658488
68	0xbdd45230	-0.103672385
69	0xbe8b54f2	-0.27213246
70	0xbe509ffe	-0.20373532
71	0x3caadd16	0.020857375
72	0x3e125b70	0.14292693
73	0x3d458b2e	0.048228435
74	0x3dbebd1c	0.093134135
75	0x3dd74692	0.10511507
76	0xbe86d79a	-0.26336366
77	0x3e13166b	0.1436402
78	0x3d01f147	0.03172424
79	0xbd122398	-0.035678476
80	0xbd99dcc1	-0.075128086
81	0x3d9a4b06	0.07533841
82	0x3d322e8f	0.043501433
83	0x3d61e4a5	0.055149693
84	0xbd713a2c	-0.058893368
85	0x3db70d5d	0.08938096
86	0x3e7e1136	0.24811253
87	0x3dcd06df	0.10011076
88	0xbce344c5	-0.027742753
89	0x3d82739c	0.06369707
90	0xbd56ac38	-0.052410334
91	0xbd70c7b2	-0.058784194
92	0xbea4fade	-0.32222646
93	0xbd2e15ca	-0.04250125
94	0xbe56aae0	-0.20963621
95	0xbd7c5e4e	-0.061613373
96	0xbd8af42e	-0.06784855
97	0x3d54e8bf	0.051979776
98	0x3c915796	0.01774196
99	0xbbd150cf	-0.006387807
100	0xbe124f31	-0.14288022
101	0xbc65e4f5	-0.014031638
102	0xbd3c4307	-0.04596236
103	0xbe4b2874	-0.1983965
104	0x3c8135d4	0.015772738
105	0xbcb5a2cb	-0.022172352
106	0x3c82128c	0.015877984
107	0x3d1a07ca	0.037605084
108	0xbe07b56f	-0.13252805
109	0x3eb981b5	0.3623177
110	0xbe8f8ce3	-0.28037176
111	0xbdc0e969	-0.094195195
112	0xbc188321	-0.009308607
113	0xbeb11958	-0.34589648
114	0xbb4bb927	-0.0031085701
115	0xbdeafd10	-0.11474049
116	0xbcbd396d	-0.023098672
117	0x3e149065	0.14508207
118	0x3e1cc18e	0.1530821
119	0x3c90559c	0.017618947
120	0xbd5683f3	-0.05237193
121	0xbe05ea96	-0.13077769
122	0x3d114e55	0.035475094
123	0xbd9a128a	-0.07523067
124	0x3e005938	0.12534034
125	0x3eac0a54	0.3360163
126	0x3b8b083c	0.004242925
127	0xbd2efe72	-0.042723127
128	0x3dd9284a	0.10603388
129	0x3d8a50c1	0.06753684
130	0x3c5c43ff	0.013443946
131	0xbc198e4c	-0.009372305
132	0x3c91d7ea	0.017803151
133	0x3d2375ae	0.03990715
134	0xbc30c157	-0.010788283
135	0xbdd78f03	-0.10525324
136	0xbd823602	-0.063579574
137	0xbd8292a2	-0.06375624
138	0x3dffda3a	0.12492795
139	0xbb63683d	-0.0034699582
140	0xbc8c25de	-0.0171079
141	0xbbed9cfe	-0.007251381
142	0x3ca8c262	0.020600501
143	0xbd92f715	-0.071760334
144	0xbdefd5c2	-0.11710693
145	0xbde12241	-0.109928615
146	0xbd9c7bd9	-0.076408096
147	0xbd8f001f	-0.06982445
148	0xbdc3d0ef	-0.09561335
149	0x3db629c8	0.08894688
150	0xbda36f66	-0.07980232
151	0xbd86beae	-0.06579338
152	0x3d44dded	0.048063207
153	0xbc6c170e	-0.014409794
154	0x3e520e9a	0.20513383
155	0x3e5a5043	0.2131968
156	0x3c53b4ba	0.012921507
157	0x3cf9bd14	0.030485667
158	0x3d1916b6	0.037375174
159	0x3c89a92b	0.016804298
160	0x3d18cf5f	0.03730714
161	0xbe42118b	-0.18952005
162	0x3dc829ea	0.097736195
163	0x3d19f6ae	0.037588768
164	0xbe21dfc3	-0.15808015
165	0x3accbf65	0.0015621005
166	0xbdf9cfb6	-0.12197821
167	0x3b5554ae	0.0032551694
168	0xbbb4e8e9	-0.005520929
169	0xbd5159a0	-0.051110864
170	0xbb504efd	-0.0031785362
171	0xbc73d99f	-0.014883428
172	0xbc84dc1d	-0.01621824
173	0xbbc13b51	-0.0058969636
174	0x3dcf4add	0.10121701
175	0x3d516b87	0.051127937
176	0x3b83e625	0.004025238
177	0x3d0d0d32	0.034436412
178	0xbca2069a	-0.019778538
179	0x3d9deeca	0.07711561
180	0xbdfb2465	-0.12262801
181	0x3e046008	0.12927258
182	0xbd19053a	-0.0373585
183	0x3d9302b9	0.07178254
184	0x3e19d7d2	0.15023735
185	0x3c841941	0.016125323
186	0x3dd5f93e	0.1044793
187	0xbe9380d3	-0.28809223
188	0x3d55b6a8	0.052176148
189	0xbddd06f1	-0.107923396
190	0xb9a28a27	-0.0003100198
191	0x3e0738c8	0.13205254
192	0xbda57a84	-0.080800086
193	0xbde787a7	-0.113051705
194	0x3da66e51	0.0812651
195	0x3dc585c8	0.096446574
196	0x3e50745e	0.2035689
197	0x3dcc30a1	0.09970213
198	0x3d68ed1d	0.056866754
199	0x3d6613a5	0.05617108
200	0xbe1459a5	-0.14487322
201	0x3d915b5f	0.07097506
202	0x3c2bd4ce	0.010487748
203	0xbe057c0e	-0.13035604
204	0xbcfc1f57	-0.030776663
205	0x3e026414	0.1273349
206	0xbc7ec030	-0.015548751
207	0xbd3ea856	-0.046547256
208	0x3d2c69a1	0.042092923
209	0x3d91152e	0.07084118
210	0x3bb9276c	0.0056504514
211	0x3e02aea8	0.12761939
212	0xbc9dfba0	-0.019285023
213	0xbd0422da	-0.0322598
214	0xbd62608d	-0.05526786
215	0xbddc6d1d	-0.10762999
216	0x3b7f44ce	0.0038950923
217	0xbda35077	-0.07974332
218	0x3d105d26	0.035245083
219	0xbd3c31e2	-0.04594601
220	0xbd8b841d	-0.06812308
221	0x3df4b609	0.11948783
222	0x3de16977	0.11006444
223	0xbdf13f4d	-0.11779652
224	0x3c17b746	0.009260004
225	0xbcc7894d	-0.024357462
226	0xbdb9dc11	-0.090751775
227	0xbeca646e	-0.39529747
228	0xbcaccb8d	-0.021093154
229	0x3e1e75d6	0.15474638
230	0x3ed51c5a	0.41623193
231	0xbd981aa7	-0.074269585
232	0x3dd71d47	0.10503631
233	0x3d51802c	0.051147625
234	0x3c20d376	0.009816041
235	0xbdaff4d6	-0.085916206
236	0x3bb1110e	0.0054036444
237	0x3da8c742	0.082411304
238	0xbe476105	-0.19470604
239	0x3c8a419a	0.016876984
240	0xbdc064f0	-0.09394252
241	0xbcd2e32d	-0.025743091
242	0xbd41aaf2	-0.047282167
243	0x3d103646	0.03520801
244	0x3d017054	0.031601265
245	0x3e94f33e	0.2909183
246	0xbe731653	-0.23738985
247	0xbdfae2ee	-0.12250315
248	0x3e8f03b6	0.2793252
249	0x3dbc1850	0.09184325
250	0x3d4e9234	0.0504324
251	0x3e92964d	0.28630295
252	0x3ceda315	0.029008428
253	0x3dabeace	0.08394395
254	0xbd1561c5	-0.036470193
255	0x3d55ff4c	0.052245423

affine_layers.0.bias f4 [64]
0	0x3f57ee64	0.8434813
1	0xbe046677	-0.12929712
2	0x3f29518b	0.6614005
3	0x3e506006	0.2034913
4	0x3db0558b	0.08610066
5	0xbeaee181	-0.3415642
6	0x3e0357e2	0.12826493
7	0x3f0d45f5	0.5518487
8	0x3ec49e36	0.38401955
9	0xbd03357f	-0.03203344
10	0x3f2099be	0.6273459
11	0xbed6a0a3	-0.4191943
12	0x3eca2725	0.3948299
13	0x3e18328d	0.14863034
14	0xbd4ed44d	-0.050495435
15	0xbe2e0cf7	-0.16997133
16	0xbd68f835	-0.056877334
17	0xbd0e700f	-0.034774836
18	0x3e6e7f8f	0.23290847
19	0xbf064049	-0.5244184
20	0xbe7c6483	-0.24647717
21	0x3e2fd213	0.1716998
22	0x3e3a281c	0.18179363
23	0x3ed726ff	0.4202194
24	0xbe4183a0	-0.18897867
25	0x3ec554a0	0.38541126
26	0xbe455804	-0.19271857
27	0x3eef08e3	0.46686468
28	0xbf3311a6	-0.69948804
29	0xbf0aeaae	-0.5426434
30	0x3ee450be	0.4459285
31	0x3e34ca4e	0.17655298
32	0xbd939882	-0.07206823
33	0xbf12986e	-0.5726384
34	0x3f12907e	0.5725173
35	0xbe3da2d7	-0.1851915
36	0x3e5b27c5	0.2140189
37	0x3e22660f	0.15859245
38	0xbe919136	-0.284311
39	0xbe331b96	-0.17490992
40	0x3da1e833	0.079056166
41	0xbd88b5f3	-0.06675329
42	0xbd640b5d	-0.0556749
43	0x3e793b9c	0.24339145
44	0xbf1a4209	-0.6025701
45	0x3dc060f7	0.093934946
46	0x3eda7221	0.42665198
47	0x3e849d53	0.2590128
48	0x3dd993ed	0.10623918
49	0xbe7953d1	-0.2434838
50	0x3ef077da	0.4696644
51	0x3e9b6239	0.30348375
52	0xbec01746	-0.37517756
53	0x3ec0d933	0.3766571
54	0xbda989ff	-0.08278274
55	0x3ebfd6e4	0.37468636
56	0xbf1c5d96	-0.610803
57	0x3f2e9220	0.6819172
58	0x3f1b4ead	0.60666925
59	0xbe1a1a64	-0.1504913
60	0xbeb2727f	-0.3485298
61	0x3f3ad7e6	0.72985685
62	0xbd34235c	-0.043979034
63	0xbecb1a0d	-0.39668313

affine_layers.1.weight f4 [64, 64]
0	0xbe948c8a	-0.29013473
1	0xbcbae29f	-0.02281314
2	0x3dad565a	0.08463736
3	0xbe522c85	-0.20524795
4	0xbe67a8b7	-0.22622953
5	0xbdccece1	-0.100061186
6	0x3e748136	0.23877415
7	0xbb93dd81	-0.0045124893
8	0xbc98ecf3	-0.018667674
9	0x3d913858	0.07090825
10	0xbd2099e3	-0.039209258
11	0xbde86fe1	-0.11349464
12	0x3de53fa5	0.1119378
13	0x3e3ab65e	0.1823363
14	0x3dffc0df	0.12487959
15	0xbe6e4711	-0.23269297
16	0xbcb5c927	-0.022190643
17	0xbc5ed886	-0.013601428
18	0x3e04e4ed	0.12977953
19	0x3eb29ea2	0.34886652
20	0x3e22da9a	0.15903702
21	0x3e03f91d	0.12887998
22	0x3db05d4f	0.08611547
23	0x3ea7b78d	0.32757226
24	0x3c0e5744	0.008687798
25	0x3d123162	0.035691626
26	0xbe2387c8	-0.15969765
27	0x3ead0a3f	0.3379688
28	0xbe51c134	-0.20483857
29	0x3c192722	0.009347709
30	0x3eb53820	0.35394382
31	0x3e26fbec	0.16307038
32	0x3d9aa89a	0.075516894
33	0xbd165ac1	-0.036707643
34	0x3dd73027	0.10507231
35	0xbe459328	-0.19294417
36	0x3d5eb97a	0.054376103
37	0xbd833713	-0.06406989
38	0xbdc7aaf6	-0.09749405
39	0x3e2caadb	0.16862051
40	0xbdc12856	-0.094315216
41	0x3d3f1649	0.046652112
42	0xbe0cf58f	-0.13765548
43	0xbdfc8610	-0.12330258
44	0xbd7283b1	-0.059207622
45	0xbd3573de	-0.044299953
46	0x3c4457e3	0.011983844
47	0x3e5db3e6	0.21650657
48	0xbdec77f9	-0.115463205
49	0x3e4e1396	0.20124659
50	0x3dd627f0	0.10456836
51	0x3e129569	0.14314808
52	0x3f01a250	0.50638294
53	0x3e4e40f5	0.20141967
54	0xbcded9da	-0.02720349
55	0xbe7a8844	-0.24466044
56	0x3df79e0b	0.12090691
57	0x3ef7395b	0.48285946
58	0x3dc84fcc	0.09780845
59	0xbd24e59d	-0.04025804
60	0xbd0a3231	-0.033739273
61	0x3d7a4530	0.06110114
62	0x3ef81c5c	0.48459136
63	0xbd6ec71e	-0.05829536
64	0x3caa2224	0.020768233
65	0x3e6b592d	0.22983237
66	0x3cdf8003	0.02728272
67	0xbe794855	-0.24343999
68	0x3c1a2996	0.009409329
69	0x3e189135	0.14899142
70	0x3ca0ee48	0.019644871
71	0x3d8f9017	0.07009905
72	0xbdcbceb9	-0.099515386
73	0xbd4a1434	-0.049335673
74	0xbe65f4c9	-0.2245666
75	0xbe480965	-0.19534834
76	0x3dbb6859	0.09150762
77	0x3e136fea	0.1439816
78	0xbe1d6dc5	-0.15373905
79	0xbe56e560	-0.20985937
80	0x3d5296ee	0.05141347
81	0xbe969d80	-0.29417038
82	0x3da4c79d	0.08045886
83	0xbd840eb1	-0.06448115
84	0xbdee9d10	-0.11651051
85	0xbda80957	-0.082049064
86	0x3e004e50	0.12529874
87	0xbea0b65c	-0.3138913
88	0x3cf77507	0.03020717
89	0xbd9803d9	-0.07422609
90	0x3ddfe9c9	0.10933263
91	0x3da60cec	0.081079334
92	0xbd5d30e4	-0.054001704
93	0x3d97d14a	0.074129656
94	0x3ccb8bd4	0.024846949
95	0xbe3658fb	-0.17807381
96	0xbe6fc6a5	-0.2341562
97	0xbde80383	-0.11328795
98	0xbc900c3e	-0.017583963
99	0xbc8e12e0	-0.017342985
100	0x3e32d863	0.17465357
101	0xbe2c4584	-0.16823393
102	0x3e0109d4	0.12601405
103	0x3e8fe3ea	0.28103572
104	0x3ddba9f3	0.107257746
105	0x3e20b0a1	0.15692379
106	0xbda1b49e	-0.07895778
107	0x3db641fc	0.08899304
108	0xbd49f08c	-0.04930167
109	0x3ce83c17	0.028348966
110	0x3cabea9b	0.020985892
111	0x3de420b9	0.11139054
112	0x3ce22274	0.02760432
113	0x3d75fc71	0.0600552
114	0x3eae7caa	0.34079486
115	0x3d30acd8	0.043133587
116	0xbd960085	-0.07324318
117	0x3dd26f46	0.1027513
118	0x3dd7557d	0.105143525
119	0x3de185d5	0.110118546
120	0x3e67a5fd	0.22621913
121	0x3e665a8c	0.22495478
122	0x3d8c50ef	0.06851374
123	0x3e569558	0.20955408
124	0x3ddc2780	0.107497215
125	0xbd22258c	-0.03958659
126	0x3e0d9f15	0.13830216
127	0x3c34f026	0.011043584
128	0xbda2b3d5	-0.079444565
129	0xbd1bdd22	-0.038052686
130	0x3e583048	0.21112168
131	0xbe1b6a8e	-0.15177366
132	0x3d59c8a2	0.053169854
133	0x3e2c5058	0.16827524
134	0x3e12df3a	0.14342967
135	0xbe140453	-0.14454775
136	0xbe338606	-0.17531595
137	0x3d0c5de3	0.034269225
138	0x3e379799	0.17928924
139	0xbe71c385	-0.23609741
140	0x3e94f6ab	0.29094443
141	0x3e7a81c0	0.24463558
142	0x3ecf92af	0.40541598
143	0x3e2d7f6a	0.16943136
144	0xbe3a78e3	-0.18210177
145	0x3e1bd18e	0.15216658
146	0x3e1230b1	0.14276387
147	0xbec2f811	-0.38079885
148	0xbc369cad	-0.011145753
149	0x3e0bc034	0.13647538
150	0xbdc7e161	-0.097597845
151	0xbdf602e0	-0.12012267
152	0xbce0c418	-0.027437255
153	0x3de4dc56	0.11174838
154	0xbca48a7b	-0.020085564
155	0x3e840294	0.25783217
156	0xbdb075ae	-0.086161956
157	0x3d2e4655	0.042547543
158	0xbd1cc399	-0.038272474
159	0xbde23a6a	-0.11046298
160	0x3c326d2f	0.010890289
161	0xbe684ceb	-0.22685592
162	0xbb783dd9	-0.003787866
163	0x3e056867	0.13028108
164	0x3d0d0060	0.034424186
165	0x3e7f15b9	0.2491063
166	0xbe5c9ad3	-0.21543436
167	0xbeb61589	-0.35563305
168	0xbda784ef	-0.08179652
169	0xba5ba2d1	-0.00083784485
170	0xbcce1ee5	-0.025161216
171	0xbd73ab14	-0.059489325
172	0x3e6af559	0.22945155
173	0x3d03d096	0.032181345
174	0x3e804d0a	0.25058776
175	0x3ea7c7ff	0.32769772
176	0x3e852f3c	0.260126
177	0x3dd4cf94	0.10391155
178	0x3f03b6fb	0.5145108
179	0x3ec7d800	0.39031982
180	0xbe0b161d	-0.13582654
181	0xbe981f2e	-0.29711288
182	0xbc02e7fa	-0.007989878
183	0x3d61c136	0.0551159
184	0xbdb1a024	-0.086731225
185	0x3d7bf9e8	0.061517626
186	0xbec4a958	-0.3841045
187	0xbd764c17	-0.06013116
188	0x3e1c414a	0.15259281
189	0xbe5aaf15	-0.21355851
190	0x3e33a21d	0.1754231
191	0xbdce42e4	-0.10071352
192	0xbed68b0a	-0.41902953
193	0x3dfb00d2	0.12256016
194	0xbde79283	-0.11307242
195	0x3e4724f8	0.19447696
196	0x3dd9bb2f	0.106314056
197	0xbc40d83a	-0.011770302
198	0xbd5f6110	-0.054535925
199	0x3dc519e4	0.09624079
200	0xbba126d2	-0.004917958
201	0xbe4b3a85	-0.19846542
202	0xbd2042c5	-0.039126176
203	0x3bf2a99b	0.0074054725
204	0x3cf76b88	0.030202642
205	0x3d4f2e4f	0.050581273
206	0x3bd870d3	0.0066052466
207	0xbe63f095	-0.22259744
208	0xbdd43ffa	-0.10363765
209	0x3da99d70	0.08281982
210	0x3dbe0184	0.09277633
211	0x3e87afbb	0.2650126
212	0x3daca9bc	0.08430812
213	0xbdad3486	-0.08457284
214	0xbe227d50	-0.15868115
215	0x3de22581	0.110423096
216	0x3d159fb7	0.03652927
217	0x3e25f0f5	0.16205199
218	0x3d2f074e	0.042731576
219	0xbf088333	-0.53325194
220	0x3e27b14f	0.16376232
221	0x3c4814e3	0.012212011
222	0x3d4a5048	0.04939297
223	0xbd9ad7b8	-0.07560676
224	0x3e1bf699	0.15230788
225	0x3da659cd	0.08122597
226	0x3e26dbcc	0.16294783
227	0xbd06c3c0	-0.032901525
228	0x3d0f26f6	0.034949265
229	0x3bf162ef	0.00736653
230	0x3e7cf6f6	0.24703583
231	0x3e2132d4	0.15742046
232	0xbdd69bd8	-0.104789436
233	0xbd8b0b8d	-0.067893125
234	0xbe36d01e	-0.17852828
235	0xbd90b691	-0.07066072
236	0xbc93b7ff	-0.018032072
237	0x3e01465c	0.12624496
238	0xbe6512a2	-0.22370389
239	0x3d2a0acb	0.0415142
240	0x3e2fd7b0	0.17172122
241	0x3c67a8d0	0.014139369
242	0xba22317d	-0.0006187184
243	0xbe9d4c78	-0.30722404
244	0xbad2b338	-0.001607514
245	0x3d237a32	0.039911456
246	0x3e861b08	0.26192498
247	0xbe97fb8d	-0.29684106
248	0xbc758f64	-0.0149878
249	0x3e21eb59	0.15812434
250	0xbc452a15	-0.012033959
251	0xbe779b6c	-0.24180382
252	0xbe1ccb1b	-0.15311854
253	0x3d1acd44	0.037793413
254	0xbd5a0cca	-0.053234853
255	0x3d77c943	0.060494673

affine_layers.1.bias f4 [64]
0	0x3e6bbcaf	0.23021196
1	0xbe1985ab	-0.14992397
2	0x3df5d674	0.12003794
3	0xbe3fc48b	-0.18727319
4	0xbe2c130f	-0.16804145
5	0xbd535293	-0.05159242
6	0xbe7efad3	-0.2490037
7	0xbe5056b2	-0.20345572
8	0xbead5494	-0.3385359
9	0x3e1a70ac	0.15082043
10	0xbeb4da2e	-0.35322708
11	0x3e83feb7	0.2578027
12	0x3e98d343	0.2984868
13	0xbe41b998	-0.18918455
14	0x3de4869a	0.11158486
15	0xbeb455c7	-0.35221693
16	0x3d03a256	0.032137237
17	0x3eb5c1f9	0.35499552
18	0xbe265521	-0.16243412
19	0x3eb13f5a	0.34618646
20	0xbd1216d1	-0.03566629
21	0x3ebbc657	0.3667476
22	0xbcd20db1	-0.025641294
23	0x3ebaea87	0.36507055
24	0x3e22de9a	0.15905228
25	0x3e8d9abe	0.2765712
26	0xbef654aa	-0.4811147
27	0x3e9036ea	0.28166896
28	0xbd90f00b	-0.070770346
29	0xbe6b4b80	-0.2297802
30	0xbe35e3b4	-0.17762643
31	0xbe9e6b8b	-0.30941424
32	0xbec2b454	-0.38028204
33	0xbebfc83d	-0.37457457
34	0xbd192eb1	-0.037398044
35	0x3de84f71	0.11343277
36	0xbdcd8331	-0.100347884
37	0xbd897ce8	-0.06713277
38	0xbd965fcf	-0.07342493
39	0x3cd8374f	0.02639356
40	0xbe65174c	-0.22372168
41	0xbd53b28d	-0.05168395
42	0x3e67fa7e	0.22654149
43	0xbe415a06	-0.18881997
44	0xbee1077d	-0.43951026
45	0x3ea6455d	0.32474795
46	0xbe27fad1	-0.16404273
47	0x3cd52632	0.02601919
48	0x3d1fbdd0	0.03899938
49	0x3eb4ae4c	0.35289228
50	0xbe65bc21	-0.22435047
51	0x3d8284de	0.06372999
52	0xbe8abb66	-0.270961
53	0xbeb8251e	-0.35965818
54	0xbe3b348b	-0.18281762
55	0xbe98d6f9	-0.2985151
56	0x3dc86366	0.09784584
57	0xbd37528e	-0.044756465
58	0x3e25fea5	0.1621042
59	0xbd8f6330	-0.070013404
60	0xbc19f846	-0.009397572
61	0x3e609f2e	0.21935722
62	0x3d824587	0.063609175
63	0x3e5143c0	0.20436001

final_mean.weight f4 [6, 64]
0	0x3d1a75a5	0.03770985
1	0xbd33b3fc	-0.04387282
2	0xbec20016	-0.3789069
3	0x3ee96ce5	0.45590892
4	0xbc251e1c	-0.010077979
5	0xbdf9e2af	-0.122014396
6	0x3cb3d0d1	0.021950157
7	0xbe638780	-0.22219658
8	0x3ea269b2	0.31721264
9	0x3f048faa	0.51781714
10	0xbe94920d	-0.29017678
11	0x3e0560d2	0.13025215
12	0x3e312407	0.172989
13	0x3e3e5c94	0.18590003
14	0x3c803965	0.015652368
15	0xbddc63b2	-0.10761203
16	0xbe9f6771	-0.31133607
17	0x3d51ec18	0.051250547
18	0x3e8d1184	0.27552426
19	0x3e393532	0.18086699
20	0x3e1f0bae	0.15531799
21	0x3e1975c4	0.1498633
22	0x3ddf5e03	0.10906603
23	0x3eb09728	0.34490323
24	0xbe2984e5	-0.16554601
25	0xbe196b40	-0.14982319
26	0xbe376ace	-0.17911837
27	0xbd84a702	-0.06477167
28	0x3b95dfa2	0.0045737782
29	0xbe6306c4	-0.2217055
30	0xbe318fd8	-0.17340028
31	0x3e54fd38	0.2079972
32	0xbe0c53c4	-0.13703829
33	0xbed1a0f7	-0.4094312
34	0xbde25bfb	-0.110527
35	0x3e830f14	0.2559744
36	0xbef82697	-0.48466942
37	0x3c3973e1	0.011319132
38	0x3ef023d2	0.4690233
39	0xb82f3452	-4.177198e-05
40	0x3e99ca57	0.30037186
41	0x3dea5913	0.11442771
42	0x3e7f2bfc	0.24919122
43	0xbe8594bd	-0.2609004
44	0x3db79242	0.08963443
45	0x3a8ee8d4	0.0010903128
46	0xbea3cdf0	-0.31993055
47	0x3e1006a6	0.14065036
48	0xbc19e4de	-0.009392945
49	0x3ce99b49	0.028516429
50	0xbe6fe4fc	-0.23427194
51	0xbe3bace1	-0.18327667
52	0x3e233e02	0.15941623
53	0xbd8aca4e	-0.06776868
54	0xbf2100c0	-0.6289177
55	0xbe35b9d4	-0.17746669
56	0x3d3f639f	0.046725865
57	0x3edf9a09	0.43672207
58	0xbdce4d9b	-0.10073396
59	0x3c2db8ab	0.01060311
60	0x3e6990bc	0.22809118
61	0xbe86f20a	-0.26356536
62	0x3ecaf0c3	0.39636812
63	0x3f006241	0.50149924
64	0xbe5d2dc7	-0.21599494
65	0xbd0dc9d3	-0.034616303
66	0xbcc32c3b	-0.023824802
67	0xbdd3d48e	-0.10343276
68	0xbd7c9fc0	-0.061675787
69	0xbd641f3e	-0.055693857
70	0x3e26e579	0.16298474
71	0xbe99975c	-0.2999829
72	0x3c6f070a	0.014589081
73	0xbea3d7d3	-0.32000598
74	0xbe064b8a	-0.13114753
75	0xbe23cf9a	-0.15997162
76	0x3e97e024	0.29663193
77	0xbcfbef6f	-0.03075382
78	0x3dc026a0	0.09382367
79	0xbec27d6f	-0.37986323
80	0xbda8c0ff	-0.08239936
81	0xbe785a67	-0.24253236
82	0x3d0389fc	0.032114014
83	0xbd80fe1f	-0.0629847
84	0x3d2d086a	0.042244352
85	0x3dc797fa	0.09745784
86	0x3e99f326	0.3006832
87	0x3e416112	0.18884686
88	0xbde23507	-0.110452704
89	0x3e7c495e	0.24637362
90	0x3e5ef2f3	0.21772365
91	0xbe424cb5	-0.18974574
92	0x3e85cb4d	0.2613167
93	0xbe96b3ea	-0.2943414
94	0xbf0b85c7	-0.54501003
95	0xbe2c41f0	-0.16822028
96	0xbd763d06	-0.06011679
97	0xbec79b23	-0.38985547
98	0x3e056ad0	0.13029027
99	0x3ebd20c0	0.3693905
100	0x3d83581d	0.06413291
101	0xbe994b62	-0.29940325
102	0xbcdd33bf	-0.027002214
103	0x3ec26a69	0.3797181
104	0xbeb786e8	-0.35845113
105	0x3d8cd8c9	0.06877286
106	0x3d196d50	0.037457764
107	0x3eba3e4b	0.3637565
108	0x3d7e688a	0.062111415
109	0x3e1e770f	0.15475105
110	0xbdc13aa5	-0.09435014
111	0xbe38a5b0	-0.18031955
112	0x3dc959b1	0.098315604
113	0xbc84ce9d	-0.016211802
114	0xbf179a2f	-0.5921964
115	0x3eb6c274	0.3569523
116	0x3d0e99a1	0.03481448
117	0x3df85eb9	0.12127442
118	0x3c3e3cf7	0.011611215
119	0xbe874d60	-0.2642622
120	0x3e3be947	0.18350707
121	0xbe68f75e	-0.22750613
122	0x3e668a7c	0.22513765
123	0x3dad0806	0.08448796
124	0xbe8b7d6d	-0.2724413
125	0x3d4690ec	0.048478052
126	0xbe51cbb2	-0.2048786
127	0x3ddd42a4	0.10803726
128	0xbe114bcf	-0.14189075
129	0xbd9e074c	-0.077162355
130	0x3dbfcba7	0.093650155
131	0xbe8cfeb7	-0.27538082
132	0xbe118cf1	-0.14213921
133	0xbf4a6de3	-0.79073924
134	0x3e363717	0.17794453
135	0xb9022395	-0.00012411021
136	0x3ea7a3ba	0.327421
137	0x3ddb3244	0.10702947
138	0xbe0810df	-0.13287686
139	0x3ba6b3eb	0.005087366
140	0x3df154be	0.117837414
141	0x3d375dcb	0.044767182
142	0xbd039137	-0.03212091
143	0x3ed83c21	0.42233375
144	0x3cd966ec	0.026538335
145	0xbe88fc1c	-0.26754844
146	0x3eadfcec	0.33982027
147	0xbc25d762	-0.010122152
148	0x3aa40757	0.0012514394
149	0xbd0bf582	-0.03416968
150	0x3e187e58	0.14891946
151	0x3db5b01f	0.08871483
152	0x3ebefe0f	0.37303206
153	0xbdfbdfdd	-0.12298558
154	0xbe34d826	-0.17660579
155	0x3c921d25	0.017836163
156	0xbd072687	-0.032995727
157	0xbea85064	-0.32873833
158	0x3de1cd6d	0.1102551
159	0xbe9f220e	-0.3108067
160	0x3ea91534	0.3302399
161	0x3e1aa02e	0.15100166
162	0xbd9b283c	-0.075760335
163	0x3ec6d127	0.38831446
164	0x3e1719aa	0.14755884
165	0xbbbb3c0d	-0.0057139457
166	0xbe83a01f	-0.257081
167	0x3e8ed21e	0.27894682
168	0xbc7134ea	-0.014722088
169	0xbeded328	-0.43520474
170	0xbe0a46b9	-0.13503541
171	0xbeec5370	-0.46157408
172	0x3e10a99b	0.141272
173	0x3e97a412	0.29617363
174	0xbf8104d2	-1.0079596
175	0xbe014686	-0.12624559
176	0x3efe6fd5	0.49694696
177	0xbe0c181e	-0.13681075
178	0x3e63132d	0.22175284
179	0x3d896acc	0.06709823
180	0x3bd7dc0b	0.0065875105
181	0x3e752f4f	0.23943828
182	0xbeb57c08	-0.3544619
183	0x3b010b8c	0.001969072
184	0x3e0689ca	0.131385
185	0x3e4629f1	0.19351937
186	0xbea7f257	-0.32802078
187	0x3cf092f6	0.029366951
188	0x3e2b8399	0.1674942
189	0x3ed01f43	0.4064885
190	0x3eae0494	0.33987868
191	0x3e230e1d	0.15923353
192	0x3dd78680	0.10523701
193	0x3dfb363d	0.122662045
194	0xbe104c84	-0.14091688
195	0xbd351ac0	-0.044214964
196	0xbe913239	-0.2835863
197	0xbdb95e10	-0.09051144
198	0xbe248596	-0.16066584
199	0x3e068b00	0.13138962
200	0xbeaf0cbb	-0.341894
201	0x3ef47045	0.47741905
202	0xbd1c1e67	-0.03811493
203	0x3e529b9d	0.20567174
204	0x3e08aedc	0.13347954
205	0xbdbd28d8	-0.09236306
206	0xbd82e714	-0.06391731
207	0xbcc7b306	-0.024377357
208	0x3dce16b9	0.10062928
209	0xbdb1114a	-0.08645876
210	0xbe07454d	-0.1321003
211	0xbde88db2	-0.11355151
212	0x3d3432eb	0.04399387
213	0x3ecce281	0.4001656
214	0xbdd9285a	-0.106033996
215	0x3e211232	0.15729597
216	0x3e4a59c1	0.19760801
217	0x3c91cb30	0.017797083
218	0x3ce424aa	0.027849514
219	0x3e3db44c	0.18525809
220	0xbc91838c	-0.017762922
221	0x3dcb1a5f	0.09917139
222	0xbde6372a	-0.112409905
223	0x3d389fcd	0.045074273
224	0x3d91f433	0.071266554
225	0x3ce8f263	0.028435891
226	0x3ef12851	0.4710107
227	0xbe54ac1f	-0.20768784
228	0x3de4d2ee	0.11173044
229	0x3e23d0f2	0.15997675
230	0x3e87bd9d	0.2651185
231	0x3e46b34f	0.19404338
232	0xbea82fce	-0.32848972
233	0xbe0f0c24	-0.13969475
234	0xbe1c0e66	-0.15239868
235	0x3d89266d	0.06696782
236	0xbed3b8e4	-0.41351998
237	0x3e47dc00	0.19517517
238	0x3e5933fc	0.21211237
239	0xbd2ba859	-0.041908596
240	0xbe1116b3	-0.14168815
241	0x3e839ff0	0.2570796
242	0xbe049c80	-0.12950325
243	0x3e182fb4	0.14861947
244	0xbb8da645	-0.0043227994
245	0xbe580903	-0.21097188
246	0x3e124f68	0.14288104
247	0xbd9fde17	-0.07806032
248	0xbc723749	-0.014783689
249	0xbd3e7c57	-0.0465053
250	0x3e10b5da	0.14131871
251	0x3dbf6a29	0.0934642
252	0xbdd81394	-0.10550609
253	0x3ea6901c	0.32531822
254	0xbcfe881f	-0.031070767
255	0x3e19a47a	0.15004149

final_mean.bias f4 [6]
0	0x3e549a93	0.2076209
1	0x3e0c4bd6	0.13700804
2	0xbb9a9919	-0.0047179577
3	0x3e34180e	0.17587301
4	0x3e05347f	0.13008307
5	0xbd08d906	-0.033410095

exp_avg f4 [64, 17]
0	0x3a477c04	0.00076097273
1	0xba709fe9	-0.0009179102
2	0xba271f17	-0.0006375177
3	0xb9e1f96d	-0.0004310118
4	0xb92e2f6c	-0.00016611599
5	0x3a6407b9	0.00086986605
6	0x39401c26	0.00018321033
7	0x3af0aa2e	0.0018361264
8	0xba32a1e9	-0.00068142876
9	0x3967b841	0.00022098517
10	0x3ab590dd	0.0013852377
11	0x3a993879	0.0011689804
12	0xb8b1e72f	-8.483079e-05
13	0x39d69d75	0.00040934575
14	0xb9d08def	-0.000397786
15	0x3a9778c1	0.0011556373
16	0x37262fcb	9.905499e-06
17	0xb9180838	-0.00014498911
18	0xbad97ef7	-0.0016593625
19	0xbb05e4ca	-0.0020430558
20	0x3927339a	0.00015945584
21	0xba943578	-0.0011307439
22	0xba2a838f	-0.0006504589
23	0xbad8da46	-0.0016544543
24	0x3a2ab6d1	0.0006512227
25	0x3abdc0b8	0.001447699
26	0xb9e2b1be	-0.00043238507
27	0xba0648c1	-0.00051225355
28	0xba1245f3	-0.0005579881
29	0xb981bb25	-0.0002474423
30	0x390ed248	0.00013620511
31	0xbb09e077	-0.0021038332
32	0x3ab7885e	0.0014002433
33	0x39fc579e	0.00048130465
34	0xb9e72840	-0.00044089742
35	0xb9e34736	-0.0004334987
36	0xba6ee09d	-0.00091124495
37	0x390b28b2	0.00013271233
38	0xba29498c	-0.0006457798
39	0x3a0832a4	0.00051955343
40	0xba02a53a	-0.0004983727
41	0x3a21f8fa	0.0006178763
42	0x39aa4095	0.00032473044
43	0x38948c19	7.083285e-05
44	0x3a5626ef	0.00081692537
45	0x3a088e66	0.00052092073
46	0xb91b9bfe	-0.00014840064
47	0x39213b09	0.00015376149
48	0x3a88ee80	0.0010447055
49	0x3a0c0ec9	0.00053427793
50	0xb92d2e74	-0.00016515871
51	0x398e2eb5	0.0002711915
52	0xb9ca42a9	-0.00038578108
53	0xb9ce9f7b	-0.00039410204
54	0xb9faae49	-0.00047813568
55	0x397c2c4b	0.00024049093
56	0xb935e84d	-0.00017348044
57	0x3a6a4ff0	0.0008938303
58	0x3a458f9e	0.0007536354
59	0x39eddd35	0.00045368975
60	0xb9c53a7d	-0.00037618345
61	0x3a87157a	0.0010306083
62	0x3ae2cdf3	0.0017303809
63	0xb98def2e	-0.00027071818
64	0x3909bd63	0.0001313589
65	0xbaf13414	-0.0018402361
66	0x3ab50354	0.0013810196
67	0xba9950cc	-0.0011697053
68	0x3938e24d	0.00017631911
69	0x39f7e518	0.000472822
70	0x3a16f3b6	0.00057583617
71	0x38dd08bc	0.00010539728
72	0x391782f3	0.00014449265
73	0x39cf1fba	0.00039505755
74	0x39117181	0.00013870561
75	0xba0b079d	-0.00053035637
76	0xba0933d7	-0.000523386
77	0x3a1e6922	0.00060428877
78	0xba70ea3a	-0.0009190176
79	0xba3a855a	-0.0007115208
80	0x395035cd	0.00019856468
81	0xb9194a5d	-0.0001461892
82	0xb728247f	-1.0022078e-05
83	0xba3316be	-0.0006831697
84	0xb93edf11	-0.0001820291
85	0x38e98cfa	0.00011136565
86	0xbb57c288	-0.0032922346
87	0xbb58b5c9	-0.0033067337
88	0x38f96a7f	0.00011893082
89	0xbb0ef3b4	-0.002181274
90	0xb9f3a28a	-0.00046469673
91	0xbb685897	-0.0035453194
92	0x3aff447a	0.0019475364
93	0x3a1b0e9f	0.00059149595
94	0xb9fa2b04	-0.00047715765
95	0xba6ef6f0	-0.0009115776
96	0xbb0b89c0	-0.0021291822
97	0x38296a60	4.039181e-05
98	0x39e3215f	0.00043321677
99	0xb8d11264	-9.969322e-05
100	0x3a86f87a	0.001029744
101	0x3a82d6e4	0.0009982255
102	0x3a3cea3b	0.0007206534
103	0xba213313	-0.0006149273
104	0xb8e4cc03	-0.00010909887
105	0x385069b2	4.96895e-05
106	0x39982702	0.00029020762
107	0xbae61d64	-0.0017556367
108	0x39b2631b	0.00034024645
109	0x3a1dc82a	0.00060189015
110	0x39ead070	0.00044787256
111	0xb9e07535	-0.00042811935
112	0x3aaa7f19	0.0013007849
113	0x3a9277ab	0.001117458
114	0xb96a5c04	-0.00022350257
115	0x38085872	3.2507298e-05
116	0xb9b891e7	-0.0003520392
117	0x3a5eb123	0.00084950234
118	0xba045d90	-0.0005049342
119	0xbadae243	-0.0016699511
120	0x3b3f9e07	0.0029238479
121	0x3af38648	0.0018579448
122	0x38cb06a0	9.681028e-05
123	0x3a8dc2a8	0.0010815458
124	0x3a53c8e3	0.00080789457
125	0x3b11788b	0.0022197093
126	0xba9dfa4b	-0.0012052743
127	0xb91f7852	-0.00015208244
128	0x3a438b56	0.00074594223
129	0xba10ca89	-0.0005523344
130	0x3a040f23	0.0005037656
131	0x395772e5	0.000205468
132	0xb9b95c4b	-0.00035354713
133	0xbb01b345	-0.001979069
134	0xba04d537	-0.0005067172
135	0xbaefff9c	-0.001831043
136	0x3ab8e879	0.0014107368
137	0xbaf1f25b	-0.0018459068
138	0xbaf86f16	-0.0018954005
139	0xb9527f11	-0.00020074497
140	0xb88ed84f	-6.811378e-05
141	0x3b0445fe	0.002018332
142	0x3a1fdeaa	0.0006098548
143	0x3b2c7c0e	0.002631906
144	0xb9ab30dd	-0.00032652068
145	0x3ac6afdb	0.001515861
146	0x3aca3787	0.0015427925
147	0x3b39401e	0.0028266977
148	0xb9c65948	-0.00037832023
149	0x3aa9d2a7	0.0012956456
150	0xbb37e182	-0.0028057997
151	0x3b4f34e6	0.0031617223
152	0xbb0bc158	-0.0021324959
153	0xbab01117	-0.0013432828
154	0x3a8c4c12	0.0010703823
155	0x3a107e70	0.0005512005
156	0x39c8a2c0	0.0003826823
157	0xb9fa8e4a	-0.0004778973
158	0x3a0f58b4	0.0005468235
159	0xbad289c7	-0.0016062789
160	0xbafbee2c	-0.0019220761
161	0x392b26f7	0.00016322346
162	0xb9ee757c	-0.0004548243
163	0xbb3cdfce	-0.0028819921
164	0xbb55359a	-0.003253317
165	0x3a05f7bf	0.00051104644
166	0xbab3b709	-0.0013711165
167	0x3adea14b	0.0016985325
168	0xbb333c8c	-0.0027349321
169	0x3adc4890	0.0016806293
170	0x398d30e5	0.00026930045
171	0xb8176684	-3.609668e-05
172	0xb56a6716	-8.73218e-07
173	0x39168dff	0.00014358012
174	0x38a46da5	7.840552e-05
175	0xb91a3149	-0.00014704945
176	0xb8f3c51e	-0.00011623859
177	0xb987bad0	-0.00025888393
178	0x39d7690c	0.00041086262
179	0xb72682e7	-9.924849e-06
180	0xb8aa5487	-8.121976e-05
181	0xb9074154	-0.0001289894
182	0xb81df126	-3.7656304e-05
183	0x39071483	0.00012882244
184	0xb7b9cf32	-2.2150201e-05
185	0xb8ad57f0	-8.2656625e-05
186	0x38d7d0da	0.000102909005
187	0x3ad57bd9	0.001628752
188	0xbaef7b98	-0.0018271087
189	0xbae135ab	-0.0017182132
190	0xba0f9cf3	-0.00054784043
191	0xb9b04176	-0.00033618108
192	0x381add1e	3.6922393e-05
193	0x3a91ca9e	0.0011123007
194	0x3b35ae41	0.0027722272
195	0x3a1aec7c	0.00059098727
196	0x3a818262	0.0009880776
197	0x3b6bf012	0.0036001247
198	0x3b8c9233	0.0042898892
199	0xb9d76f46	-0.000410909
200	0x3a4f448c	0.00079066376
201	0xba8d0001	-0.0010757447
202	0x3b3dbaee	0.002895053
203	0xbb2347ea	-0.002491469
204	0xba448f7e	-0.00074981886
205	0x3b5bd617	0.0033544356
206	0x3b5ce1d8	0.003370395
207	0xb9b41e2c	-0.00034354755
208	0x3a986573	0.0011626914
209	0x3acaf1c0	0.0015483424
210	0x3b2565fa	0.0025237785
211	0xbb068a2d	-0.0020529137
212	0xbb12e952	-0.0022416902
213	0xb91bc2ca	-0.00014854516
214	0xbaa8a674	-0.001286699
215	0xba3c0c25	-0.00071734405
216	0x395d1fdd	0.00021088072
217	0x394e512d	0.00019675931
218	0x3a708ccc	0.0009176254
219	0xbaf1aebe	-0.0018438918
220	0x39236ff3	0.00015586596
221	0x3aaddbf3	0.0013264403
222	0xbb23a7da	-0.0024971873
223	0xbb480dfe	-0.0030525918
224	0xb9b21621	-0.00033967293
225	0xba3eedaa	-0.00072833395
226	0x39f42767	0.00046568664
227	0xba35b848	-0.0006932062
228	0x3b5f3944	0.0034061233
229	0x3a97491a	0.0011542172
230	0x3aa99f07	0.0012941071
231	0x3b3685a3	0.002785065
232	0x3b5873d9	0.0033028035
233	0xb8d69fc8	-0.00010234077
234	0x3a1e0240	0.0006027557
235	0xbb0c6ab6	-0.002142591
236	0x3b55581d	0.003255374
237	0xbb059660	-0.002038382
238	0x394abea8	0.00019335246
239	0x3b03315f	0.002001844
240	0x3af37b44	0.0018576165
241	0x399264cb	0.00027922387
242	0x3ad401af	0.0016174818
243	0x39330649	0.00017073112
244	0x3b022292	0.0019857031
245	0xbab7a517	-0.0014010993
246	0x39b2cef2	0.00034104992
247	0x3a9d2846	0.0011990152
248	0xb9a8a1fa	-0.0003216414
249	0x3aa8e1e5	0.0012884705
250	0x3943672c	0.00018635084
251	0xba754d40	-0.00093575194
252	0xba84bd8f	-0.0010127294
253	0xba382f04	-0.0007026049
254	0xbaf6c161	-0.0018825942
255	0x39513205	0.00019950427
